pc端哭声检测/GLAM-main/GLAM-main/lyh/liuyanhao/model_CNN_Area_mfcc.pth (torch, 619297 bytes, 38 tensors)

conv1a.weight f4 [16, 1, 10, 2]
-0.11500906 0.031233564 0.016882246 -0.07603369 0.21735504 0.16694716 -0.1382005 -0.10162525
0.10824089 -0.13574249 -0.23121186 0.068002835 -0.4022603 -0.4152992 -0.15193082 0.18849091
0.12749203 0.20374475 0.002952893 0.048645884 -0.14960317 0.14370888 0.033098534 -0.043781355
0.039331723 0.0054060398 0.20482743 -0.008148236 -0.005589721 -0.084064476 -0.28835508 -0.31471208
0.09231166 0.29765147 0.060476102 0.17910548 -0.16088238 -0.30465478 -0.1643821 -0.115561485
0.2058803 0.20728691 0.080721036 0.0617462 0.069006585 0.037292827 0.055431478 -0.14786477
0.035683155 0.06885644 -0.111393094 0.09033862 0.1287972 -0.2511341 -0.10600887 -0.04230501
-0.0016898452 0.075825125 -0.19830754 -0.1616203 0.05401111 -0.08514171 0.056194153 0.33028874
-0.10164931 0.040605303 0.118846945 0.2205947 -0.23025201 0.1558219 -0.19961543 -0.27457413
-0.18815993 -0.26030436 0.02426438 -0.23308226 -0.083846904 0.17369454 0.015032391 0.102484986
-0.16324039 0.14639498 -0.09331381 0.18702735 0.2666133 0.1533815 -0.02513965 0.03466
0.05365703 -0.15321974 0.21479042 -0.039639916 0.06234889 0.10362037 0.16964811 0.004760693
-0.17650823 -0.08759581 0.19792436 0.19090332 0.08846558 -0.13643165 0.13438177 -0.16014859
0.2147935 -0.09706926 -0.16687508 0.00894704 -0.0696724 -0.06828185 0.18186048 -0.083344914
-0.044433042 -0.034436926 -0.26107696 0.00093597604 0.19271272 -0.03382819 -0.3294017 -0.40944368
-0.1246868 0.026186792 -0.12752582 0.0135451825 -0.1897715 0.04692474 -0.11551284 0.026716014
0.17175782 0.14853701 -0.2767394 -0.34355173 0.26909497 -0.075105146 0.25671676 0.3582877
0.08787069 -0.17106615 0.08386489 -0.14158358 -0.16783491 -0.089044005 -0.13507828 -0.012803566
0.15524228 0.05490186 -0.08621577 0.10826085 0.21956871 0.24506468 0.043123245 -0.32533684
0.011427743 0.18737383 -0.17275724 -0.24944709 -0.17765407 -0.08339258 -0.40262127 -0.37523642
-0.14162701 0.12885438 -0.04582567 0.10939234 0.18670854 -0.079034396 0.079691574 -0.11483733
0.04045007 -0.022479096 0.13759549 0.16806439 -0.34249333 -0.10857821 0.3668404 0.3122795
-0.17861576 -0.03786294 0.1156483 -0.1449492 0.18937358 0.056139424 -0.1139792 -0.11970936
-0.084117375 -0.08452192 0.12515593 -0.15168107 -0.04671248 0.16559616 -0.19811714 -0.2797119
-0.023570577 0.18779293 0.27403226 0.1306546 0.07565348 -0.10805843 -0.40094507 -0.20264348
0.097245894 0.21853045 -0.20010151 0.21933737 -0.15636744 0.21535271 0.13658561 0.15825216
-0.058393404 -0.027294666 -0.005767425 0.052011054 0.17356284 0.18780515 -0.25985914 -0.07788577
-0.11647689 0.000766601 0.29049242 0.28006318 -0.089033894 0.038895685 -0.040349327 0.087288335
0.21788494 0.17655806 0.16534182 -0.13784288 0.018834602 0.05876998 0.0062768287 -0.20009276
0.2926843 0.15014046 0.12043748 -0.12472936 0.09336598 0.005141219 -0.18669344 0.0502532
0.16529208 0.021031765 -0.08469506 0.027135361 -0.20016791 0.12698565 0.21413575 -0.14056796
0.010325466 0.18984565 0.3047394 0.105904 0.1466689 -0.035112005 -0.13436016 0.041070364
00000000: df89 ebbd 88dd ff3c a34c 8a3c 8db7 9bbd
00000010: 5292 5e3e 32f4 2a3e 6f84 0dbe e620 d0bd
00000020: 66ad dd3d 1400 0bbe cdc2 6cbe 1245 8b3d
00000030: 10f5 cdbe 19a2 d4be c193 1bbe c303 413e
00000040: 458d 023e 77a2 503e 5385 413b e840 473d
00000050: 9331 19be 6c28 133e 5492 073d 1454 33bd
00000060: 4d1a 213d 2625 b13b 48be 513e 2e80 05bc
00000070: fa29 b7bb ff29 acbd 47a3 93be f121 a1be
00000080: e50d bd3d c665 983e cab5 773d 6d67 373e
00000090: 5abe 24be b6fb 9bbe c853 28be 80ab ecbd
000000a0: 49d2 523e 0543 543e 1251 a53d 95e9 7c3d
000000b0: 5353 8d3d 5dc0 183d 1e0c 633d dd69 17be
000000c0: 8028 123d 9b04 8d3d 1022 e4bd 7403 b93d
000000d0: 6ae3 033e a694 80be 2e1b d9bd 0548 2dbd
000000e0: cc7d ddba 344a 9b3d 2211 4bbe cb7f 25be
000000f0: c13a 5d3d c75e aebd d72b 663d 9b1b a93e
00000100: 832d d0bd bf51 263d 0766 f33d 94e3 613e
00000110: 2fc7 6bbe c78f 1f3e fd67 4cbe fb94 8cbe
00000120: ffac 40be 9d46 85be 18c6 c63c 1ead 6ebe
00000130: edb7 abbd fbdc 313e 6b4a 763c a6e3 d13d
00000140: 7d28 27be 91e8 153e 501b bfbd 1984 3f3e
00000150: 8a81 883e 0a10 1d3e abf1 cdbc a5f7 0d3d
00000160: 79c7 5b3d a3e5 1cbe 05f2 5b3e 775d 22bd
00000170: 8d61 7f3d eb36 d43d 3cb8 2d3e 96ff 9b3b
00000180: 93be 34be 6f65 b3bd afac 4a3e 297c 433e
00000190: 712d b53d bdb4 0bbe 609b 093e fefd 23be
000001a0: d4f2 5b3e 40cc c6bd 4de1 2abe 9b96 123c
000001b0: 67b0 8ebd 5bd7 8bbd a239 3a3e bdb0 aabd
000001c0: 6cff 35bd bc0d 0dbd e1ab 85be 4a5c 753a
000001d0: 7c56 453e 6e8f 0abd 57a7 a8be 9aa2 d1be
000001e0: cb5b ffbd af85 d63c 2196 02be 9dec 5d3c
000001f0: 7653 42be 2834 403d ff91 ecbd 8bdb da3c
00000200: 48e1 2f3e 161a 183e c9b0 8dbe 03e6 afbe
00000210: d1c6 893e bad0 99bd 6170 833e 7c71 b73e
00000220: 8cf5 b33d f72b 2fbe 5bc1 ab3d 49fb 10be
00000230: eadc 2bbe b45c b6bd f651 0abe 0cc6 51bc
00000240: d5f7 1e3e c6e0 603d e591 b0bd ddb7 dd3d
00000250: 9fd6 603e 3cf2 7a3e 00a2 303d 8d92 a6be
00000260: 6e3b 3b3c edde 3f3e 46e7 30be 0f6f 7fbe
00000270: f3ea 35be bbc9 aabd 6024 cebe fd1e c0be
00000280: ac06 11be 67f2 033e b3b3 3bbd 1709 e03d
00000290: 8630 3f3e c9dc a1bd 5635 a33d d62f ebbd
000002a0: f9ae 253d 1526 b8bc d5e5 0c3e 1219 2c3e
000002b0: 495b afbe 415e debd 81d2 bb3e 19e3 9f3e
000002c0: 0de7 36be 2c16 1bbd 04d9 ec3d 906d 14be
000002d0: 26eb 413e 74f2 653d ed6d e9bd 2e2a f5bd
000002e0: bb45 acbd d419 adbd e028 003e 4852 1bbe
000002f0: 9655 3fbd 0a92 293e 38df 4abe 6636 8fbe
00000300: 1517 c1bc ca4c 403e f54d 8c3e 52ca 053e
00000310: 36f0 9a3d bd4d ddbd ac48 cdbe c681 4fbe
00000320: db28 c73d 72c6 5f3e 69e7 4cbe fa99 603e
00000330: c91e 20be 6c85 5c3e 19dd 0b3e db0c 223e
00000340: ec2d 6fbd 1099 dfbc abfc bcbb 8b09 553d
00000350: 75ba 313e fe4f 403e 420c 85be 9382 9fbd
00000360: 708b eebd b9f5 483a 6cbb 943e 7164 8f3e
00000370: 6757 b6bd 1551 1f3d 5645 25bd 3ac4 b23d
00000380: 3b1d 5f3e a3cb 343e 5e4f 293e af26 0dbe
00000390: 064b 9a3c cab8 703d dbad cd3b 1ee5 4cbe
000003a0: b7da 953e 6cbe 193e eda7 f63d 1b72 ffbd
000003b0: aa36 bf3d ac77 a83b 912c 3fbe 4dd6 4d3d
000003c0: 5442 293e cf4a ac3c 9b74 adbd fa4a de3c
000003d0: d1f8 4cbe 8708 023e 6746 5b3e 0cf1 0fbe
000003e0: 252c 293c e666 423e cd06 9c3e 32e4 d83d
000003f0: 5f30 163e 9bd1 0fbd b695 09be 6639 283d

conv1a.bias f4 [16]
1.5635325e-05 5.133453e-05 2.5374382e-05 3.687434e-05 6.327738e-05 -2.1892836e-05 -4.521804e-06 2.350117e-05
-8.255445e-05 -4.7806447e-05 6.0280476e-05 1.3505214e-05 2.2395432e-05 3.8374983e-06 5.3242107e-05 -1.5577543e-05
00000000: 9b28 8337 0850 5738 12db d437 85a9 1a38
00000010: c9b3 8438 82a6 b7b7 00ba 97b6 6124 c537
00000020: 1521 adb8 c883 48b8 abd5 7c38 7494 6237
00000030: d3dd bb37 dcc3 8036 4750 5f38 85ac 82b7

conv1b.weight f4 [16, 1, 2, 8]
0.03276004 -0.17852835 -0.06690497 -0.20249555 -0.01276704 0.025603015 -0.026221033 0.035472658
-0.23517935 -0.14227565 -0.26968035 -0.2876258 -0.17457946 0.12071446 -0.24946064 0.09444103
0.08913631 0.049160946 0.033777803 0.14998072 -0.23973022 0.15771787 0.019656176 0.20022844
0.22255489 -0.03245585 0.116421014 0.08454373 0.10462852 0.16266231 0.07164811 -0.050395794
-0.003979025 -0.19600405 0.14241542 0.22719175 -0.11967541 0.16164173 -0.16412447 0.06661277
-0.3858937 -0.3439527 -0.009306501 -0.1321481 0.21131735 0.032062113 -0.07239827 -0.26969635
-0.12421215 -0.09066477 -0.18621133 0.25687832 0.06419771 0.20869993 -0.023166304 -0.06148196
-0.08881335 -0.023571042 -0.028343286 0.028665919 -0.19360131 -0.2818626 0.15833648 -0.17336479
-0.24784353 -0.10176469 -0.22376421 0.0062978175 0.12096105 -0.1828835 0.031744298 0.17980918
-0.21146381 0.22115412 0.015781468 -0.112607375 -0.21495749 -0.026024545 -0.25203192 -0.20600438
-0.018781357 0.1833886 0.24347581 0.1410727 0.04585491 -0.16302367 -0.222311 -0.21317935
0.015178271 0.21012573 0.15871835 -0.0365297 0.16301262 -0.2276922 -0.15999854 -0.014259653
0.071027234 0.13669561 0.2088787 -0.21609429 0.15543771 0.045910574 -0.18524058 -0.037318926
0.13963892 -0.21587689 0.17816165 0.20487356 -0.0987424 0.11850102 0.12976895 0.06294431
0.016128443 -0.22212377 -0.14490737 0.14070174 -0.03850716 0.26109365 -0.18806314 -0.11737413
0.12944984 0.28768128 0.20175876 0.13134179 0.07258284 0.0334329 -0.0054671764 -0.13012622
0.1670857 0.035877287 0.12135176 -0.14002816 -0.041715607 -0.20366977 -0.23853114 0.16486253
-0.23477583 -0.19082879 0.11666858 0.23627035 0.04119821 -0.004481284 0.15584889 -0.28807074
0.16216958 0.18724874 -0.19200392 0.041933063 -0.016447917 0.08057481 -0.07275847 -0.1786383
-0.004826912 0.22601946 -0.005338685 -0.10193514 -0.18853286 -0.11007866 0.19093965 -0.14462581
0.22256105 0.18897305 -0.22481006 -0.18332815 -0.2118079 0.21818522 0.1851739 -0.12324508
0.15708865 0.07007383 0.10333357 0.16414095 -0.052897677 -0.05146602 0.028805925 -0.32084727
0.227373 -0.03901031 0.07937178 -0.108770244 -0.027525062 0.124954134 0.23515087 0.15728143
-0.06294457 -0.22063278 0.041770335 -0.22246036 -0.036189213 -0.06460114 -0.003916348 -0.11250389
0.13124527 -0.08046084 0.23398554 0.28208405 0.14862688 0.21901539 -0.09980961 0.10371481
-0.21595739 -0.24041823 0.06757752 0.2350721 0.2289247 -0.006981348 -0.13597578 0.1927773
0.05061703 -0.047042184 -0.14133207 -0.035520617 -0.03028609 -0.23110251 0.13146205 -0.20599343
-0.13580216 -0.22119936 -0.24650481 0.15571569 0.020067459 -0.1968534 -0.14021724 0.09440905
0.22974345 0.17656747 0.14600289 -0.23314917 -0.24594033 -0.15835164 -0.020224623 0.20242149
-0.13795093 -0.09677965 -0.1118758 -0.18201573 0.25424513 0.07401698 0.23530188 0.02862088
0.045680474 -0.07275198 0.12633833 0.12319816 -0.16890277 -0.22681671 0.178596 -0.19275859
-0.0049345107 -0.29589948 -0.26222867 -0.024502072 -0.11253146 0.21718921 -0.048823234 0.1415767
00000000: 642f 063d 23d0 36be 7905 89bd fe5a 4fbe
00000010: d92c 51bc 6abd d13c 7ecd d6bc c74b 113d
00000020: dbd2 70be b5b0 11be 8b13 8abe b043 93be
00000030: f5c4 32be 2539 f73d 9c72 7fbe 4c6a c13d
00000040: 198d b63d fd5c 493d 985a 0a3d 8c94 193e
00000050: d77b 75be cb80 213e fd05 a13c af08 4d3e
00000060: 6ee5 633e 6df0 04bd 246e ee3d 4325 ad3d
00000070: 7a47 d63d f390 263e 3fbc 923d d26b 4ebd
00000080: 7b62 82bb 49b5 48be 59d5 113e f4a4 683e
00000090: 6218 f5bd 6985 253e 3f10 28be 476c 883d
000000a0: dc93 c5be 911a b0be 4b7a 18bc d551 07be
000000b0: 9363 583e 9053 033d 8b45 94bd a415 8abe
000000c0: f162 febd 73ae b9bd 2fae 3ebe 8e85 833e
000000d0: 177a 833d 6fb5 553e 43c7 bdbc 82d4 7bbd
000000e0: c6e3 b5bd 0f18 c1bc 2e30 e8bc cad4 ea3c
000000f0: 6c3f 46be 4b50 90be f522 223e 8a86 31be
00000100: b2ca 7dbe 016a d0bd 7222 65be ec5d ce3b
00000110: 6dba f73d d045 3bbe 4f06 023d e61f 383e
00000120: f889 58be 3a76 623e 2348 813c b29e e6bd
00000130: d11d 5cbe 6d31 d5bc 540a 81be d0f2 52be
00000140: 5cdb 99bc 39ca 3b3e b951 793e 5d75 103e
00000150: 5cd2 3b3d adef 26be 7fa5 63be b04b 5abe
00000160: 48ae 783c 332b 573e 1087 223e 2ba0 15bd
00000170: c8ec 263e 2528 69be a8d6 23be 52a1 69bc
00000180: ba76 913d eff9 0b3e 4ce4 553e d247 5dbe
00000190: 102b 1f3e ba0c 3c3d b5af 3dbe bbdb 18bd
000001a0: 81fd 0e3e d50e 5dbe 0270 363e 60ca 513e
000001b0: 7539 cabd aab0 f23d 27e2 043e f2e8 803d
000001c0: cc1f 843c 6a74 63be 9962 14be 1e14 103e
000001d0: afb9 1dbd 11ae 853e a093 40be d961 f0bd
000001e0: 808e 043e f64a 933e d999 4e3e 767e 063e
000001f0: 50a6 943d f0f0 083d 0026 b3bb cf3f 05be
00000200: 8418 2b3e 10f4 123d 4687 f83d 8b63 0fbe
00000210: fcdd 2abd cf8e 50be 8241 74be b9d1 283e
00000220: 1369 70be 9f68 43be f0ef ee3d dbf0 713e
00000230: 74bf 283d bcd7 92bb da96 1f3e 027e 93be
00000240: c80f 263e 22be 3f3e ad9c 44be 01c2 2b3d
00000250: c8bd 86bc 6804 a53d 6502 95bd f5ec 36be
00000260: 132b 9ebb a571 673e 23f0 aebb 5fc3 d0bd
00000270: c20e 41be ec70 e1bd af85 433e ca18 14be
00000280: 0be7 633e 2782 413e 9c34 66be 60ba 3bbe
00000290: 2ce4 58be f26b 5f3e 3a9e 3d3e eb67 fcbd
000002a0: d9db 203e de82 8f3d 8da0 d33d 9114 283e
000002b0: 3cab 58bd 09ce 52bd 67fa eb3c 1846 a4be
000002c0: 78d4 683e 46c9 1fbd ac8d a23d efc2 debd
000002d0: 3d7c e1bc f4e7 ff3d 64cb 703e 620e 213e
000002e0: 15e9 80bd 8fed 61be 5f17 2b3d a6cc 63be
000002f0: 243b 14bd 9a4d 84bd b554 80bb 7168 e6bd
00000300: 2965 063e a7c8 a4bd e899 6f3e 526d 903e
00000310: a531 183e 9245 603e fb68 ccbd 6e68 d43d
00000320: ef23 5dbe 3230 76be 1566 8a3d beb6 703e
00000330: 3d6b 6a3e cbc3 e4bb 3c3d 0bbe 6a67 453e
00000340: ce53 4f3d 4eaf 40bd 5bb9 10be 117e 11bd
00000350: 891a f8bc 23a6 6cbe fd9d 063e f1ef 52be
00000360: b90f 0bbe 1682 62be c26b 7cbe ef73 1f3e
00000370: 8364 a43c f093 49be 1c95 0fbe 8859 c13d
00000380: de41 6b3e 1ace 343e c881 153e a8be 6ebe
00000390: c8d7 7bbe ef26 22be 1cae a5bc 9447 4f3e
000003a0: 0243 0dbe 6934 c6bd 241f e5bd 5562 3abe
000003b0: 6b2c 823e 3796 973d faf2 703e 5676 ea3c
000003c0: 731b 3b3d fdfe 94bd d65e 013e 514f fc3d
000003d0: d9f4 2cbe a442 68be dfe1 363e 8262 45be
000003e0: adb1 a1bb 2380 97be d642 86be 92b8 c8bc
000003f0: e576 e6bd d966 5e3e dffa 47bd 7cf9 103e

conv1b.bias f4 [16]
5.5247245e-05 6.194772e-06 -1.8381636e-05 -0.000119148535 -7.67132e-06 -1.5582364e-05 -4.9918006e-05 1.365402e-05
-6.395786e-05 -2.8279583e-06 0.00011848369 -2.9096342e-05 -2.0239755e-05 -1.2442752e-05 8.929688e-05 -3.6343947e-05
00000000: 47b9 6738 b0dc cf36 4332 9ab7 62df f9b8
00000010: 12b4 00b7 dfb6 82b7 0d5f 51b8 9213 6537
00000020: 1d21 86b8 f4c7 3db6 727a f838 eb13 f4b7
00000030: 8bc8 a9b7 37c1 50b7 e644 bb38 0470 18b8

conv2.weight f4 [32, 16, 3, 3]
-0.02758993 -0.04729758 0.013333375 0.0009512729 0.006654524 -0.001432867 0.017207436 0.03989047
-0.07957809 0.011591538 0.11615333 0.15766174 -0.031333603 0.004834335 0.008933753 -0.04931936
-0.021112664 -0.13732524 0.057888675 -0.02774627 0.060413644 -0.16727817 -0.16611539 -0.15038264
0.018466482 0.077191494 0.03903586 0.03448261 0.030496247 -0.038702942 -0.04587516 -0.15401532
-0.08029561 0.042414352 0.05549944 -0.025245683 0.11964469 -0.047384616 -0.048752204 -0.02546413
-0.088626504 -0.03174056 0.023723038 0.04430889 -0.041409854 0.087396294 0.15459324 0.03510231
0.09283828 0.09159728 0.07893308 -0.15809539 -0.08011976 -0.14036545 -0.119362585 -0.08072147
-0.022054667 -0.0064299437 -0.0717769 -0.0809808 -0.023944872 -0.022055248 0.034690123 -0.04365273
-0.07375993 0.00092286017 0.031834934 -0.041185495 0.0012223225 0.014255532 0.06063599 0.078713045
-0.026949234 -0.032291647 0.042123295 -0.10204779 0.014172703 -0.10699046 0.08733574 -0.061252855
0.09887612 0.07467233 0.050773814 0.055938467 -0.028280953 0.0017251 -0.10913647 -0.049973037
-0.033097163 -0.018329132 0.060903873 -0.02510132 -0.02557134 0.047898915 0.0051986664 0.093925774
-0.033914614 -0.13991433 -0.029742615 -0.09267531 -0.10628488 -0.05044002 -0.049246166 -0.091474295
0.009244369 0.13018656 0.056682307 0.1224166 0.07573602 0.017185284 0.057031758 -0.09142326
-0.06043857 -0.07952065 -0.013514232 0.00687019 0.10007764 0.027602065 0.05690877 0.07498133
-0.03189355 -0.0585229 0.028300215 -0.06266672 -0.06256213 -0.10652558 -0.04074663 -0.012834955
0.12336746 -0.015739167 0.017777203 0.05804227 0.08297023 -0.07767484 -0.060012158 -0.005382699
0.045585673 0.09230803 0.048398104 -0.08581575 -0.01947831 -0.04360245 -0.027380979 -0.08898088
-0.12477577 -0.04599409 -0.1539092 0.10015031 -0.013718585 0.06544509 -0.023523448 -0.026405029
-0.103464834 0.005019441 -0.009028081 0.10252174 -0.15298396 -0.106840566 -0.12781768 -0.03417176
0.0003989994 0.039466903 -0.07998151 -0.081323795 -0.17653444 0.07604362 0.011737591 0.020135783
0.02212163 -0.100628726 0.041544933 -0.016623145 0.00031618046 -0.029744519 0.0019012695 0.051538475
0.07311227 -0.11415121 0.0059934566 -0.036689196 -0.02572721 0.044787236 0.04111146 0.050829012
0.049209647 0.1308415 0.020356067 0.01308984 0.0498772 0.02702234 0.032097302 0.034827877
0.019385723 0.06511166 0.021321097 0.058950186 0.08957069 0.1029181 0.07752771 0.03679095
0.026730156 -0.0806276 0.026568435 0.010198816 0.07691051 -0.02384647 0.10311083 -0.0810276
-0.090571046 -0.08748424 -0.12521566 -0.10114749 -0.10902133 -0.029022753 -0.0059696604 -0.0038238536
-0.000559781 0.012237479 -0.04661183 0.081761435 -0.040538967 0.05253304 0.039898068 0.027427243
0.096297115 -0.06544518 -0.07103576 0.08729752 -0.061535746 -0.023859117 0.07378686 0.036866754
0.029224632 0.103330985 -0.01035614 0.142698 0.07169034 -0.060050253 0.063196875 0.08917711
-0.027857428 0.06832414 0.12239317 0.063579954 -0.05500951 0.06280392 0.07895495 0.074660316
0.13967273 -0.05912367 0.02296182 0.018248303 0.0970655 -0.02456077 0.021022815 0.09606479
00000000: 4704 e2bc 1bbb 41bd 3a74 5a3c d85e 793a
00000010: 310e da3b 0acf bbba 9cf6 8c3c 3164 233d
00000020: d6f9 a2bd 6fea 3d3c cce1 ed3d 1472 213e
00000030: aa57 00bd 5769 9e3b e05e 123c 1903 4abd
00000040: 77f4 acbc fd9e 0cbe ad1c 6d3d 254c e3bc
00000050: 4c74 773d f84a 2bbe 271a 2abe e8fd 19be
00000060: 0547 973c 9316 9e3d 11e4 1f3d a33d 0d3d
00000070: 44d3 f93c fa86 1ebd 97e7 3bbd 31b6 1dbe
00000080: 0672 a4bd acba 2d3d 6153 633d 09d0 cebc
00000090: 4608 f53d 5f16 42bd 64b0 47bd 279a d0bc
000000a0: d081 b5bd 6402 02bd d156 c23c 3d7d 353d
000000b0: 619d 29bd d4fc b23d b14d 1e3e 71c7 0f3d
000000c0: ff21 be3d 5b97 bb3d aba7 a13d c2e3 21be
000000d0: d415 a4bd f6bb 0fbe 5f74 f4bd 4c51 a5bd
000000e0: fdab b4bc 47b2 d2bb c4ff 92bd 43d9 a5bd
000000f0: 0928 c4bc 35ad b4bc 3b17 0e3d 34cd 32bd
00000100: 720f 97bd 19ec 713a 5965 023d 1fb2 28bd
00000110: 5636 a03a 0990 693c 725d 783d 4e34 a13d
00000120: a4c4 dcbc 3f44 04bd 7a89 2c3d 6ffe d0bd
00000130: a034 683c d01d dbbd 15dd b23d 46e4 7abd
00000140: 907f ca3d ceed 983d 34f8 4f3d bc1f 653d
00000150: 75ad e7bc c01c e23a f182 dfbd 87b0 4cbd
00000160: e490 07bd fa26 96bc 5776 793d 49a1 cdbc
00000170: fd7a d1bc a731 443d 9359 aa3b 285c c03d
00000180: 0dea 0abd b445 0fbe c9a6 f3bc 8ecc bdbd
00000190: e3ab d9bd 329a 4ebd 59b6 49bd e056 bbbd
000001a0: b275 173c a04f 053e b52b 683d 8eb5 fa3d
000001b0: 7d1b 9b3d 27c8 8c3c 229a 693d 1e3c bbbd
000001c0: 6f8e 77bd b9db a2bd cc6a 5dbc 551f e13b
000001d0: 81f5 cc3d ba1d e23c 2c19 693d d08f 993d
000001e0: d0a2 02bd b5b5 6fbd dad5 e73c 6957 80bd
000001f0: 9320 80bd 152a dabd f0e5 26bd b449 52bc
00000200: 14a8 fc3d 6def 80bc 7fa1 913c bbbd 6d3d
00000210: 4cec a93d fd13 9fbd 4fcf 75bd 5a61 b0bb
00000220: 0bb8 3a3d fe0b bd3d 173d 463d 2bc0 afbd
00000230: fa90 9fbc 7c98 32bd 134e e0bc 9c3b b6bd
00000240: 708a ffbd 4d64 3cbd 609a 1dbe 9b1b cd3d
00000250: eac3 60bc 1308 863d 3fb4 c0bc 5c4f d8bc
00000260: 5fe5 d3bd 1f7a a43b 84ea 13bc ebf6 d13d
00000270: d4a7 1cbe 3acf dabd a3e2 02be b0f7 0bbd
00000280: cb30 d139 0ca8 213d 59cd a3bd 178d a6bd
00000290: 72c5 34be c2bc 9b3d 064f 403c ccf3 a43c
000002a0: 6c38 b53c 6f16 cebd 052b 2a3d 432d 88bc
000002b0: 06c5 a539 c7aa f3bc 0534 f93a 021a 533d
000002c0: e3bb 953d 1cc8 e9bd c264 c43b 6947 16bd
000002d0: dfc1 d2bc d272 373d 7e64 283d 1532 503d
000002e0: 0e90 493d 50fb 053e c4c1 a63c c576 563c
000002f0: 094c 4c3d f45d dd3c 7678 033d ada7 0e3d
00000300: cfce 9e3c 4359 853d 95a9 ae3c c075 713d
00000310: d770 b73d bac6 d23d d9c6 9e3d 1bb2 163d
00000320: 33f9 da3c 1520 a5bd 0ca6 d93c ef18 273c
00000330: 4283 9d3d ac59 c3bc c52b d33d ccf1 a5bd
00000340: 507d b9bd f02a b3bd 8938 00be 6a26 cfbd
00000350: 9346 dfbd 20c1 edbc 249d c3bb 9e99 7abb
00000360: 44be 12ba b57f 483c 0cec 3ebd 8a72 a73d
00000370: 300c 26bd e32c 573d 286c 233d 19af e03c
00000380: 6c37 c53d 1f08 86bd 327b 91bd 0bc9 b23d
00000390: e80c 7cbd 3274 c3bc 911d 973d 9801 173d
000003a0: 7f68 ef3c 329f d33d cdac 29bc 6d1f 123e
000003b0: 63d2 923d 41f7 75bd 5d6d 813d 7da2 b63d
000003c0: 4335 e4bc 87ed 8b3d 45a9 fa3d 3536 823d
000003d0: a751 61bd 579f 803d 22b3 a13d 82e7 983d
000003e0: 5e06 0f3e a92b 72bd 6d1a bc3c 777d 953c
000003f0: 47ca c63d ab33 c9bc 0a38 ac3c 9ebd c43d

conv2.bias f4 [32]
-0.000860953 1.0147264e-05 -0.0018068076 -0.0019939316 -0.0007658419 -4.821967e-05 0.0003819349 0.0008096726
-0.0011367197 0.0014002408 -0.0004394248 0.0011491732 0.0008206366 0.00018657303 -0.00010998088 0.0025014726
0.00088014716 -0.0005116084 -0.00054398266 -0.00032891255 0.0007442057 -0.00016219648 -0.0002507305 0.0011537215
0.0016123874 -0.0014781941 0.00045071667 0.00045042278 6.609884e-05 0.00025393112 -0.00016211274 0.000708541
00000000: 94b1 61ba 2b3e 2a37 67d2 ecba 9fac 02bb
00000010: c8c2 48ba 7a3f 4ab8 6f3e c839 3540 543a
00000020: fcfd 94ba 4988 b73a 9962 e6b9 db9f 963a
00000030: fd1f 573a d1a2 4339 89a5 e6b8 bfef 233b
00000040: adb9 663a 751d 06ba 0f9a 0eba e571 acb9
00000050: cd16 433a 4913 2ab9 7a74 83b9 7838 973a
00000060: be56 d33a f7bf c1ba 2b4e ec39 b926 ec39
00000070: 8b9e 8a38 0f22 8539 cffc 29b9 62bd 393a

conv3.weight f4 [48, 32, 3, 3]
0.011495493 -0.040366944 -0.06305363 0.025354777 0.011371082 -0.029448355 -0.071910694 -0.13935104
-0.13055906 0.062097598 0.041461032 -0.02885909 -0.03525426 0.049116705 -0.0025863785 -0.08580938
-0.06493589 -0.078705035 0.032374952 0.04024993 0.05408828 -0.07250085 -0.036635824 -0.04209823
-0.11661593 -0.04380262 -0.029533507 0.05231485 -0.002191759 0.021860989 0.033762474 -0.025933227
0.072342634 -0.1073205 -0.0625614 -0.06515494 0.059038106 -0.071593344 -0.039438874 0.041812308
0.03591916 0.041409276 -0.0073769507 -0.030365238 -0.05628517 -0.022326043 0.05714709 0.116442055
-0.08559293 -0.042124 -0.041185014 -0.03930615 0.003742587 -0.0075456374 0.041656174 0.017630298
-0.0042350716 0.038864795 -0.00804829 -0.00551868 -0.0034580997 -0.016538562 0.0056911395 0.057691503
0.14281744 0.116568714 0.029276296 0.08655164 -0.0051141833 0.033740193 0.035611328 0.008274338
0.040785935 -0.019054439 -0.038094126 0.043113053 -0.007848612 0.027997872 0.0320968 -0.05262239
-0.016166924 0.019361053 0.01760295 -0.014607569 -0.025948247 -0.0020219628 -0.024367426 -0.0018353879
-0.0130998315 0.019272253 0.016207412 -0.03980379 -0.023230936 0.0048714457 -0.076786965 -0.058213774
-0.037988923 -0.051686253 -0.0074157626 0.0826571 0.085740045 0.026793394 0.089097515 0.021886682
0.0116288215 0.0064408593 -0.013971635 -0.030006897 -0.0069741295 0.052877128 0.015531759 -0.028301377
0.055272687 -0.0792008 -0.04144619 0.036489304 -0.040145267 0.095885776 0.10337335 0.07347126
-0.08539639 -0.03574188 -0.0057575684 -0.06317037 -0.00054721447 -0.033811107 -0.07546338 -0.083549716
-0.023772025 -0.014292923 0.024535589 0.10033915 0.038627695 0.0011462998 0.03789675 -0.06834058
-0.116569914 -0.094689354 0.06394633 -0.031632576 -0.04018502 -0.05438526 -0.07791259 -0.0653907
-8.001928e-05 0.045104627 -0.013063672 -0.043938424 -0.0066568633 -0.062162075 -0.040371113 0.08745379
0.089393325 0.008902555 0.08184295 0.060909957 -0.0020948995 -0.030947212 -0.05125512 0.0779268
0.050494198 -0.026896806 0.035636824 0.06013883 0.06473992 -0.040919386 -0.095317 -0.07745793
0.034326255 -0.022861263 -0.017808938 0.06600006 0.027290415 0.0023489783 0.03596961 -0.0024084677
-0.07363684 -0.10113838 -0.057806775 -0.008400731 0.099598296 0.030048335 0.020378662 -0.009721863
-0.0726479 0.057000585 -0.054600555 -0.23180638 -0.12208076 -0.028973563 -0.14947613 0.014896321
-0.025444077 -0.039774302 -0.027308807 0.05459258 0.05524969 0.028579298 0.08030533 0.10654657
0.06534956 0.09455435 -0.0055929753 0.011129707 0.005794143 0.015148174 -0.07922605 0.06852191
-0.059226613 -0.04521066 -0.06926616 0.020269312 -0.042675734 -0.105328694 -0.030875862 -0.06956033
0.020881418 -0.19166504 -0.11025181 -0.07976255 0.0147385225 0.008476925 -0.10662071 -0.12143243
-0.10515742 0.0032944458 0.07185589 0.035363812 0.08703472 0.13189813 0.073616244 0.07854432
0.0041583264 0.010547687 0.09527889 -0.024270367 0.048467755 0.12303563 0.070210144 -0.013732041
-0.15703282 -0.12717214 -0.12244611 -0.06989886 -0.10625866 -0.13661465 0.0629653 0.021315854
-0.020161077 -0.022333384 -0.052966885 -0.031289276 -0.0024294981 -0.02533996 0.016767953 -0.029518291
00000000: 9857 3c3c cf57 25bd 4322 81bd d2b4 cf3c
00000010: c64d 3a3c ad3d f1bc ea45 93bd 0ab2 0ebe
00000020: 46b1 05be 0d5a 7e3d 0bd3 293d e669 ecbc
00000030: c566 10bd 992e 493d 3b80 29bb d4bc afbd
00000040: 1cfd 84bd 1b30 a1bd 999b 043d 1cdd 243d
00000050: ac8b 5d3d 537b 94bd 720f 16bd 326f 2cbd
00000060: 55d4 eebd 606a 33bd 41f0 f1bc 1948 563d
00000070: 9da3 0fbb d115 b33c 854a 0a3d eb71 d4bc
00000080: 6028 943d daca dbbd 3120 80bd f46f 85bd
00000090: f1d1 713d 889f 92bd a88a 21bd 6243 2b3d
000000a0: f81f 133d c69c 293d 59ba f1bb 85c0 f8bc
000000b0: 478b 66bd 1be5 b6bc 1113 6a3d 2c79 ee3d
000000c0: 594b afbd 378a 2cbd 9eb1 28bd 7cff 20bd
000000d0: 3146 753b 6541 f7bb aa9f 2a3d 6a6d 903c
000000e0: 5bc6 8abb b130 1f3d fadc 03bc 0bd6 b4bb
000000f0: 49a1 62bb e17b 87bc bd7c ba3b ed4d 6c3d
00000100: bc3e 123e 94bb ee3d d8d4 ef3c fc41 b13d
00000110: e194 a7bb 2833 0a3d 2fdd 113d 1791 073c
00000120: 270f 273d 0e18 9cbc 9608 1cbd 5097 303d
00000130: 7797 00bc cb5b e53c ef77 033d 938a 57bd
00000140: 7f70 84bc 129b 9e3c 1034 903c 9654 6fbc
00000150: 6b91 d4bc e882 04bb 329e c7bc 6691 f0ba
00000160: ada0 56bc d8e0 9d3c 68c5 843c 4d09 23bd
00000170: ce4e bebc a6a0 9f3b 7c42 9dbd 9171 6ebd
00000180: 469a 1bbd f7b4 53bd edff f2bb 2048 a93d
00000190: 7a98 af3d d27d db3c c278 b63d b34b b33c
000001a0: d086 3e3c d80d d33b 49e9 64bc 06d1 f5bc
000001b0: 3d87 e4bb b095 583d eb78 7e3c 4ad8 e7bc
000001c0: 9d65 623d 0734 a2bd 7bc3 29bd cf75 153d
000001d0: 5d6f 24bd c35f c43d 68b5 d33d 1a78 963d
000001e0: 4de4 aebd 1466 12bd fca9 bcbb 785f 81bd
000001f0: f172 0fba 847d 0abd 8b8c 9abd 1d1c abbd
00000200: 8dbd c2bc dd2c 6abc dcfe c83c 9d7e cd3d
00000210: 1338 1e3d 703f 963a 9f39 1b3d 25f6 8bbd
00000220: 35bc eebd 7eec c1bd 4bf6 823d 2991 01bd
00000230: 0c99 24bd 14c3 5ebd a390 9fbd 8feb 85bd
00000240: 06d0 a7b8 a1bf 383d 0309 56bc c7f8 33bd
00000250: d121 dabb a99d 7ebd 2e5c 25bd f91a b33d
00000260: d913 b73d 06dc 113c 479d a73d b87c 793d
00000270: 954a 09bb 0285 fdbc e4f0 51bd 1698 9f3d
00000280: 01d3 4e3d b156 dcbc ebf7 113d 2254 763d
00000290: 5d96 843d 169b 27bd 8f35 c3bd 43a2 9ebd
000002a0: b099 0c3d 8b47 bbbc 0de4 91bc 0a2b 873d
000002b0: 2690 df3c 51f1 193b df54 133d 62d7 1dbb
000002c0: e9ce 96bd a421 cfbd ccc6 6cbd 38a3 09bc
000002d0: 31fa cb3d ed27 f63c 27f1 a63c 7348 1fbc
000002e0: 6cc8 94bd 7279 693d d5a4 5fbd a75e 6dbe
000002f0: 7a05 fabd f759 edbc 4510 19be b30f 743c
00000300: 1970 d0bc 61ea 22bd b8b6 dfbc 789c 5f3d
00000310: 804d 623d 221f ea3c 1f77 a43d 1735 da3d
00000320: fdd5 853d b6a5 c13d 4745 b7bb 6059 363c
00000330: cbdc bd3b 0c30 783c 4441 a2bd 3755 8c3d
00000340: 9b97 72bd d02e 39bd 6bdb 8dbd d40b a63c
00000350: c0cc 2ebd 92b6 d7bd 60ef fcbc a575 8ebd
00000360: 820f ab3c d743 44be b3cb e1bd 8c5a a3bd
00000370: d879 713c cde2 0a3c f55b dabd 91b1 f8bd
00000380: c65c d7bd a1e7 573b 2e29 933d a5d9 103d
00000390: 423f b23d 4e10 073e 1dc4 963d d8db a03d
000003a0: 9242 883b 35d0 2c3c 9421 c33d a6d2 c6bc
000003b0: 2086 463d 1bfa fb3d 56ca 8f3d 5bfc 60bc
000003c0: 36cd 20be 6a39 02be 07c5 fabd 2227 8fbd
000003d0: 249e d9bd b6e4 0bbe f4f3 803d 969e ae3c
000003e0: d828 a5bc 80f4 b6bc cef3 58bd 2f29 00bd
000003f0: 3738 1fbb bf95 cfbc f25c 893c 58d0 f1bc

conv3.bias f4 [48]
0.00057916314 -0.0001786122 -3.9956235e-06 0.00059628085 -1.1413077e-05 0.0005785927 0.00019498255 -0.00018617965
-3.681639e-05 -0.0004210926 -6.1535684e-05 -0.00012632583 0.00046277302 0.00025354332 -0.00016156261 0.00040864034
4.8930437e-05 0.0003915539 0.00042946875 -0.00036128573 -0.00042755407 -4.3867436e-05 0.00020056027 -4.24162e-05
-5.3410444e-05 0.00039838545 -0.0002072535 -0.0002825464 9.1953196e-05 -0.0003051142 -9.885594e-05 0.00016352153
0.0006036621 -0.0003020084 -0.00012448084 7.247208e-05 -0.0006131577 -0.00016525271 2.8211693e-05 -0.0006211268
0.0003432275 0.00023747522 -0.00027790913 -5.088661e-05 -0.00051955815 0.00067035394 0.00023347618 -0.00017194911
00000000: fbd2 173a d949 3bb9 2512 86b6 bb4f 1c3a
00000010: cb7a 3fb7 b3ac 173a 3b74 4c39 3839 43b9
00000020: 4c6b 1ab8 18c6 dcb9 b80c 81b8 5576 04b9
00000030: 58a0 f239 02ee 8439 2269 29b9 c73e d639
00000040: a83a 4d38 7a49 cd39 522a e139 f36a bdb9
00000050: 5629 e0b9 4dfe 37b8 7d4d 5239 0ce8 31b8
00000060: 0705 60b8 64de d039 3052 59b9 bc22 94b9
00000070: ffd6 c038 bcf7 9fb9 e150 cfb8 fa76 2b39
00000080: 143f 1e3a e256 9eb9 1287 02b9 27fc 9738
00000090: 51bc 20ba b047 2db9 26a8 ec37 1dd3 22ba
000000a0: 37f3 b339 c502 7939 55b4 91b9 156f 55b8
000000b0: f532 08ba b1ba 2f3a 49d1 7439 3d4d 34b9

conv4.weight f4 [64, 48, 3, 3]
0.02227977 -0.04673455 -0.009487766 -0.1263336 -0.09991945 0.0074241543 -0.04974419 -0.029116375
-0.080969594 0.06768736 0.024262305 -0.021066487 0.05507698 0.02930992 -0.08306601 -0.013292654
-0.04145062 -0.021356791 -0.03241814 -0.0396542 -0.0384462 -0.00052335416 0.01611379 -0.0018740991
0.037509695 0.09690483 0.054187816 0.03830327 -0.03907555 0.011831897 -0.050281636 -0.042730667
-0.045068786 -0.13549174 -0.07528719 -0.15380712 -0.006810772 0.031558014 -0.00013061482 -0.04783626
-0.06293423 -0.050678704 0.0034923325 -0.004954712 0.0062431814 0.004541563 0.042438425 0.045019515
0.0012632791 -0.005296762 -0.010611702 0.049007192 0.057063416 -0.041409206 -0.024325894 0.035156064
0.009669209 -0.021834258 -0.084031075 -0.023691192 -8.992182e-05 -0.05006163 -0.04048439 -0.022878623
0.069473945 0.029909654 -0.12077491 -0.06927831 0.023731055 -0.03639377 -0.012145426 -0.007353658
0.0048441417 0.030935189 0.052410506 -0.055615973 -0.007733697 0.0143091 0.045354493 0.055047296
0.08525364 0.049448725 0.06260282 0.0393692 0.05807779 -0.04262713 -0.079649694 0.058239687
0.030233638 -0.023014603 -0.03568827 0.011977275 -0.032443788 -0.04705157 -0.039399296 -0.0087568695
0.0883975 0.060755894 0.053956978 -0.02564156 0.011106094 0.053986304 0.06354352 0.03421635
0.0020624928 -0.04703072 0.09030688 0.09532391 5.415367e-05 0.017803945 -0.008287371 -0.043107383
0.029459525 0.084201 0.043858785 0.040133025 -0.0037991572 -0.0058409334 -0.010179196 0.06715254
-0.027086351 -0.0040748785 0.0167166 -0.12305814 -0.008614287 -0.12356229 0.0041590757 0.01423568
-0.035906147 -0.04781611 -0.014807093 -0.031301968 -0.02661269 0.052472748 0.017002635 0.043974277
0.025748795 -0.0014592811 -0.035092212 -0.01578857 -0.0790792 0.031762566 0.016109334 0.0013737008
-0.0014414248 0.036466002 0.0034019253 -0.024649693 0.002028291 -0.015275599 -0.053825386 -0.08103541
-0.07658744 -0.09894673 -0.034285013 -0.020891268 -0.010356122 0.024758134 -0.020075481 0.036771633
-0.011004866 -0.02396191 -0.015478312 -0.06751139 -0.17344142 0.03654048 0.011095591 -0.026591714
-0.06544297 -0.047372412 -0.08032368 -0.021045024 -0.096855864 -0.098120704 -0.011224 0.11051277
0.09979037 -0.004222439 0.09769416 0.06550763 0.0019700585 0.06841212 0.07359228 0.04980787
-0.02503751 -0.017961701 -0.0356224 -0.03782046 -0.028761372 0.047970556 0.02396464 -0.009864736
-0.029458543 -0.048770603 -0.095590964 -0.15271823 -0.1481721 -0.0796499 0.0073060724 0.030937979
0.038554966 0.13482565 0.121365964 0.04812784 0.020525748 -0.055008154 -0.008483356 -0.037670158
-0.037673514 0.05004093 -0.0028029734 0.014075617 -0.0056689405 -0.028950391 -0.033310466 -0.02180499
0.09604408 0.017734291 0.07651185 -0.043055046 -0.07290578 -0.026379786 0.026629537 0.0017400122
-0.032747384 0.023094833 0.007701307 -0.006023406 0.06692951 0.0924525 0.00030337102 0.02840979
0.020564005 -0.0014332201 0.034911186 -0.010675393 0.032959048 0.069632255 0.016422093 -0.052658886
0.033149403 -0.026997438 0.003495166 0.0619929 0.037751127 -0.021947123 0.074989505 0.003394991
0.028103728 -0.07277436 -0.08413701 -0.03732428 0.019639123 0.020974703 0.11317836 -0.051086262
00000000: 1084 b63c ba6c 3fbd 9372 1bbc 985d 01be
00000010: 92a2 ccbd 5246 f33b 90c0 4bbd 7785 eebc
00000020: 63d3 a5bd ac9f 8a3d bec1 c63c a093 acbc
00000030: 6698 613d 5b1b f03c 831e aabd 6fc9 59bc
00000040: 20c8 29bd 70f4 aebc e2c8 04bd 716c 22bd
00000050: c379 1dbd b431 09ba 1101 843c 55a4 f5ba
00000060: c4a3 193d 0a76 c63d 0bf4 5d3d e4e3 1c3d
00000070: af0d 20bd 93da 413c 1ef4 4dbd 5a06 2fbd
00000080: 0c9a 38bd 59be 0abe 2c30 9abd 9d7f 1dbe
00000090: e62c dfbb fa42 013d a6f5 08b9 f4ef 43bd
000000a0: a9e3 80bd 7994 4fbd 9edf 643b 235b a2bb
000000b0: 9a93 cc3b 64d1 943b ead3 2d3d 6266 383d
000000c0: 9d94 a53a 7690 adbb b4dc 2dbc c4bb 483d
000000d0: 54bb 693d b39c 29bd 1947 c7bc ceff 0f3d
000000e0: 9a6b 1e3c c2dd b2bc 7c18 acbd 0814 c2bc
000000f0: 6994 bcb8 6c0d 4dbd f6d2 25bd f36b bbbc
00000100: 5b48 8e3d 1705 f53c d658 f7bd c9e1 8dbd
00000110: a167 c23c a211 15bd 9cfd 46bc f4f6 f0bb
00000120: 9bbb 9e3b cb6b fd3c 66ac 563d 93cd 63bd
00000130: f46a fdbb b770 6a3c a2c5 393d 4679 613d
00000140: 7699 ae3d bf8a 4a3d e835 803d 9941 213d
00000150: fae2 6d3d c999 2ebd 611f a3bd bd8c 6e3d
00000160: 89ac f73c 1f89 bcbc dd2d 12bd 553c 443c
00000170: c7e3 04bd 26b9 40bd 2861 21bd f978 0fbc
00000180: c009 b53d 2cdb 783d fe01 5d3d 400e d2bc
00000190: 56f6 353c be20 5d3d 1b23 823d 7226 0c3d
000001a0: e32a 073b 49a3 40bd d0f2 b83d 2f39 c33d
000001b0: 0f23 6338 94d9 913c c1c7 07bc 5e91 30bd
000001c0: 1a55 f13c 9371 ac3d 45a5 333d 8762 243d
000001d0: 48fb 78bb 4d65 bfbb a4c6 26bc 4587 893d
000001e0: 32e4 ddbc 8f86 85bb 40f1 883c e805 fcbd
000001f0: f022 0dbc 3a0e fdbd db48 883b c53c 693c
00000200: 5312 13bd d3da 43bd 7399 72bc 7e36 00bd
00000210: db02 dabc aaed 563d 1c49 8b3c 5f1e 343d
00000220: 23ef d23c 5945 bfba dabc 0fbd 0857 81bc
00000230: 47f4 a1bd 7719 023d b9f7 833c c00d b43a
00000240: 31ee bcba 605d 153d d6f2 5e3b 27ee c9bc
00000250: 14ed 043b 8246 7abc 0278 5cbd e5f5 a5bd
00000260: e0d9 9cbd 95a4 cabd 716e 0cbd 2a24 abbc
00000270: b9ac 29bc 92d1 ca3c 5675 a4bc da9d 163d
00000280: c14d 34bc c44b c4bc bf98 7dbc 6943 8abd
00000290: a19a 31be 78ab 153d 48ca 353c ded6 d9bc
000002a0: f706 86bd 9309 42bd be80 a4bd 9d66 acbc
000002b0: 5e5c c6bd 82f3 c8bd dee4 37bc 8554 e23d
000002c0: e55e cc3d 635c 8abb e013 c83d dd28 863d
000002d0: 191c 013b a71b 8c3d 8db7 963d 5603 4c3d
000002e0: 771b cdbc 6b24 93bc cbe8 11bd a0e9 1abd
000002f0: f89c ebbc c67c 443d 7e51 c43c b49f 21bc
00000300: 0b53 f1bc afc3 47bd 32c5 c3bd 2b62 1cbe
00000310: 6dba 17be 7d1f a3bd c767 ef3b a571 fd3c
00000320: d0eb 1d3d bc0f 0a3e b88e f83d b321 453d
00000330: 9d25 a83c 3b50 61bd c6fd 0abc 064c 1abd
00000340: 8b4f 1abd b8f7 4c3d 17b2 37bb 6b9d 663c
00000350: 85c2 b9bb 5f29 edbc 8e70 08bd 61a0 b2bc
00000360: c2b2 c43d 8147 913c 3fb2 9c3d 7d5a 30bd
00000370: a04f 95bd 6c1a d8bc 3026 da3c 1f11 e43a
00000380: 1f22 06bd 6031 bd3c 3f5b fc3b fe5f c5bb
00000390: 5712 893d bc57 bd3d c50d 9f39 a6bb e83c
000003a0: d875 a83c e3da bbba 08ff 0e3d d8e7 2ebc
000003b0: 1100 073d 5b9b 8e3d a087 863c d8b0 57bd
000003c0: abc7 073d bb29 ddbc 280f 653b 44ec 7d3d
000003d0: eda0 1a3d 74ca b3bc 1994 993d 7f7e 5e3b
000003e0: ca39 e63c b90a 95bd 0650 acbd 58e1 18bd
000003f0: 3ae2 a03c 24d3 ab3c 0eca e73d d43f 51bd

conv4.bias f4 [64]
-2.393988e-05 -3.5295743e-05 2.9441664e-05 0.00028080566 -0.00035753517 -9.418468e-06 2.0090867e-05 -0.00015032153
-0.00037441094 -9.08579e-05 0.00035850616 0.00014427179 0.00043085538 6.367385e-05 0.000113470516 0.0001664493
-0.00016206372 -3.7561844e-05 -1.48882355e-05 0.00016518944 5.7490477e-05 -9.730713e-05 -0.000107059896 0.00013478546
-1.517471e-06 -0.00019196764 -3.4471497e-05 0.00020694728 0.00038480858 -0.0001652598 -3.941315e-05 9.559735e-05
-9.564081e-06 -3.0733805e-05 0.00021981381 0.00032194334 0.00018320688 -1.7114686e-05 -0.00015152889 -7.322515e-05
-0.00029621783 0.00021942107 0.00010926724 -6.368376e-05 0.00039694307 0.00012895984 -0.00012737319 4.0889594e-05
-0.00017106724 0.00026896564 0.0001544031 0.00031794887 -0.00021179058 -0.00011185339 -2.288396e-05 2.7574783e-05
-0.00017739458 0.00036546827 -0.00019529708 -0.00023248122 -5.9258247e-05 0.0001086627 2.1785243e-05 7.438205e-05
00000000: 80d2 c8b7 840a 14b8 7ef9 f637 1939 9339
00000010: 8f73 bbb9 0304 1eb7 cf88 a837 a19f 1db9
00000020: 964c c4b9 f78a beb8 e2f5 bb39 aa47 1739
00000030: 6ee4 e139 a388 8538 05f7 ed38 e588 2e39
00000040: a6ef 29b9 b98b 1db8 7cc8 79b7 b436 2d39
00000050: ee21 7138 5e11 ccb8 5885 e0b8 3255 0d39
00000060: e8ab cbb5 ec4a 49b9 7d95 10b8 fdff 5839
00000070: 22c0 c939 9749 2db9 8c4f 25b8 707b c838
00000080: 6a75 20b7 2ce8 00b8 d27d 6639 81ca a839
00000090: 391b 4039 8291 8fb7 bae3 1eb9 7490 99b8
000000a0: af4d 9bb9 6514 6639 6726 e538 f58d 85b8
000000b0: cc1c d039 6539 0739 7b8f 05b9 de80 2b38
000000c0: 8360 33b9 f503 8d39 44e7 2139 60b2 a639
000000d0: 1a14 5eb9 d592 eab8 eef6 bfb7 6550 e737
000000e0: ff02 3ab9 529c bf39 a9c8 4cb9 34c6 73b9
000000f0: 0f8c 78b8 d8e1 e338 74bf b637 8ffd 9b38

conv5.weight f4 [80, 64, 3, 3]
-0.12466577 -0.091260865 -0.03386606 0.028681261 -0.0017530618 0.013967744 -0.02515676 -0.009748088
0.012477221 0.05490508 0.035460107 -0.013659961 0.024552913 0.00759703 0.00015507851 0.02961021
-0.018824557 -0.025304189 -0.078214 0.000867739 0.005983859 0.04374454 0.11386399 0.092163704
-0.097554006 -0.053742666 -0.051451236 -0.11404139 -0.07036182 -0.032964326 0.022712946 0.034210764
0.033365257 -0.0028972656 -0.020196384 0.008041624 0.03330803 0.02497117 -0.061011508 -0.010383219
-0.058493245 -0.029173944 -0.009225656 0.060072176 0.0632181 0.048418287 0.040086027 0.04633244
0.027759202 -0.04287921 -0.036060642 -0.024307812 -0.018054353 0.044729844 -0.10574285 -0.09564858
0.011243946 -0.02284728 0.004391975 -0.015168595 -0.0061036986 -0.03742807 0.023232432 -0.024658918
-0.09378398 -0.06533916 -0.072882876 -0.03835755 -0.03963954 -0.033517815 -0.049443986 -0.021817211
0.087713905 0.08527626 0.06621902 0.035725627 0.03362423 0.08411061 0.02955481 -0.057310242
-0.11627216 0.0024533481 -0.04581013 -0.07697617 -0.003974778 0.03233945 0.06068319 0.012364501
0.030469682 0.10096332 -0.021456763 -0.009477212 -0.005415095 0.024553029 0.09153559 -0.010653105
-0.068683565 -0.11090762 -0.09241621 0.065229364 0.032396317 0.09562395 0.051910233 0.0050001238
0.07908346 0.012797769 0.014011034 -0.06863268 -0.06367726 -0.005333398 0.010229066 0.013172433
0.015542593 0.013635925 -0.0169527 -0.03573107 0.0032581566 -0.029140899 0.039389648 -0.005085666
-0.030663606 -0.08015226 -0.052751705 -0.009548709 -0.07655128 -0.075257935 0.094847284 0.06536072
0.03347427 0.0017331761 -0.043847896 -0.0096215345 -0.045711458 -0.03666253 -0.08413302 -0.07532475
-0.0060287984 0.014737537 0.069504246 0.037038468 0.046991844 0.04172469 -0.005588519 0.053949557
-0.032223925 0.016035661 0.067025535 -0.03335878 -0.063905336 -0.065237395 -0.006679522 -0.007395703
-0.04719753 0.018403493 0.02195947 -0.028748095 -0.072588034 -0.037975 -0.0071592373 0.011716965
-0.010956078 -0.02186382 0.0008972607 0.02753871 -0.0058413073 -0.005265171 0.0023504677 0.018036887
-0.026215851 -0.11251324 -0.099701196 0.10082172 0.029578691 -0.027327966 -0.03237858 -0.033971533
-0.017047446 -0.073751 -0.047783382 -0.008912374 -0.04745954 -0.012490062 -0.017313566 -0.04998512
-0.027566629 -0.0035982633 0.05075224 0.00023845606 -0.047852125 -0.027078133 -0.015403049 -0.017860254
-0.036391854 0.011140663 -0.020083334 -0.004271828 0.03735027 0.06163935 -0.008921969 -0.05092366
0.0460552 -0.029923081 -0.033460654 0.046954315 -0.061368983 0.023248179 -0.0052458746 0.018973792
-0.06743813 -0.04921028 0.02878894 0.015355279 0.027827943 -0.037799023 -0.013323314 0.040674012
-0.07931827 -0.049566735 -0.08350299 -0.002579555 0.026683213 0.00083293935 0.04855744 0.016865125
0.019210318 -0.09504859 -0.008068845 -0.03906539 0.05006818 0.008013252 0.021822317 -0.03421653
-0.042296484 0.03498736 0.05108571 0.068510346 0.009466476 -0.09230817 0.034288164 0.0761132
0.0011595018 -0.032709733 -0.015428138 -0.026922824 -0.033553 0.011864389 -0.06429504 0.003936781
-0.01832579 0.036816247 -0.041106734 0.0030707167 -0.05271644 -0.047797643 -0.054856043 0.052816503
00000000: c450 ffbd fae6 babd 23b7 0abd f7f4 ea3c
00000010: fec6 e5ba f7d8 643c 8d15 cebc 72b6 1fbc
00000020: 426d 4c3c 26e4 603d 9e3e 113d 07ce 5fbc
00000030: 3123 c93c 82f0 f83b 929c 2239 1c91 f23c
00000040: f535 9abc bb4a cfbc a92e a0bd fb78 633a
00000050: 3f14 c43b 7a2d 333d 8631 e93d 53c0 bc3d
00000060: 65ca c7bd 4521 5cbd 88be 52bd 888e e9bd
00000070: dc19 90bd 9a05 07bd 8010 ba3c 9620 0c3d
00000080: 02aa 083d 0de0 3dbb e372 a5bc 04c1 033c
00000090: 006e 083d 5790 cc3c 34e7 79bd 611e 2abc
000000a0: 9d96 6fbd 32fe eebc 3527 17bc 3e0e 763d
000000b0: 7e78 813d 4152 463d 3f31 243d 16c7 3d3d
000000c0: 4467 e33c 1ca2 2fbd 53b4 13bd 2d21 c7bc
000000d0: b9e6 93bc a436 373d b58f d8bd 67e3 c3bd
000000e0: 8738 383c 382a bbbc 8eea 8f3b b385 78bc
000000f0: 8901 c8bb 2d4e 19bd f151 be3c 8001 cabc
00000100: d111 c0bd 8ad0 85bd 9e43 95bd ce1c 1dbd
00000110: 125d 22bd fa49 09bd c785 4abd 02ba b2bc
00000120: 59a3 b33d 52a5 ae3d d69d 873d 0955 123d
00000130: 90b9 093d 2f42 ac3d ee1c f23c 25be 6abd
00000140: 1920 eebd 5ac8 203b 67a3 3bbd afa5 9dbd
00000150: db3e 82bb 5f76 043d f08e 783d 7a94 4a3c
00000160: 8e9b f93c dbc5 ce3d 18c6 afbc 4f46 1bbc
00000170: 1c71 b1bb 6f23 c93c 0377 bb3d 5c8a 2ebc
00000180: f8a9 8cbd 8923 e3bd b644 bdbd f996 853d
00000190: 00b2 043d 7dd6 c33d d39f 543d 14d8 a33b
000001a0: 82f6 a13d bcad 513c 898e 653c 4a8f 8cbd
000001b0: 3969 82bd c9c3 aebb d097 273c 30d1 573c
000001c0: 5ca6 7e3c 3769 5f3c 64e0 8abc be5a 12bd
000001d0: cc86 553b e5b8 eebc 0a57 213d a9a5 a6bb
000001e0: 3e32 fbbc de26 a4bd 2c12 58bd 3072 1cbc
000001f0: ebc6 9cbd d520 9abd 4b3f c23d d7db 853d
00000200: 511c 093d bd2b e33a da99 33bd a4a3 1dbc
00000210: f03b 3bbd 732b 16bd ef4d acbd dd43 9abd
00000220: 3a8d c5bb b675 713c 3e58 8e3d a6b5 173d
00000230: 857a 403d 82e7 2a3d e51f b7bb 36fa 5c3d
00000240: 3cfd 03bd 385d 833c af44 893d 37a3 08bd
00000250: cde0 82bd 2f9b 85bd e4df dabb a757 f2bb
00000260: 3252 41bd ecc2 963c 59e4 b33c 2081 ebbc
00000270: 09a9 94bd ac8b 1bbd 0998 eabb 83f8 3f3c
00000280: 1f81 33bc c11b b3bc 2536 6b3a dc98 e13c
00000290: 7068 bfbb 7587 acbb 4e0a 1a3b 18c2 933c
000002a0: a0c2 d6bc 576d e6bd 2430 ccbd 9e7b ce3d
000002b0: 034f f23c e6de dfbc 679f 04bd bc25 0bbd
000002c0: 16a7 8bbc c40a 97bd 82b8 43bd 3505 12bc
000002d0: ef64 42bd 1ea3 4cbc 2ed5 8dbc 32bd 4cbd
000002e0: 69d3 e1bc d7d0 6bbb 95e1 4f3d 100a 7a39
000002f0: 9700 44bd f6d2 ddbc 125d 7cbc ab4f 92bc
00000300: a00f 15bd 5487 363c ce85 a4bc b1fa 8bbb
00000310: 99fc 183d 8b79 7c3d 732d 12bc 5495 50bd
00000320: 61a4 3c3d 4021 f5bc 0a0e 09bd 2b53 403d
00000330: 0b5e 7bbd f772 be3c 96e5 abbb ed6e 9b3c
00000340: 011d 8abd b890 49bd c8d6 eb3c b594 7b3c
00000350: 6df7 e33c 26d3 1abd 074a 5abc cb99 263d
00000360: 9e71 a2bd 7d06 4bbd 9e03 abbd c00d 29bb
00000370: c196 da3c 9d59 5a3a 2be4 463d bb28 8a3c
00000380: f55e 9d3c d6a8 c2bd 3033 04bc 0803 20bd
00000390: 4b14 4d3d 044a 033c b7c4 b23c a226 0cbd
000003a0: 143f 2dbd e84e 0f3d 403f 513d 274f 8c3d
000003b0: 4719 1b3c 110c bdbd bf71 0c3d 3de1 9b3d
000003c0: 6dfa 973a a4fa 05bd 4dc6 7cbc 418d dcbc
000003d0: df6e 09bd db62 423c 1ead 83bd 1d00 813b
000003e0: f81f 96bc a2cc 163d 895f 28bd 143e 493b
000003f0: 32ed 57bd 76c7 43bd bbb0 60bd 1e56 583d

conv5.bias f4 [80]
-8.284306e-06 0.00015263214 -0.00022875016 7.3029565e-05 -5.0914005e-06 4.1182335e-05 0.00065926014 -4.8173883e-05
0.00014098422 0.00010262575 5.7195262e-05 -0.00018348655 6.0623524e-09 0.00012512403 -0.0001148229 0.00024538254
0.000112325324 -1.2696475e-05 6.6330875e-05 1.8955056e-05 4.1998537e-05 1.5917207e-05 3.4390796e-05 8.193852e-05
-0.00022768932 4.5234632e-05 -0.000219626 -0.00018402623 6.0355833e-06 -5.976549e-05 -4.8690308e-05 -0.00012550947
7.717396e-05 2.1629727e-05 0.00014409274 0.00018174075 2.1165872e-05 -0.00018772851 -0.00024896106 -0.00022868953
-6.918539e-05 -0.00013101158 5.7336332e-05 -2.9219405e-05 -7.667726e-06 -0.000116708354 -0.00020362885 -0.00014986633
5.4611933e-06 4.477601e-05 0.000121635254 5.5454428e-05 9.257163e-05 -0.00013578137 8.907318e-05 0.00021328928
1.195071e-05 -1.9026531e-05 7.383836e-05 -5.5062745e-05 -0.00011617755 4.377665e-06 -5.576029e-05 -6.591481e-07
-0.00017011509 -9.3663926e-05 0.00015290041 1.6711103e-05 0.00021138915 -5.15821e-05 0.00010340571 -8.972203e-05
0.000101051046 -0.0001657726 5.465472e-06 6.5066364e-05 -0.0002832087 -0.00013227358 -5.1041898e-05 0.00010161057
00000000: d3fc 0ab7 e10b 2039 a7dc 6fb9 7327 9938
00000010: ccd6 aab6 32bb 2c38 33d2 2c3a 500e 4ab8
00000020: 2ad5 1339 c838 d738 f2e4 6f38 4c66 40b9
00000030: 044d d031 ba33 0339 13cd f0b8 b0a6 8039
00000040: 3390 eb38 f202 55b7 1e1b 8b38 ac01 9f37
00000050: 9627 3038 f185 8537 d63e 1038 68d6 ab38
00000060: e3bf 6eb9 51ba 3d38 684b 66b9 2af7 40b9
00000070: 4485 ca36 b5ac 7ab8 d238 4cb8 319b 03b9
00000080: 74d8 a138 7c71 b537 9a17 1739 a991 3e39
00000090: 5d8d b137 fdd8 44b9 fd86 82b9 61cc 6fb9
000000a0: a017 91b8 2760 09b9 6b7c 7038 321c f5b7
000000b0: a2a4 00b7 52c1 f4b8 3485 55b9 7025 1db9
000000c0: 4b3f b736 e0cd 3b38 6e16 ff38 bd97 6838
000000d0: 0423 c238 8960 0eb9 cdcc ba38 68a6 5f39
000000e0: e97f 4837 2a9b 9fb7 abd9 9a38 2cf3 66b8
000000f0: 59a4 f3b8 dbe3 9236 28e0 69b8 50f0 30b5
00000100: ec60 32b9 706d c4b8 e453 2039 d22e 8c37
00000110: 58a8 5d39 dc59 58b8 85db d838 2629 bcb8
00000120: 5eeb d338 3ed3 2db9 0c64 b736 3d74 8838
00000130: a17b 94b9 ebb2 0ab9 d215 56b8 c217 d538

bn1a.weight f4 [16]
0.99716127 1.0366486 1.0396525 1.0498976 1.0309683 0.9796775 1.030281 0.9774511
1.0714523 0.9548356 1.115947 1.0793386 0.98171127 0.8952347 0.95684946 0.9791549
00000000: f645 7f3f e7b0 843f 5513 853f 0b63 863f
00000010: c5f6 833f 25cc 7a3f 3fe0 833f 3c3a 7a3f
00000020: 5925 893f 1b70 743f 5ad7 8e3f c427 8a3f
00000030: 6e51 7b3f 1a2e 653f 16f4 743f e5a9 7a3f

bn1a.bias f4 [16]
0.033876322 0.038922157 0.014364412 0.028757107 -0.06266787 -0.098840736 0.028271873 -0.008502525
0.03877532 -0.025027126 0.0022235755 -0.019083153 -0.08028239 -0.08468576 0.033009965 -0.08134026
00000000: e6c1 0a3d d76c 1f3d b658 6b3c 0694 eb3c
00000010: 0358 80bd 036d cabd 6a9a e73c 2d4e 0bbc
00000020: dfd2 1e3d b005 cdbc 68b9 113b 4654 9cbc
00000030: 186b a4bd ba6f adbd 7535 073d b995 a6bd

bn1a.running_mean f4 [16]
2.1497128 -1.8146665 -7.8563495 -5.517121 -6.0511417 4.1524925 0.84346116 -2.671317
-1.5156764 0.75681794 -8.604431 -7.432832 -5.341717 12.294708 -8.063453 1.1694329
00000000: e594 0940 fe46 e8bf 3767 fbc0 418c b0c0
00000010: f4a2 c1c0 38e1 8440 12ed 573f dcf6 2ac0
00000020: af01 c2bf d2be 413f c0ab 09c1 c2d9 edc0
00000030: 58ef aac0 20b7 4441 e703 01c1 faaf 953f

bn1a.running_var f4 [16]
1365.6326 323.27573 996.3482 1540.4537 905.4802 438.30273 1260.368 2110.9822
226.31378 1012.5196 983.7732 880.70996 483.3412 2239.083 1393.6495 400.7802
00000000: 3eb4 aa44 4ba3 a143 4916 7944 858e c044
00000010: bc5e 6244 c026 db43 c78b 9d44 b7ef 0345
00000020: 5450 6243 4121 7d44 7cf1 7544 702d 5c44
00000030: acab f143 54f1 0b45 c934 ae44 de63 c843

bn1b.weight f4 [16]
0.88881904 0.9553244 1.1036998 1.1034111 0.9077319 1.0520071 0.94442874 0.87525016
0.87896717 1.0899268 0.96361023 1.1177557 1.1075014 0.9126866 1.1397429 0.89056087
00000000: a589 633f 2490 743f 0946 8d3f 933c 8d3f
00000010: 1e61 683f 2ba8 863f 15c6 713f 6510 603f
00000020: fe03 613f b982 8b3f 29af 763f 9e12 8f3f
00000030: 9bc2 8d3f d4a5 693f 18e3 913f ccfb 633f

bn1b.bias f4 [16]
-0.058301214 0.01542816 0.0725898 0.082070716 -0.1124968 -0.05481723 0.053774394 -0.08232293
-0.012124184 -0.03695037 0.063122936 0.11440082 0.054965857 -0.15941961 0.029902343 -0.15550238
00000000: 41cd 6ebd 65c6 7c3c f6a9 943d b114 a83d
00000010: b964 e6bd 0888 60bd 8a42 5c3d ed98 a8bd
00000020: 83a4 46bc 4559 17bd 9946 813d fa4a ea3d
00000030: e123 613d e53e 23be c2f5 f43c 043c 1fbe

bn1b.running_mean f4 [16]
6.016822 -6.2831473 -0.74386203 -0.20140055 5.9249587 -0.1615729 -2.719134 2.9955308
1.980528 0.0025037488 -0.82748806 -7.5504675 -12.184423 7.0880075 -0.9924757 2.7147045
00000000: ce89 c040 8b0f c9c0 be6d 3ebf f23b 4ebe
00000010: 4399 bd40 5e73 25be 4b06 2ec0 c7b6 3f40
00000020: f181 fd3f ef15 243b 42d6 53bf 6e9d f1c0
00000030: 66f3 42c1 f5d0 e240 e312 7ebf b8bd 2d40

bn1b.running_var f4 [16]
735.9851 701.7539 614.5707 264.23434 716.29297 236.58093 196.65477 885.05237
164.89299 76.872246 107.693726 2520.037 3818.1653 924.79126 168.51558 183.39333
00000000: 0cff 3744 4070 2f44 86a4 1944 ff1d 8443
00000010: c012 3344 b894 6c43 9fa7 4443 5a43 5d44
00000020: 9be4 2443 97be 9942 3063 d742 9880 1d45
00000030: a5a2 6e45 a432 6744 fd83 2843 b164 3743

bn2.weight f4 [32]
1.0109147 1.0079968 1.0492561 1.0320232 1.005006 1.036323 1.05743 1.100669
1.0932857 1.1144186 0.8368873 0.97665477 0.88182557 1.0272238 0.9460492 0.9582671
1.0256027 0.9816223 1.05463 1.0312903 1.0763468 0.99964744 1.0227637 0.9404477
1.0686144 1.031721 0.9891505 0.96189517 0.94123864 0.991734 0.97239536 1.0070307
00000000: a765 813f 0a06 813f 064e 863f 5619 843f
00000010: 09a4 803f 3ba6 843f de59 873f b9e2 8c3f
00000020: c9f0 8b3f 45a5 8e3f 3f3e 563f 0c06 7a3f
00000030: 52bf 613f 127c 833f 4830 723f fe50 753f
00000040: f346 833f 994b 7b3f 1efe 863f 5201 843f
00000050: bbc5 893f e5e8 7f3f ece9 823f 2ec1 703f
00000060: 5bc8 883f 6f0f 843f f838 7d3f c33e 763f
00000070: 04f5 703f 48e2 7d3f e7ee 783f 62e6 803f

bn2.bias f4 [32]
-0.019440182 -0.16836154 0.027914174 -0.15849991 -0.041092634 0.054072905 0.018928906 -0.0018613508
-0.04632813 0.04777789 -0.32083455 -0.16259463 -0.22606532 -0.05396031 -0.1280648 -0.09607588
-0.099034406 -0.096451014 -0.13913111 -0.085965455 -0.14422226 -0.05100359 -0.060179114 -0.13306819
-0.12082535 -0.027649619 -0.022981698 -0.10329626 -0.085026726 -0.059909023 0.009309661 -0.0951213
00000000: 0441 9fbc f866 2cbe 44ac e43c cd4d 22be
00000010: c050 28bd 8d7b 5d3d cb10 9b3c 92f8 f3ba
00000020: 91c2 3dbd c0b2 433d 6d44 a4be 357f 26be
00000030: ab7d 67be 7c05 5dbd 6b23 03be 6ec3 c4bd
00000040: 8dd2 cabd 1c88 c5bd 6378 0ebe a80e b0bd
00000050: 00af 13be 24e9 50bd 607e 76bd 0743 08be
00000060: 4873 f7bd 7481 e2bc 1d44 bcbc fd8c d3bd
00000070: 7e22 aebd 2a63 75bd 8c87 183c f5ce c2bd

bn2.running_mean f4 [32]
-0.31546518 -0.04380763 -0.269004 -0.4828184 -0.32025105 -0.40028068 -0.47270894 -0.2807267
-0.61865103 -0.40615243 0.7329504 0.01604745 0.6824986 -0.12601216 -0.67837924 -0.1278359
-0.74515814 -0.8028518 -0.4033153 -0.13548397 -0.13387477 -0.4906971 -0.64178175 -0.68132114
-0.9428544 -0.08706416 -0.2158338 -0.2676859 -0.4503472 -1.0772085 -0.18197916 -0.2773957
00000000: a784 a1be a16f 33bd e4ba 89be f933 f7be
00000010: f2f7 a3be 97f1 ccbe e806 f2be 69bb 8fbe
00000020: ea5f 1ebf 36f3 cfbe a3a2 3b3f f175 833c
00000030: 3ab8 2e3f 5509 01be 43aa 2dbf 6ae7 02be
00000040: afc2 3ebf b287 4dbf 587f cebe 4fbc 0abe
00000050: 7816 09be a63c fbbe cf4b 24bf 106b 2ebf
00000060: e85e 71bf b24e b2bd 8903 5dbe 200e 89be
00000070: e893 e6be f8e1 89bf bf58 3abe cf06 8ebe
