pc端哭声检测/GLAM-main/GLAM-main/lyh/liuyanhao/data/model_AACNN_mfcc.pth (torch, 619361 bytes, 38 tensors)

conv1a.weight f4 [16, 1, 10, 2]
0	0xbdf9dc2c	-0.122001976
1	0x3cf831da	0.030297209
2	0x3c825915	0.015911618
3	0xbd8b9c91	-0.06816972
4	0x3e83c1ed	0.2573389
5	0x3e402e89	0.18767752
6	0xbe34ebd9	-0.17668094
7	0xbe10add0	-0.14128804
8	0x3dd53772	0.10410966
9	0xbe05888e	-0.13040373
10	0xbe38fea2	-0.18065885
11	0x3e01be5a	0.1267027
12	0xbe96abce	-0.29427952
13	0xbe9fafc6	-0.31188792
14	0xbdd4f23d	-0.10397766
15	0x3e55db44	0.20884424
16	0x3cf0f123	0.029411858
17	0x3d9111fe	0.0708351
18	0x3d4e02e1	0.050295714
19	0x3dbe9967	0.09306603
20	0xbe1d2b64	-0.15348583
21	0x3e054666	0.13015136
22	0x3cec23d9	0.028825687
23	0xbd2c5ae8	-0.042078882
24	0x3dadc8d5	0.08485571
25	0x3d66fd29	0.056393776
26	0x3e6b1db4	0.2296055
27	0x3cc4f0af	0.024040548
28	0x3a2f8cc4	0.0006696696
29	0xbdaa423d	-0.08313415
30	0xbe8c75c8	-0.2743361
31	0xbe8d41a2	-0.27589136
32	0x3db3547e	0.0875635
33	0x3e90c66c	0.28276384
34	0x3c111b36	0.008856585
35	0x3df65a05	0.120288886
36	0xbe1ec2ba	-0.1550397
37	0xbea010bd	-0.3126277
38	0xbe47ac25	-0.19499262
39	0xbe176d92	-0.14787892
40	0x3df54303	0.11975672
41	0x3e04dd89	0.12975134
42	0x3e0573e4	0.1303249
43	0x3e0d8cbf	0.13823222
44	0x3d901ef8	0.07037157
45	0x3cf90165	0.030396173
46	0x3d02f6aa	0.03197352
47	0xbe30f356	-0.17280325
48	0x3d9e0181	0.077151306
49	0x3ded85bb	0.11597773
50	0xbde00a1f	-0.109394304
51	0x3dfb290c	0.122636884
52	0x3e69ff13	0.2285121
53	0xbe178391	-0.14796282
54	0xbd3a3f5a	-0.045470573
55	0x3af99123	0.0019040446
56	0x3d87e220	0.06634927
57	0x3df7c2d1	0.12097705
58	0xbe19dc95	-0.15025552
59	0xbdf091a6	-0.1174653
60	0x3d2e7607	0.04259303
61	0xbdd350b3	-0.103181265
62	0xbc181dcd	-0.009284449
63	0x3e889d97	0.26682732
64	0xbdcd75aa	-0.10032208
65	0x3d1f315e	0.03886544
66	0x3e09c6ed	0.1345479
67	0x3e822926	0.2542202
68	0xbe5b3972	-0.21408632
69	0x3e274b2f	0.16337274
70	0xbe1e6c4f	-0.15471004
71	0xbe5410c2	-0.20709518
72	0xbe43d45f	-0.19123982
73	0xbe6d0dff	-0.2314987
74	0x3be1551e	0.006876602
75	0xbe85a7cf	-0.2610459
76	0xbdbda1ff	-0.09259414
77	0x3e2873ec	0.1645047
78	0x3d999b1d	0.07500289
79	0x3e2296ca	0.15877834
80	0xbe297ba7	-0.16551076
81	0x3e096c86	0.13420305
82	0xbe060d67	-0.1309105
83	0x3e25ea74	0.16202718
84	0x3e866216	0.2624671
85	0x3dec38a8	0.11534244
86	0xbd69592d	-0.05696981
87	0xbc50ee14	-0.012752075
88	0x3d83c309	0.064336844
89	0xbe1e1141	-0.1543627
90	0x3e1d80da	0.15381184
91	0xbdaaddde	-0.08343099
92	0xbd2c97e1	-0.04213703
93	0x3ce594e2	0.028025094
94	0x3e349eb5	0.17638667
95	0x3d214ed4	0.039381817
96	0xbe7a5f2f	-0.24450372
97	0xbe102ec3	-0.14080338
98	0x3e602e17	0.21892582
99	0x3e44c537	0.19215856
100	0x3d91e9e4	0.07124689
101	0xbe1cfb6a	-0.15330282
102	0x3e10492f	0.14090417
103	0xbe129ade	-0.1431689
104	0x3e60d2f4	0.21955472
105	0xbda21937	-0.079149656
106	0xbe274f5f	-0.16338871
107	0x3c87d0fc	0.016579144
108	0xbca993d0	-0.020700365
109	0xbcdada38	-0.026715383
110	0x3e73cb2f	0.23807977
111	0xbd0058d2	-0.031334706
112	0xbc3053e9	-0.010762193
113	0xbbc6c29c	-0.0060656797
114	0xbe85caea	-0.26131374
115	0x3c1ea20c	0.00968219
116	0x3e270809	0.16311659
117	0xbda0a8c7	-0.07844692
118	0xbea83110	-0.32849932
119	0xbec07792	-0.37591225
120	0xbe03f7af	-0.12887453
121	0x3cbb7e1b	0.02288728
122	0xbe0ebe88	-0.1393987
123	0x3c2ba000	0.010475159
124	0xbe38b6f3	-0.1803854
125	0x3d95fe1c	0.07323858
126	0xbdf57b95	-0.11986462
127	0x3c403786	0.011731988
128	0x3e493855	0.19650395
129	0x3e1e2008	0.15441906
130	0xbe18873d	-0.1489534
131	0xbe847875	-0.2587315
132	0x3e1ff587	0.15621005
133	0xbe519554	-0.2046712
134	0x3e75f9d7	0.24021088
135	0x3eb0636f	0.34450862
136	0x3d879766	0.06620674
137	0xbe33c4ec	-0.17555588
138	0x3dd58671	0.10426033
139	0xbdf196a5	-0.11796311
140	0xbe230a1c	-0.15921825
141	0xbda4db75	-0.080496706
142	0xbe105e4d	-0.14098473
143	0xbcc5f764	-0.024165817
144	0x3e5689fc	0.20951074
145	0x3dcd5d5f	0.10027575
146	0xbdf5faa2	-0.12010695
147	0x3d8619de	0.065479025
148	0x3e8d2310	0.27565813
149	0x3e995a2d	0.2995161
150	0x3e2dcff7	0.16973864
151	0xbe58514c	-0.21124762
152	0xbd2b6b3e	-0.04185032
153	0x3df764f3	0.120798014
154	0xbd696a9c	-0.056986436
155	0xbe0db6e4	-0.13839298
156	0x3c2413ad	0.010014457
157	0x3db9e6e7	0.09077244
158	0xbebe5ae4	-0.3717872
159	0xbeb358a7	-0.35028574
160	0xbe146db4	-0.14494973
161	0x3deef835	0.116684355
162	0xbcc289bd	-0.02374732
163	0x3e14eaac	0.14542645
164	0x3e309429	0.17244019
165	0xbdb2a71d	-0.087232806
166	0x3d6b6271	0.057466928
167	0xbe03021a	-0.1279377
168	0x3d884a32	0.06654777
169	0xbbc2472d	-0.005928895
170	0x3e0e17eb	0.13876311
171	0x3e1abdb6	0.15111431
172	0xbea380e6	-0.3193428
173	0xbe011155	-0.12604268
174	0x3eaaa828	0.33331418
175	0x3ea59364	0.32339013
176	0xbdd6a7ab	-0.10481199
177	0x3cdaaac7	0.026692761
178	0x3e062990	0.13101792
179	0xbdffbec5	-0.12487558
180	0x3ddb870a	0.10719116
181	0xbca187de	-0.019718107
182	0xbe1291c0	-0.14313412
183	0xbe209502	-0.15681842
184	0xbdfb99e7	-0.12285214
185	0xbdf34a5b	-0.118794166
186	0x3e5403d2	0.20704582
187	0xbda4555d	-0.08024094
188	0xbd9efb5a	-0.07762785
189	0x3de74a03	0.112934135
190	0xbe3d55f1	-0.18489815
191	0xbe8f04e3	-0.27933416
192	0xbb87bbed	-0.0041422755
193	0x3e3f771d	0.18697782
194	0x3e81e6e7	0.25371477
195	0x3dd6ea66	0.10493927
196	0x3e3767af	0.17910646
197	0x3d5840ed	0.052796293
198	0xbea9cd61	-0.33164504
199	0xbdf23608	-0.11826712
200	0x3dd5e980	0.10444927
201	0x3e61f43d	0.22065826
202	0xbe2b615f	-0.16736363
203	0x3e6007f3	0.21878032
204	0xbe29aded	-0.16570254
205	0x3e50019f	0.20313118
206	0x3dc6c8d4	0.09706274
207	0x3dfcbd07	0.123407416
208	0xbd47e243	-0.048799764
209	0xbd146af4	-0.03623481
210	0x3d3522bd	0.044222582
211	0x3d69dfba	0.057098128
212	0x3dc3e904	0.095659286
213	0x3dce4ccc	0.100732416
214	0xbea08123	-0.31348523
215	0xbdcd5b34	-0.10027161
216	0xbe3f4488	-0.18678486
217	0xbd5cda75	-0.053919274
218	0x3ea8588a	0.3288005
219	0x3e923d92	0.285626
220	0xbd8b6243	-0.06805851
221	0x3d6f48bd	0.058418978
222	0xbd0b46a3	-0.03400291
223	0x3ddfe10b	0.109315954
224	0x3e605da7	0.21910726
225	0x3e1f9891	0.15585543
226	0x3e54511b	0.20734064
227	0xbdf20b61	-0.118185766
228	0x3cb33971	0.021877976
229	0x3ce4c559	0.027926134
230	0x3c628cc2	0.013827505
231	0xbe5363d2	-0.20643547
232	0x3e2a05b0	0.16603732
233	0x3ce0d1ac	0.02744373
234	0x3e00264b	0.12514608
235	0xbdf59f67	-0.11993294
236	0x3ce34757	0.027743978
237	0xbca81a78	-0.020520434
238	0xbe963454	-0.29336798
239	0xbd55ed15	-0.052228052
240	0x3e4b208c	0.19836634
241	0x3d5dfdba	0.05419705
242	0xbddffd5a	-0.10936995
243	0x3bbfe33a	0.005855945
244	0xbe375518	-0.17903554
245	0x3e13f004	0.14447027
246	0x3e2f0122	0.17090276
247	0xbe3d1a1b	-0.1846699
248	0x3bde2877	0.006779726
249	0x3e48b2fc	0.19599527
250	0x3e907d6e	0.28220695
251	0x3dd25479	0.10270018
252	0x3e022a16	0.12711367
253	0xbd1f6a96	-0.038920008
254	0xbe030eb9	-0.12798585
255	0x3d6af5f7	0.057363477

conv1a.bias f4 [16]
0	0xb74d76c7	-1.2246607e-05
1	0x373471e5	1.0755354e-05
2	0x38b250e7	8.502771e-05
3	0xb614c330	-2.2167333e-06
4	0xb85b4b22	-5.228364e-05
5	0x386bea42	5.6246536e-05
6	0x36419cd8	2.8850536e-06
7	0xb69c9a63	-4.6671353e-06
8	0xb8e7f7e9	-0.00011061115
9	0xb662e7ed	-3.3811623e-06
10	0xb80162ed	-3.084813e-05
11	0x38c79056	9.515944e-05
12	0x38396828	4.420444e-05
13	0x375bd7f0	1.3103694e-05
14	0x386f12fb	5.6999717e-05
15	0xb8736b2f	-5.8035537e-05

conv1b.weight f4 [16, 1, 2, 8]
0	0x3d546aeb	0.051859777
1	0xbe23d296	-0.15998301
2	0xbd6dd748	-0.058066636
3	0xbe3de5fe	-0.18544766
4	0xbabc61ea	-0.0014372442
5	0x3cad7d99	0.021178054
6	0xbd31c630	-0.043401897
7	0x3c702d46	0.0146592315
8	0xbe65fa97	-0.22458874
9	0xbe0729a3	-0.13199477
10	0xbe8b9774	-0.27263987
11	0xbe9dd738	-0.3082826
12	0xbe3cc35b	-0.18433897
13	0x3deb8d29	0.115015335
14	0xbe7b57c5	-0.245452
15	0x3dad5be5	0.08464793
16	0x3d8cf057	0.06881779
17	0x3d69c048	0.05706814
18	0x3cc444aa	0.023958523
19	0x3e0bf8cf	0.13669132
20	0xbe716441	-0.235734
21	0x3e2fc4fd	0.17164989
22	0x3cfec22b	0.031098446
23	0x3e60b41a	0.21943703
24	0x3e70d46c	0.23518533
25	0xbc68d41f	-0.01421073
26	0x3def5053	0.116852425
27	0x3d61a4d3	0.05508883
28	0x3d587251	0.052843396
29	0x3db45fd6	0.08807342
30	0xbc25322b	-0.010082762
31	0xbe16204c	-0.14660758
32	0x3c4cbe67	0.012496567
33	0xbe37d674	-0.17952901
34	0x3e19252d	0.14955588
35	0x3e6e0bc4	0.23246676
36	0xbdfd1f07	-0.123594336
37	0x3e30073a	0.17190257
38	0xbe0aafe0	-0.13543653
39	0x3dccc939	0.09999318
40	0xbe89963a	-0.26872426
41	0xbe914fd4	-0.28381217
42	0xbd881cde	-0.06646131
43	0xbe71b2e3	-0.23603396
44	0x3dea558b	0.11442097
45	0xbbb3239a	-0.0054668905
46	0xbd8b52a1	-0.068028696
47	0xbe857d82	-0.26072317
48	0xbe0840c5	-0.13305958
49	0xbdd27cc8	-0.102777064
50	0xbe47f3f8	-0.1952666
51	0x3e820b45	0.25399223
52	0x3d4eb8ed	0.050469328
53	0x3e3bf071	0.1835344
54	0xbd60555a	-0.054768898
55	0xbd9899a5	-0.0745118
56	0xbd711eeb	-0.058867376
57	0xbd1e2384	-0.03860809
58	0xbd970511	-0.07374013
59	0x3d275b21	0.04085839
60	0xbe27cdb5	-0.16387065
61	0xbe6d52b9	-0.23176087
62	0x3e844115	0.25830904
63	0xbdd58e65	-0.1042755
64	0xbe6608f6	-0.22464356
65	0xbd90c671	-0.070691
66	0xbe4f5ff1	-0.20251442
67	0x3cf5cfc0	0.03000629
68	0x3e0a2be6	0.13493308
69	0xbe2dee22	-0.16985372
70	0x3d419e34	0.047270015
71	0x3e5d55e0	0.2161479
72	0xbe4fe08f	-0.20300506
73	0x3e7633bd	0.24043174
74	0x3d144cbd	0.036205996
75	0xbdb14e9e	-0.08657573
76	0xbe425439	-0.18977441
77	0xbadc7c98	-0.00168218
78	0xbe83dd34	-0.25754702
79	0xbe73690c	-0.23770541
80	0xbd0fe243	-0.03512789
81	0x3e2ee711	0.17080332
82	0x3e74c64e	0.23903772
83	0x3e00b27e	0.1256809
84	0x3cec05c8	0.02881135
85	0xbe324d37	-0.17412268
86	0xbe5c841f	-0.21534775
87	0xbe4e2c0f	-0.20133995
88	0x3d645001	0.05574036
89	0x3e7c73ef	0.246536
90	0x3e2fb976	0.17160591
91	0xbd1fd5b0	-0.039022148
92	0x3e396c0a	0.1810762
93	0xbe6d0729	-0.23147263
94	0xbe139bc1	-0.14414884
95	0x3cb0fb28	0.021604136
96	0x3d25784e	0.040397935
97	0x3dc0330b	0.09384736
98	0x3e2c4253	0.16822176
99	0xbe6b1639	-0.22957696
100	0x3e17ccc7	0.1482421
101	0x3d45bc1c	0.0482751
102	0xbe36272c	-0.1778838
103	0xbcec91d2	-0.028878126
104	0x3e97ff06	0.29686755
105	0xbdb8c2bf	-0.0902152
106	0x3e89f59b	0.26945195
107	0x3e8b675f	0.27227303
108	0xbd4d6143	-0.050141584
109	0x3e32b2ef	0.1745107
110	0x3e6a5ba8	0.22886527
111	0x3e3cf50b	0.18452851
112	0xbcc89968	-0.024487212
113	0xbe58e276	-0.21180138
114	0xbe115617	-0.14192997
115	0x3dca716c	0.09884915
116	0xbd9fc428	-0.07801086
117	0x3e8711b6	0.263807
118	0xbe15506e	-0.14581463
119	0xbd6c2cd2	-0.05765993
120	0x3dc9c700	0.09852409
121	0x3e8c28fd	0.27375022
122	0x3e4ab577	0.19795786
123	0x3e0eaa9d	0.13932271
124	0x3e1816a5	0.14852388
125	0x3e4a2cb4	0.19743615
126	0x3e32612d	0.17419882
127	0x3d761bac	0.060084984
128	0x3e2cc9ee	0.16873905
129	0x3d4811f8	0.04884526
130	0x3e1368ef	0.14395498
131	0xbdde2a5e	-0.10847925
132	0xbc7c401d	-0.015396145
133	0xbe51d0a9	-0.20489754
134	0xbe81a34a	-0.25319892
135	0x3df61ba6	0.12016992
136	0xbe7d33cc	-0.2472679
137	0xbe53be01	-0.2067795
138	0x3db6c633	0.08924522
139	0x3e6eaeb7	0.23308836
140	0x3d1e46da	0.038641788
141	0xbbc857eb	-0.0061139963
142	0x3e400c7a	0.1875476
143	0xbe6fd692	-0.23421696
144	0x3e20d32e	0.15705559
145	0x3e35b429	0.17744507
146	0xbe3a3da4	-0.18187577
147	0x3d5edb30	0.054408252
148	0x3aca5ef3	0.0015439674
149	0x3dc553bc	0.09635112
150	0xbd42b636	-0.04753705
151	0xbe2dd9ba	-0.16977587
152	0x3a7fa041	0.0009751358
153	0x3e5f11b8	0.21784103
154	0xbc9a2d91	-0.018820556
155	0xbdc2ebdd	-0.095176436
156	0xbe32147b	-0.17390625
157	0xbda126a0	-0.07868695
158	0x3e5e0675	0.2168215
159	0xbe1da93c	-0.15396589
160	0x3e498905	0.19681175
161	0x3e2cf7de	0.16891429
162	0xbe77bae2	-0.24192384
163	0xbe50757f	-0.20357321
164	0xbe5b372f	-0.2140777
165	0x3e5ea347	0.21741973
166	0x3e38012c	0.17969197
167	0xbe123d0d	-0.14281102
168	0x3e2434af	0.16035722
169	0x3d9b7e0e	0.075924024
170	0x3e07df6b	0.13268821
171	0x3e4157bd	0.18881126
172	0xbd683596	-0.05669173
173	0xbd036686	-0.032080196
174	0x3d98f3c9	0.07468373
175	0xbe83fe80	-0.25780106
176	0x3e42d39c	0.19026035
177	0xbdb4896e	-0.08815275
178	0x3d6f1576	0.058370076
179	0xbdef9bd5	-0.116996445
180	0xbd380e18	-0.044935316
181	0x3debec0d	0.115196325
182	0x3e73f765	0.23824842
183	0x3e2d6f9b	0.16937105
184	0xbd0ae890	-0.033913195
185	0xbe53f081	-0.20697214
186	0x3d45001a	0.0480958
187	0xbe6902c8	-0.22754967
188	0xbd652075	-0.055939157
189	0xbdbadba8	-0.09123927
190	0xbcbbe4fd	-0.022936339
191	0xbde90474	-0.113778025
192	0x3e1639f6	0.14670548
193	0xbdbd43f5	-0.092414774
194	0x3e24a197	0.16077267
195	0x3e2ea2bb	0.17054264
196	0x3d37ed5f	0.04490411
197	0x3e2fc526	0.1716505
198	0xbdff127e	-0.12454699
199	0x3ddede6f	0.108822696
200	0xbe4d0299	-0.20020522
201	0xbe5359db	-0.20639746
202	0x3dd9d466	0.10636215
203	0x3e893e1d	0.268052
204	0x3e8d1c70	0.2756076
205	0x3d041ea0	0.03225577
206	0xbd9841cb	-0.07434424
207	0x3e893536	0.2679841
208	0x3bc83946	0.006110343
209	0xbd4d0431	-0.050052825
210	0xbe3c201a	-0.18371621
211	0xbe22e06f	-0.15905927
212	0xbda9af81	-0.08285428
213	0xbe3b8823	-0.18313651
214	0x3e474e68	0.19463503
215	0xbe1c01da	-0.15235081
216	0xbdc81f36	-0.09771578
217	0xbe457928	-0.19284499
218	0xbe73ab77	-0.23795877
219	0x3e38b876	0.18039116
220	0x3d909a56	0.07060687
221	0xbe05999d	-0.1304688
222	0xbd6f65a3	-0.058446538
223	0x3e35eac5	0.17765339
224	0x3e77bacf	0.24192356
225	0x3e51b164	0.20477825
226	0x3e1c6359	0.15272273
227	0xbe74ba5f	-0.2389922
228	0xbe7a34e6	-0.24434242
229	0xbe195107	-0.14972316
230	0xbcaed965	-0.021343896
231	0x3e3cd771	0.1844156
232	0xbde412e0	-0.111364126
233	0xbcdf6b97	-0.027272983
234	0xbd16cf6a	-0.0368189
235	0xbe0d1da3	-0.13780837
236	0x3e83dbb2	0.25753552
237	0x3d667641	0.05626512
238	0x3e540824	0.2070623
239	0xbc63c116	-0.013901016
240	0x3d887bae	0.06664215
241	0xbd516e29	-0.051130448
242	0x3e17c32d	0.14820547
243	0x3e1e1385	0.15437134
244	0xbe096723	-0.1341825
245	0xbe55c336	-0.20875248
246	0x3e444e90	0.19170594
247	0xbe3eef9d	-0.18646093
248	0x3c25536c	0.01009069
249	0xbe82b538	-0.25528884
250	0xbe6d392f	-0.23166345
251	0x3cd7963e	0.026316758
252	0xbd1ccd3e	-0.03828167
253	0x3e8276ee	0.2548136
254	0xbce5518d	-0.027992988
255	0x3e2c6677	0.16835962

conv1b.bias f4 [16]
0	0x372a7a35	1.0161243e-05
1	0xb810bb53	-3.4506735e-05
2	0xb80d3c8a	-3.36734e-05
3	0x38e45409	0.0001088754
4	0xb8af1c44	-8.349915e-05
5	0x372257e4	9.676416e-06
6	0xb6d7fafc	-6.4367177e-06
7	0xb7ba77c0	-2.222869e-05
8	0xb8922e79	-6.970479e-05
9	0xb927ccc0	-0.00016002636
10	0x390a0ada	0.00013164748
11	0xb894cca3	-7.0953065e-05
12	0xb6fad6cc	-7.4755862e-06
13	0x37562dd5	1.2766065e-05
14	0x38872551	6.444252e-05
15	0x3888202d	6.4909786e-05

conv2.weight f4 [32, 16, 3, 3]
0	0x3ba819ab	0.005130013
1	0xbcb92b7a	-0.022603739
2	0x3c86e324	0.016465731
3	0xbd5b6014	-0.053558424
4	0xbd513fad	-0.051086117
5	0xbd1f7a96	-0.038935266
6	0x3d456349	0.04819039
7	0x3d873e9a	0.06603737
8	0xbd69bf89	-0.057067428
9	0xbd956852	-0.07295288
10	0x3d4168f8	0.047219247
11	0x3dc9b14e	0.09848271
12	0xbdbd6975	-0.0924863
13	0xbdb27094	-0.08712879
14	0xbd1e5746	-0.03865745
15	0x3d139cdb	0.03603826
16	0x3d56fcbf	0.05248713
17	0x3b460972	0.0030218032
18	0x3e00a0a5	0.12561281
19	0x3c99439a	0.018708993
20	0x3df7343a	0.12070508
21	0xbddc73f6	-0.10764305
22	0xbdeee07b	-0.1166391
23	0xbdb3b2b1	-0.08774317
24	0xbc93b4f2	-0.018030617
25	0x3d428d74	0.04749818
26	0x3cb11395	0.021615783
27	0x3bbbdbbe	0.0057329824
28	0x3a48ff7d	0.0007667465
29	0xbcfc9061	-0.030830564
30	0xbc82c870	-0.015964717
31	0xbdc18c1c	-0.09450552
32	0xbcdbd888	-0.026836649
33	0x3cd39a22	0.025830332
34	0x3cdc0d8f	0.026861934
35	0xbd3976d7	-0.04527935
36	0x3dcd9a59	0.10039205
37	0xbd7a6c9d	-0.061138738
38	0xbd708f35	-0.058730323
39	0xbd8078a2	-0.06273009
40	0xbdf4027a	-0.11914535
41	0xbd4fa08e	-0.050690226
42	0x3d687406	0.056751274
43	0x3d80b585	0.06284622
44	0xbb1ae14d	-0.0023632825
45	0xbc2fc351	-0.010727719
46	0x3d3176b9	0.043326113
47	0xbd9a72d4	-0.07541433
48	0x3e1b4f26	0.15166911
49	0x3e112428	0.14173949
50	0x3db2d32d	0.08731685
51	0xbe01f82f	-0.12692331
52	0xbdb389a4	-0.08766487
53	0xbe50127d	-0.20319553
54	0xbe035378	-0.1282481
55	0xbdbe4fa7	-0.09292536
56	0xbd4637fb	-0.04839323
57	0xbd000527	-0.031254914
58	0xbdb45ff9	-0.08807368
59	0xbdb1a74b	-0.08674487
60	0x3d2b4389	0.041812453
61	0x3d40528b	0.04695372
62	0x3dde2922	0.10847689
63	0xbd6c7c4b	-0.057735723
64	0xbda851f5	-0.08218757
65	0xb9dda8c7	-0.00042278154
66	0x3d50fd4e	0.05102282
67	0xbca52a61	-0.02016181
68	0x3d1751e7	0.036943343
69	0xbcd12915	-0.025532285
70	0x3cbf671f	0.023364602
71	0x3d17d3a3	0.037067067
72	0xbd5026ad	-0.050818134
73	0xbd3d0092	-0.046143122
74	0xbbd74849	-0.0065698964
75	0xbd760cb0	-0.060070693
76	0x3d4d7660	0.05016172
77	0xbdce2b4a	-0.100668505
78	0x3deab233	0.1145977
79	0x3b989a92	0.004657098
80	0x3e266801	0.16250612
81	0x3d849583	0.064738296
82	0x3c65f945	0.014036481
83	0x3d437c67	0.04772606
84	0xbbfe173e	-0.0077542355
85	0x3cdefcb8	0.027220115
86	0xbd7a5490	-0.0611158
87	0xbdb0cc99	-0.08632774
88	0xbd9a8900	-0.07545662
89	0xbd701f22	-0.05862344
90	0xbcd60bb3	-0.026128625
91	0xbd4f03e3	-0.050540816
92	0xbd0f893c	-0.035042986
93	0xbd9005c0	-0.07032347
94	0xbd959d39	-0.073053785
95	0x3c280636	0.010255387
96	0x3d32e327	0.04367366
97	0xbd893f5e	-0.067015395
98	0xbc814798	-0.015781209
99	0xbce1960d	-0.02753737
100	0xbd1662cb	-0.03671531
101	0x3ab8a460	0.0014087074
102	0xbd2ba451	-0.04190475
103	0xbdc5b688	-0.09653956
104	0x3be209b4	0.0068981294
105	0x3d5037e1	0.05083454
106	0x3c8d0f12	0.0172191
107	0x3e046dc1	0.12932493
108	0x3d8b15cb	0.06791266
109	0xbc6897d5	-0.014196356
110	0x3d1b7cde	0.03796088
111	0xbcc6f2c2	-0.024285678
112	0x3c07b248	0.008282252
113	0xbc2ac5d6	-0.010423144
114	0x3d3cc728	0.046088368
115	0x3d807794	0.06272808
116	0x3de4b445	0.11167196
117	0x3cb133b4	0.0216311
118	0x3d37f553	0.044911694
119	0x3d54e4ea	0.051976122
120	0xbcf9099e	-0.030400094
121	0xbd6ba4dc	-0.05753027
122	0x3d102420	0.0351907
123	0xbd34fc3c	-0.044185862
124	0xbd35cf7b	-0.044387322
125	0xbdc08803	-0.09400942
126	0xbbdef794	-0.006804416
127	0xbc5337c6	-0.012891715
128	0x3c1f9a4d	0.009741378
129	0xbc818d69	-0.0158145
130	0x3c7f45fe	0.015580652
131	0x3d516075	0.05111738
132	0x3cefa080	0.029251337
133	0xbdb8157d	-0.089884736
134	0x3b9a134c	0.0047020074
135	0xbc0f779d	-0.008756545
136	0x3ca1c706	0.019748222
137	0x3d3e30fa	0.046433426
138	0x3cd0bda0	0.025481045
139	0xbd97750f	-0.07395374
140	0xbbbe47bb	-0.005806891
141	0x3d224a28	0.039621502
142	0x3c4a441e	0.012345342
143	0xbdd731f0	-0.10507572
144	0xbd947ad7	-0.07249992
145	0x3c508339	0.012726598
146	0xbda3e6ea	-0.08003028
147	0x3da4d11f	0.08047699
148	0xbd1ce571	-0.03830475
149	0x3d0dd9c0	0.03463149
150	0xbcc7f958	-0.024410889
151	0xbc819ff1	-0.015823336
152	0xbda7f90f	-0.08201801
153	0xbcf86ecc	-0.03032627
154	0xbd48c3c2	-0.049014814
155	0x3d9cb00f	0.07650768
156	0xbd9c0527	-0.0761817
157	0xbd592acc	-0.05301933
158	0xbd81f68a	-0.06345852
159	0x3cb65763	0.022258466
160	0x3cf308d0	0.029667288
161	0x3d342c5f	0.043987628
162	0x3cf39e8a	0.029738683
163	0x3d86b955	0.06578318
164	0xbd37690f	-0.044777926
165	0xbdb68b70	-0.08913314
166	0xbddfd531	-0.10929335
167	0xbd9cf7a6	-0.07664423
168	0x3d153f22	0.03643716
169	0xbdbeccbb	-0.09316393
170	0x3db15cf2	0.08660306
171	0x3d87093c	0.06593558
172	0x3db00d46	0.08596282
173	0x3d430eca	0.047621526
174	0xbbb2c934	-0.005456114
175	0x3d873a9b	0.06602975
176	0x3d9a175a	0.07523985
177	0xbd9e869f	-0.07740521
178	0x3d4679ec	0.048456118
179	0x3bb77d8c	0.005599683
180	0xbd542d5f	-0.05180108
181	0x3c2eedc1	0.010676802
182	0x3c45baa4	0.012068424
183	0x3ca50b06	0.020146858
184	0x3c8aa0de	0.01692241
185	0x3ddf8f53	0.10916009
186	0xbd958275	-0.07300273
187	0xbd862a13	-0.06550994
188	0xbcc8f717	-0.024531884
189	0x3d51e3a1	0.051242474
190	0x3d189560	0.03725183
191	0x3d9f955e	0.077921614
192	0xbcd75fe8	-0.026290849
193	0x3d2e7ee9	0.0426015
194	0x3ca20c31	0.019781204
195	0x3d4ec8ff	0.050484654
196	0x3dd4031c	0.103521556
197	0x3e09dd80	0.13463402
198	0x3db01380	0.08597469
199	0x3d552cac	0.052044556
200	0x3d8282be	0.06372593
201	0xbd868f29	-0.065702744
202	0x3d31da63	0.04342116
203	0x3cc25213	0.023720777
204	0xbbc558ce	-0.0060225492
205	0xbd98bdbf	-0.07458066
206	0x3d3d4317	0.04620656
207	0xbcd58481	-0.02606416
208	0xbd2cfe87	-0.042234924
209	0xbd8ac944	-0.067766696
210	0xbd98ed1f	-0.07467102
211	0xbd89472a	-0.067030266
212	0xbdae40ee	-0.08508478
213	0xbd8fb2bc	-0.07016513
214	0xbd749206	-0.05970957
215	0xbd91113e	-0.07083367
216	0x3bfcc0f5	0.007713432
217	0x3cb1e6ee	0.021716561
218	0xbcb3478f	-0.021884708
219	0x3d195a51	0.037439648
220	0xbdad29bb	-0.08455225
221	0x3ca714b0	0.020395607
222	0xbd10640a	-0.035251655
223	0x3c99e56f	0.01878616
224	0x3dd4867f	0.103772156
225	0xbdcaa818	-0.098953426
226	0xbe0abb0d	-0.13547917
227	0xbd6945f9	-0.056951497
228	0xbdf3dd8f	-0.11907493
229	0xbd9102ea	-0.07080634
230	0x3d19d0b8	0.037552565
231	0x3d5a1722	0.053244717
232	0x3d3e2282	0.046419628
233	0x3e0ba211	0.13636042
234	0xbcb9dd17	-0.022688432
235	0x3d8acfed	0.0677794
236	0xbd4a517f	-0.049394127
237	0xbd8573b3	-0.065162085
238	0x3cda3aa8	0.026639298
239	0x3d8f2a8a	0.069905356
240	0xbd6faa35	-0.05851193
241	0xb999848f	-0.00029281198
242	0x3daaf88a	0.08348186
243	0x3dc78f41	0.097441204
244	0xbcadcdd4	-0.02121631
245	0x3d88e49e	0.0668423
246	0xbd6bdb97	-0.057582464
247	0xbcf09d6c	-0.02937194
248	0x3d2e9088	0.042618304
249	0xbd483658	-0.04887995
250	0x3d504c82	0.050854214
251	0x3d8cd6c9	0.068769045
252	0x3df1b545	0.118021525
253	0x3ca6106c	0.020271502
254	0x3db1b710	0.086774945
255	0x3d69a764	0.0570444

conv2.bias f4 [32]
0	0xb8271621	-3.9836512e-05
1	0xba020086	-0.00049591844
2	0xba45d199	-0.0007546186
3	0x3af13657	0.0018403035
4	0xbabb3c43	-0.0014284927
5	0xb9573027	-0.00020521936
6	0x3a3db2ff	0.00072364503
7	0xbb18f9cd	-0.0023342252
8	0x3a68d930	0.0008882461
9	0xba36d8fd	-0.0006975083
10	0x396269e9	0.00021592494
11	0xba1a552f	-0.0005887327
12	0xba38bdf0	-0.0007047346
13	0x3a0789d8	0.00051703816
14	0x39b6c349	0.00034859244
15	0x39d4fae2	0.00040622713
16	0x3a4a065d	0.00077066367
17	0x39e7c850	0.00044208998
18	0x395ec2b2	0.000212441
19	0x3ac9aa9f	0.0015385932
20	0xba79838c	-0.0009518198
21	0xb8891944	-6.537375e-05
22	0xbb000697	-0.0019535178
23	0xba53f24f	-0.0008085118
24	0xba8caf83	-0.0010733459
25	0xbac2ee8c	-0.0014872118
26	0xb978228d	-0.00023663994
27	0xba921844	-0.0011146148
28	0x39c2c557	0.00037149593
29	0x3a9238ea	0.0011155878
30	0xb8e0636b	-0.000106996704
31	0xba9d54a7	-0.0012003378

conv3.weight f4 [48, 32, 3, 3]
0	0xbcafcc88	-0.021459833
1	0xbc8903ee	-0.016725507
2	0xbd89acf5	-0.06722442
3	0xbcd20eb3	-0.025641775
4	0x3c4f6196	0.012657544
5	0xbd22b65d	-0.039724696
6	0xbd535887	-0.051598098
7	0xbdb655a9	-0.08903057
8	0xbe06fc40	-0.13182163
9	0x3d9e0e99	0.07717628
10	0x3d8c22d8	0.068425834
11	0x3da0db4b	0.07854327
12	0xbc884dcf	-0.016638665
13	0x3d3c821c	0.04602252
14	0x3d004791	0.03131825
15	0xbd47e566	-0.048802756
16	0xbc7a0363	-0.0152595965
17	0xbc54ae71	-0.012981043
18	0x3d279523	0.040913712
19	0x3d818e25	0.0632594
20	0x3d35198f	0.044213828
21	0xbd43deec	-0.047820017
22	0xbc925a60	-0.01786536
23	0xbd815c9c	-0.06316492
24	0xbd42b887	-0.04753926
25	0xbdb47e5e	-0.08813165
26	0xbdaec3c8	-0.08533436
27	0xbcf066a5	-0.02934582
28	0x3c80c804	0.015720375
29	0x3d8f386f	0.06993186
30	0xbd2012cd	-0.03908043
31	0xbd6a8433	-0.05725498
32	0x3c21b20d	0.009869111
33	0xbbed75e8	-0.0072467215
34	0xbcd1c540	-0.025606751
35	0xbd5ce9b0	-0.0539338
36	0x3d39aaf2	0.04532904
37	0xbc156514	-0.009118337
38	0xbd495f12	-0.04916293
39	0xbd1beebe	-0.03806948
40	0xbce34245	-0.02774156
41	0xbc064be1	-0.008196802
42	0x3c2ecaf6	0.010668507
43	0xbc5ba37c	-0.013405677
44	0xbd4a66b5	-0.049414355
45	0xbdebdfdb	-0.115173064
46	0x3b42a52c	0.00297005
47	0x3dabb57f	0.08384227
48	0xbcebb7af	-0.02877411
49	0xbd9c8904	-0.07643321
50	0xbd010394	-0.031497553
51	0xbdafb441	-0.085793026
52	0x3d5669d4	0.05234702
53	0xbd116274	-0.035494283
54	0xbd2f37ed	-0.042777944
55	0xbd8e76df	-0.069562666
56	0xbd8c4fc9	-0.06851155
57	0x3e0512ed	0.12995501
58	0x3d8ebfc9	0.06970174
59	0xbd90a370	-0.07062423
60	0xbd590b85	-0.0529895
61	0xbdc44f38	-0.09585422
62	0xbd0c1b75	-0.034205873
63	0x3d25ea10	0.040506423
64	0x3d78c3bd	0.060733546
65	0x3d187675	0.037222344
66	0x3d56f566	0.052480124
67	0x3d84b358	0.064795196
68	0xbd1da733	-0.03848953
69	0xbcf16bf4	-0.029470421
70	0x3b11decb	0.002225804
71	0xbbd40332	-0.0064701075
72	0x3ba5796a	0.005049874
73	0xbd34a5ba	-0.04410336
74	0xbd7fd942	-0.062463053
75	0x3cd7f62c	0.026362501
76	0x3cf676bc	0.030085914
77	0x3d6337fb	0.05547331
78	0xba0be713	-0.0005336862
79	0xbd51e624	-0.05124487
80	0xbdaa521c	-0.08316442
81	0x3cae5b29	0.021283703
82	0x3cff03f4	0.031129815
83	0xbcada92d	-0.021198833
84	0xbd82e015	-0.063903965
85	0x3c5cdf40	0.013480961
86	0xbd37ef14	-0.044905737
87	0x3d310b69	0.043223772
88	0x3cfe4dd0	0.031042963
89	0x3daa085e	0.08302377
90	0x3d313a41	0.043268446
91	0xbc992ace	-0.018697169
92	0xbcb10830	-0.02161035
93	0x3cedc8f7	0.029026492
94	0xbcb9f31b	-0.02269893
95	0x3d09c2c8	0.033633024
96	0xbad98774	-0.0016596154
97	0xbb929628	-0.0044734664
98	0x3d3093f5	0.043109853
99	0x3d6a7812	0.057243414
100	0x3d149215	0.036272127
101	0xb9d7eb79	-0.00041183436
102	0x3d87eae2	0.06636597
103	0xbb9c80f0	-0.0047761127
104	0xbc3307d3	-0.010927158
105	0xbcc758d1	-0.024334343
106	0xbd180ae4	-0.03711976
107	0xbced8880	-0.028995752
108	0xbc6c44d8	-0.0144207105
109	0x3d818b04	0.06325343
110	0x3d478352	0.04870922
111	0xbdb8c4b1	-0.09021891
112	0x3d1b3c21	0.03789914
113	0xbd8fee90	-0.07027924
114	0xbd5b530b	-0.053545993
115	0x3d2c8153	0.04211552
116	0xbc606f19	-0.013698363
117	0xbbd03ef8	-0.0063551627
118	0x3d8d13e7	0.06888562
119	0x3d004d38	0.03132364
120	0xbd0beb72	-0.034160085
121	0x3c682db5	0.014171054
122	0xbd813ec4	-0.063108
123	0xbc83b3b5	-0.016076902
124	0x3da53051	0.08065856
125	0x3bf61cd3	0.0075107603
126	0xbd91e854	-0.07124391
127	0xbd69194b	-0.056908887
128	0x3ca7854e	0.020449307
129	0xbd40dfb1	-0.04708833
130	0xbd6ab2a6	-0.05729928
131	0x3d250672	0.04028935
132	0x3cf3120a	0.029671688
133	0x3c925796	0.01786403
134	0x3c990ebe	0.018683787
135	0xbb472fee	-0.0030393559
136	0xbe0203de	-0.12696788
137	0xbdd9c668	-0.10633546
138	0x3d747428	0.059681088
139	0xbd745225	-0.05964865
140	0xbdd52a03	-0.10408404
141	0xbc9ade85	-0.018904934
142	0xbd666376	-0.056247197
143	0xbcc9dd18	-0.024641559
144	0xbb339399	-0.0027401207
145	0x3d759321	0.059954766
146	0x3d0fe644	0.035131708
147	0xbda53d09	-0.08068282
148	0x3c3123d5	0.010811766
149	0xbd38e1e7	-0.045137312
150	0xbd4c9cb0	-0.049954116
151	0x3da4b988	0.080432
152	0x3d910e68	0.07082826
153	0x3c0ce787	0.008600122
154	0x3da86320	0.082220316
155	0x3d5a5bdf	0.05331027
156	0xbd115279	-0.035479043
157	0xbcf090dc	-0.02936595
158	0xbdb7cfef	-0.08975207
159	0x3d950441	0.07276202
160	0x3da80ef0	0.08205974
161	0x3d339f97	0.04385337
162	0x3d0af568	0.033925444
163	0xbc79fb0e	-0.01525761
164	0x3bb351b1	0.005472385
165	0xbc40f247	-0.011776513
166	0xbba3ca94	-0.0049985144
167	0x3dc6acd3	0.09700932
168	0x3d9ade95	0.075619854
169	0x3aa13737	0.001229978
170	0x3c70eb41	0.014704526
171	0x3c2d57cd	0.010580015
172	0xbc74c40b	-0.014939318
173	0xbd9fb394	-0.07797924
174	0xbd32d006	-0.043655418
175	0xbd5666b4	-0.05234404
176	0xbdeebda0	-0.11657262
177	0xbc15997b	-0.009130831
178	0x3d0ae549	0.03391007
179	0x3db8c4a8	0.09021884
180	0xbcb609c0	-0.022221446
181	0xbc6604fe	-0.014039276
182	0xbd7e53d3	-0.06209166
183	0xbdb6b673	-0.08921518
184	0xbd528783	-0.051398765
185	0x3d307d23	0.04308809
186	0xbb09c15a	-0.0021019788
187	0xbd02278d	-0.031776
188	0x3d56ffe4	0.05249013
189	0xbd350c4f	-0.04420119
190	0xbdcb4aa9	-0.0992635
191	0xbd84ce96	-0.06484716
192	0x3cc860aa	0.024460156
193	0xbcc43878	-0.023952708
194	0xbce46d61	-0.027884187
195	0xbcc1e38a	-0.02366807
196	0x3cc8ed4a	0.02452721
197	0xbd069750	-0.032859147
198	0x3d036206	0.032075904
199	0x3d0d825c	0.03454815
200	0x3bae42a3	0.0053180023
201	0x3d8c174a	0.068403795
202	0x3cd03b62	0.025418941
203	0x3d20caa2	0.039255746
204	0xbc2546b7	-0.0100876605
205	0x3c707813	0.014677065
206	0xbc965e6f	-0.018355576
207	0x3d872f76	0.06600849
208	0x3c3964e2	0.011315556
209	0xbd6accf3	-0.05732436
210	0xbc0ab626	-0.008466279
211	0x3d9c0adb	0.07619258
212	0xbc917708	-0.017756954
213	0xbc6d3785	-0.014478569
214	0x3c16ef7b	0.00921237
215	0xbd0dc033	-0.034607124
216	0x3d93665c	0.07197258
217	0xbd962634	-0.073315054
218	0x3c4767f6	0.012170782
219	0xbc42505b	-0.011859979
220	0x3d99ba1a	0.07506199
221	0xbd13aef4	-0.03605552
222	0xbc8bf7b9	-0.017085897
223	0xbd310bb2	-0.043224044
224	0xbdc41607	-0.09574514
225	0xbba6c360	-0.0050892085
226	0x3d480484	0.04883243
227	0x3dbaa531	0.09113539
228	0x3d4ef8f3	0.050530385
229	0x3dce7960	0.10081744
230	0x3d44b51b	0.048024278
231	0x3d022921	0.031777505
232	0xbb97ae25	-0.004628914
233	0x3d86bed3	0.065793656
234	0x3c81236f	0.015763966
235	0xbd714b1f	-0.05890953
236	0x3c96830d	0.018373037
237	0xbb869288	-0.0041068234
238	0xbd9a9332	-0.075476065
239	0xbdc97025	-0.09835843
240	0xbb6bf245	-0.0036002558
241	0xbc2f01cb	-0.01068158
242	0xbbc6c161	-0.006065533
243	0x384c3b68	4.8692717e-05
244	0xbd07ea5e	-0.033182494
245	0xbdd6054c	-0.10450229
246	0x3d90562d	0.07047687
247	0x3ca001af	0.019532053
248	0xbd6237ef	-0.055229124
249	0x3d354465	0.04425468
250	0x3aa4a993	0.0012562744
251	0x3d073d82	0.033017643
252	0xbd34a74a	-0.04410485
253	0xbccf6d0a	-0.025320549
254	0x3d055c34	0.032558635
255	0x3d12cebd	0.035841692

conv3.bias f4 [48]
0	0x3974b110	0.00023335614
1	0xba4561b0	-0.000752951
2	0xb7b546c3	-2.1609832e-05
3	0x3a2b5280	0.0006535426
4	0x39c4c48d	0.00037530475
5	0xb969f0b0	-0.00022310275
6	0x3943db3e	0.00018678323
7	0x39fd9a7b	0.00048371017
8	0xb929c6fb	-0.00016191222
9	0xba05e768	-0.00051080296
10	0xb8f6c2cf	-0.0001176648
11	0x38ef8762	0.00011421625
12	0x39175338	0.00014431484
13	0x38e6c46f	0.00011003843
14	0x392b10c3	0.00016314075
15	0xb9bd94aa	-0.00036159653
16	0x38e73ea9	0.0001102661
17	0x3a3771f9	0.0006997879
18	0xb89ab713	-7.3773925e-05
19	0x3a0e698f	0.00054325996
20	0xba1d39bd	-0.00059976784
21	0xb95b9126	-0.0002093954
22	0xba051772	-0.0005077041
23	0x38dc2da0	0.00010498916
24	0x392518ce	0.00015744867
25	0x3a5e64c7	0.0008483645
26	0x39b861f0	0.00035168184
27	0x37c3afc5	2.332766e-05
28	0x3987b46d	0.00025883634
29	0x38a3b5e2	7.806324e-05
30	0x36cd0982	6.110583e-06
31	0x3972ec6e	0.00023166995
32	0x3a125a02	0.000558287
33	0xba5b5724	-0.0008367172
34	0xba79532f	-0.00095109915
35	0xba6e82cd	-0.00090984703
36	0xb9ce4348	-0.0003934151
37	0x396a5c12	0.00022350278
38	0x3a221420	0.00061828084
39	0xb9bdc163	-0.00036192973
40	0xb9cb2558	-0.00038747
41	0xba75bb85	-0.0009373951
42	0xb74b0aad	-1.21022285e-05
43	0x3982cf1a	0.00024949835
44	0xba333594	-0.0006836292
45	0xb9952490	-0.00028446736
46	0x38b1601d	8.45792e-05
47	0xba3030df	-0.00067211495

conv4.weight f4 [64, 48, 3, 3]
0	0x3d39693f	0.045266386
1	0xbd8b88aa	-0.06813176
2	0xbbb6a51c	-0.005573882
3	0x3d0e22c6	0.03470113
4	0xbc345ded	-0.011008722
5	0x3c59b0d7	0.013286791
6	0xbc94f605	-0.018183718
7	0x3d4e566e	0.050375395
8	0xbd6b578f	-0.05745655
9	0x3c109683	0.008824947
10	0xbcd23046	-0.025657784
11	0x3cd686e1	0.026187362
12	0x3bb03790	0.0053777173
13	0x3d443d0d	0.047909785
14	0xbd21790b	-0.039422076
15	0x3dc9775a	0.09837218
16	0x3d3ee9db	0.04660974
17	0x3d8e4704	0.06947139
18	0xbb33fa2a	-0.0027462342
19	0xbbf4079e	-0.007447197
20	0xbcc6517d	-0.024208779
21	0x3c935af9	0.017987715
22	0x3d09ba83	0.033625137
23	0x3d36c9a9	0.04462591
24	0xbccb9f64	-0.024856277
25	0xbc151684	-0.009099606
26	0xbd0c922e	-0.034319095
27	0x3ca66296	0.020310681
28	0xbd5f44a8	-0.054508835
29	0x3b991e91	0.0046728333
30	0x3c322b83	0.010874632
31	0xbba7108d	-0.0050984086
32	0xbd77c694	-0.060492113
33	0xbbcbd55b	-0.0062205023
34	0x3d5818e2	0.052758105
35	0x3c2e72d3	0.010647493
36	0x3c0486d5	0.008088787
37	0x3bd5e09d	0.00652702
38	0xbd24a40f	-0.04019552
39	0xbb325d87	-0.0027216391
40	0xbc9a0523	-0.018801278
41	0x3ab4f6c0	0.0013806447
42	0x3d00208b	0.031281035
43	0xbc0d99ef	-0.008642658
44	0xbc61331d	-0.0137450965
45	0x3c14f032	0.00909047
46	0x3a9b0f76	0.0011830169
47	0xbcdc118f	-0.026863841
48	0x3c0c0030	0.008544967
49	0x3d8663a9	0.065619774
50	0xba11e27a	-0.00055650587
51	0x3d0c9e54	0.03433068
52	0x3d638768	0.055549055
53	0x3d24a4ec	0.040196344
54	0xbc735468	-0.014851667
55	0xbcdaf018	-0.026725814
56	0xbd2007d1	-0.039069954
57	0x3d839a5f	0.06425928
58	0x3c31550b	0.0108234985
59	0x3d346e28	0.044050366
60	0x3d9e6214	0.07733551
61	0x3d23ebfb	0.04001997
62	0xbcc729f5	-0.024311999
63	0x3d0c0198	0.034181207
64	0x3d42e69d	0.04758321
65	0xbcce0209	-0.025147455
66	0xbd18a86d	-0.03727
67	0xbd4c3751	-0.04985744
68	0x3cb91b46	0.022596013
69	0x3dee1485	0.116250075
70	0x3cf27089	0.029594677
71	0x3c23753b	0.00997668
72	0x3d0d0bea	0.03443519
73	0x3d3ff9c1	0.046869043
74	0x3d315da6	0.0433022
75	0xbc7371c7	-0.01485867
76	0x3cd5aea4	0.026084252
77	0x3d38faa1	0.045160893
78	0xbcb9f269	-0.022698598
79	0xbbebd426	-0.007196921
80	0x3c03afa5	0.008037482
81	0xbc4353dd	-0.01192185
82	0xbd5107f7	-0.051032986
83	0xbd7a7f02	-0.06115628
84	0x3d482a19	0.048868272
85	0xbc841017	-0.016120953
86	0xbd10823e	-0.03528046
87	0x3d42773c	0.047476992
88	0x3d254dd3	0.040357422
89	0x3ce19b87	0.027539982
90	0x3cce3db3	0.025175905
91	0x3d048ea5	0.0323626
92	0x3bd49d2d	0.0064884634
93	0xbbbdb782	-0.005789698
94	0xbc9d30d7	-0.019188328
95	0x3d6a25dd	0.057165015
96	0x3d3b1a6d	0.0456795
97	0x3d6d8a6a	0.05799333
98	0x3d7b305e	0.061325423
99	0x3c0ec9db	0.008715118
100	0x3c94f3a8	0.01818259
101	0x3da8f6de	0.08250211
102	0x3b8150cd	0.0039464
103	0xbcc11c80	-0.02357316
104	0xbd94c173	-0.0726346
105	0xbc2827a8	-0.010263361
106	0x3d2b52f8	0.041827172
107	0xbc6071f7	-0.013699046
108	0x3c559062	0.013034912
109	0x3c4662d4	0.012108523
110	0xbd3a1197	-0.04542693
111	0xbc7b8f68	-0.015354015
112	0x3caed880	0.02134347
113	0x3d5e509d	0.054276098
114	0xbd088777	-0.033332314
115	0xbdae53d8	-0.08512086
116	0xbdeb4c8d	-0.1148921
117	0x3d345276	0.044023953
118	0x3ae079c9	0.0017126139
119	0x3d830020	0.06396508
120	0xbd03290f	-0.03202158
121	0x3d096ee0	0.033553004
122	0x3d2834ed	0.0410661
123	0xbd9e57ab	-0.07731565
124	0x391060a9	0.00013768919
125	0xbca7c2a7	-0.02047856
126	0x3d978600	0.07398605
127	0xbae6a332	-0.0017596243
128	0xbd8e2458	-0.06940526
129	0xbd0d61a9	-0.034516964
130	0x3c93fbc4	0.018064387
131	0xbb6c3597	-0.0036042684
132	0xbd63af8f	-0.055587348
133	0x3d7894af	0.06068867
134	0xbc6cbb1c	-0.014448907
135	0x3d29a81c	0.041420087
136	0x3d1731e6	0.03691282
137	0x3c63b4c5	0.013898079
138	0x3bd3e80b	0.0064668707
139	0x3d1618f5	0.036644895
140	0xbc5b1e4e	-0.013373924
141	0x3d8c6de2	0.06856896
142	0x3d71a075	0.058990914
143	0x3cd1a7bc	0.025592677
144	0xbc023956	-0.00794824
145	0xbd095fba	-0.033538558
146	0xbd03b5a2	-0.03215564
147	0xbd2db266	-0.042406462
148	0xbc541519	-0.012944483
149	0x3d27f2f6	0.04100319
150	0xbd02df61	-0.031951312
151	0xbd61ecec	-0.055157587
152	0xbdfebff6	-0.124389574
153	0xbce0e7f4	-0.027454354
154	0x3d7db9d3	0.061944794
155	0x3dac4e82	0.08413412
156	0xbc3f86f1	-0.011689887
157	0x3cbb7c79	0.022886502
158	0x3b77a529	0.0037787652
159	0x3d0b9515	0.034077723
160	0x3c2a5241	0.010395587
161	0xbc639873	-0.013891327
162	0x3d13716f	0.03599685
163	0x3d062a86	0.032755397
164	0xbd119345	-0.035540838
165	0x3c84161c	0.016123824
166	0xbcfeebd9	-0.03111832
167	0xbd129d50	-0.035794556
168	0xbc2524bd	-0.01007956
169	0x3d577b3c	0.05260776
170	0xbb7c4a43	-0.0038496412
171	0x3c33d0f6	0.010975113
172	0xbd7d125a	-0.06178508
173	0xbdc29647	-0.095013194
174	0xbc548ccf	-0.0129730245
175	0x3c9e23bf	0.019304154
176	0x3d559248	0.052141458
177	0xbd68c74b	-0.056830686
178	0x3cae354f	0.021265654
179	0x3d5fdc10	0.054653227
180	0xbd19ea14	-0.03757675
181	0xbd09d778	-0.033652753
182	0xbca457bb	-0.020061364
183	0x3d2ad44f	0.04170638
184	0xbacc888b	-0.0015604658
185	0x3d9222ec	0.07135567
186	0xbdd99571	-0.10624207
187	0xbd74b463	-0.059742343
188	0xbd2b10c7	-0.041764047
189	0x3d645d3c	0.055752978
190	0x3d921870	0.07133567
191	0x3d19f738	0.03758928
192	0x3c101433	0.008793878
193	0xbc5109c9	-0.012758681
194	0xbd3ad78f	-0.04561573
195	0xbd76f0a2	-0.06028808
196	0xbc8ad99a	-0.016949464
197	0x3bc85d0f	0.006114609
198	0x3c964978	0.01834558
199	0xbb6af933	-0.00358541
200	0xbcd60c12	-0.026128802
201	0x3d016e85	0.03159954
202	0x3d99bbe1	0.07506538
203	0x3ccefb9d	0.025266463
204	0x3d05233a	0.032504298
205	0xbb82284a	-0.003972088
206	0x3d7d2dd3	0.06181128
207	0x3b007f2e	0.0019607055
208	0xbc05f2eb	-0.008175592
209	0x3c9e7ce0	0.019346654
210	0x3d3a08be	0.045418493
211	0xbba90d62	-0.005159066
212	0xbd70b2d1	-0.058764283
213	0x3d6e0eca	0.058119573
214	0x3d5d73bd	0.054065455
215	0x3c86e75b	0.01646774
216	0x3c12217e	0.008919118
217	0xbd6bc259	-0.05755839
218	0xbcf2af0e	-0.029624488
219	0xbdba0b9c	-0.090842456
220	0xbd9a62a9	-0.07538349
221	0x3cd0a476	0.025469046
222	0xbc457575	-0.01205193
223	0xbd370542	-0.04468275
224	0xbcb699f4	-0.022290207
225	0xbcdfdb97	-0.027326388
226	0xbd325204	-0.043535247
227	0x3cf8a547	0.030352248
228	0x3d7394bd	0.05946802
229	0x3df15aea	0.117849186
230	0x3d681d7d	0.056668747
231	0xbbbcf34a	-0.005766307
232	0xbcb9d40b	-0.022684118
233	0xbc2ea4a1	-0.010659368
234	0x3ca73cfb	0.02041482
235	0xbd84742f	-0.06467473
236	0xbc00f7cf	-0.007871582
237	0x3d9ee346	0.07758193
238	0x3d9af591	0.07566369
239	0xbd47efb0	-0.04881257
240	0xbc9c0110	-0.019043475
241	0x3a036bd9	0.0005013324
242	0x3d51f18d	0.05125575
243	0xbc701a82	-0.014654757
244	0xbc029935	-0.007971098
245	0xbcea79c7	-0.028622521
246	0x3d9a048e	0.075204
247	0x3b2f02c9	0.002670454
248	0xbc99584e	-0.018718865
249	0x3d2822a5	0.041048665
250	0x3cc3987d	0.023876423
251	0xba079a45	-0.0005172829
252	0xbd113d39	-0.035458777
253	0xbd10013f	-0.03515744
254	0xbc08c604	-0.008347992
255	0xbcaa3bac	-0.020780407

conv4.bias f4 [64]
0	0x395ae835	0.00020876604
1	0xb6caad17	-6.0402194e-06
2	0x39231ba2	0.00015555185
3	0xb97be855	-0.00024023776
4	0x38f3f3fe	0.0001163259
5	0x37c0fd4d	2.3006136e-05
6	0x39996825	0.00029260028
7	0x39e0f20c	0.00042904948
8	0xb988f1a4	-0.00026119978
9	0xb37f4ebb	-5.944342e-08
10	0xb9bca8e6	-0.00035983993
11	0xb7c250a7	-2.3164159e-05
12	0x39713e0b	0.00023006664
13	0xb825dbf6	-3.954392e-05
14	0xb98a65d0	-0.00026397267
15	0xb9a894f3	-0.00032154433
16	0xb7cc7434	-2.4372806e-05
17	0xb981d09a	-0.00024760218
18	0xb9d234ca	-0.00040093652
19	0x3877baee	5.906348e-05
20	0x39684581	0.00022151136
21	0xb8f94d54	-0.00011887649
22	0xb85f2e2d	-5.3210348e-05
23	0xb9914f7d	-0.0002771578
24	0x3942abf7	0.00018565344
25	0xb9903306	-0.00027503836
26	0x37fae959	2.9910983e-05
27	0xb91ae434	-0.00014771597
28	0xb9079ce9	-0.00012933057
29	0x37e2f8a9	2.705709e-05
30	0xb96b79c6	-0.0002245671
31	0xb7c518c3	-2.349576e-05
32	0x38dc5d83	0.000105078354
33	0x393a845b	0.00017787649
34	0x39d279be	0.00040145026
35	0x36f7a28d	7.380097e-06
36	0x3876b035	5.8815076e-05
37	0x3704ab68	7.907722e-06
38	0xb9a28c35	-0.0003100351
39	0x3896e319	7.1948576e-05
40	0x393816c7	0.00017556093
41	0xb89d8f2d	-7.513012e-05
42	0x39646c82	0.00021784197
43	0x39000aca	0.0001221105
44	0xb92c03bb	-0.00016404588
45	0x39b5cd1e	0.00034675834
46	0x38e9936e	0.00011137767
47	0xb8506d02	-4.9692586e-05
48	0x3983e732	0.0002515852
49	0xb7958a1c	-1.7826496e-05
50	0x38cb1c35	9.685048e-05
51	0x399c447d	0.00029805666
52	0x39a1346a	0.00030747365
53	0xb9189e14	-0.00014554738
54	0xb9bafb23	-0.00035663796
55	0xb94c19ea	-0.0001946461
56	0xb923fb36	-0.00015638475
57	0x38636bf2	5.422155e-05
58	0xb9893347	-0.0002616888
59	0x393f6853	0.00018254043
60	0xb9501a6c	-0.00019846269
61	0xb9c87c98	-0.00038239802
62	0xb8ef4a3d	-0.00011410236
63	0x38e6933a	0.00010994678

conv5.weight f4 [80, 64, 3, 3]
0	0x3c35f702	0.0111062545
1	0xbadf23c3	-0.0017024208
2	0x3d0c6963	0.034280192
3	0xbc2b92d3	-0.010472017
4	0xbd29caa2	-0.04145301
5	0xbbea179c	-0.0071439277
6	0xbc311957	-0.010809264
7	0xbc44868f	-0.011994972
8	0x3bcac9b4	0.0061885957
9	0x3ce1cc9e	0.02756339
10	0x3d0333f8	0.032031983
11	0xbcc2c087	-0.023773445
12	0xbd69b6d0	-0.05705911
13	0xbd931223	-0.07181194
14	0xbcd72719	-0.02626376
15	0x3d2e2bf2	0.04252238
16	0xbd3937b1	-0.045219127
17	0xbd8b5eb3	-0.06805172
18	0xbcfaae9f	-0.030600844
19	0x3cc358be	0.023846027
20	0x3c627f47	0.013824291
21	0xbcca6199	-0.024704741
22	0x3cfca599	0.030840682
23	0x3c20c795	0.009813209
24	0xbd75cb13	-0.06000812
25	0xbce35bcf	-0.027753739
26	0xbd956118	-0.0729391
27	0xbce65706	-0.028117668
28	0xbaef1960	-0.0018241815
29	0x3c45f61e	0.012082605
30	0xbcad0bc5	-0.021123776
31	0x3cf13501	0.02944422
32	0x3d88a528	0.06672126
33	0x3ccd456e	0.02505752
34	0x3cb413fe	0.02198219
35	0x3d50199f	0.050805684
36	0xbd711f02	-0.058867462
37	0xbd6a3c1f	-0.057186242
38	0xbdfbd6b6	-0.12296812
39	0x3cbc7846	0.02300657
40	0xbc0b91f3	-0.008518684
41	0x3cd7c6d9	0.026339935
42	0x3bbce008	0.0057640113
43	0x3d6591ca	0.05604724
44	0x3d4d10c4	0.050064817
45	0x3cdb338d	0.02675798
46	0xbc7f3d1f	-0.015578537
47	0x3c73cbe6	0.014880156
48	0x3a00fc74	0.0004920431
49	0xbcd3054c	-0.025759362
50	0x3bd05168	0.0063573606
51	0x3d24a47b	0.040195923
52	0x3cd3037a	0.025758494
53	0x3d972df5	0.073818125
54	0xbcdde24b	-0.027085444
55	0xbd0db45d	-0.034595836
56	0x3caa4616	0.020785373
57	0xbd224fda	-0.039626934
58	0xbd1e5fb2	-0.03866548
59	0xbd891e60	-0.06695247
60	0x3d1978d7	0.037468757
61	0x3c800041	0.015625121
62	0x3d7dcc0f	0.061962184
63	0x3c92c747	0.017917288
64	0xbd151e71	-0.036405984
65	0xbd426bd2	-0.047466107
66	0xbd2b6c95	-0.0418516
67	0xbbc1f072	-0.005918556
68	0xbc23b95c	-0.009992924
69	0xbb07a7a8	-0.0020699296
70	0xbc8d92d2	-0.017281923
71	0xbcb1387d	-0.021633381
72	0x3c25dd01	0.010123492
73	0x3b44b564	0.0030015344
74	0x3c4d283d	0.012521801
75	0xbd0b9789	-0.034080062
76	0xbcf89f21	-0.030349316
77	0x3d1d9242	0.03846956
78	0x3ceec3f5	0.029146174
79	0x3d06b72d	0.032889534
80	0x3d30e77a	0.043189503
81	0xbc2088d7	-0.00979825
82	0xbd3e041f	-0.04639065
83	0xbd62fd53	-0.05541737
84	0x3d25bb9d	0.040462125
85	0x3cd67f84	0.026183851
86	0x3d1e0eb3	0.038588237
87	0xbc19467a	-0.009355182
88	0xbd2043e7	-0.039127257
89	0x3d2fe588	0.042943507
90	0x3ba67312	0.0050796354
91	0x3cf9d15e	0.030495342
92	0x3cb6e581	0.022326233
93	0xbcd6a7b6	-0.026203018
94	0x3c076258	0.008263193
95	0xbcb244cb	-0.021761319
96	0xbcfdfebb	-0.031005254
97	0xbd176b29	-0.03696743
98	0xbc2eb030	-0.010662124
99	0xbb135049	-0.0022478274
100	0xbda460ec	-0.08026299
101	0xbceaa705	-0.028644094
102	0xbb8b8191	-0.004257389
103	0xbcf7727a	-0.030205954
104	0x3d7cc8a5	0.061714787
105	0x3bd06d54	0.006360689
106	0x3d3c069a	0.045904733
107	0xbbdffb6f	-0.006835393
108	0xbda6dcd5	-0.08147589
109	0xbd1dfa2b	-0.038568657
110	0xbcd685a8	-0.02618678
111	0xbd681529	-0.056660805
112	0xbd164c08	-0.036693603
113	0xbd515115	-0.051102716
114	0xbc81d0f4	-0.015846707
115	0xbbd82365	-0.006596016
116	0x3d1e14e3	0.038594138
117	0xbda1393e	-0.07872246
118	0xbcb495eb	-0.022044143
119	0xbd8b8e9a	-0.068143085
120	0x3ccb7f98	0.024841115
121	0xbd0c429f	-0.034243222
122	0x3c157737	0.009122661
123	0x3c589312	0.013218658
124	0xbd3fec28	-0.046856076
125	0xbce9cf3b	-0.028541198
126	0x3ca70741	0.020389201
127	0x3c76833b	0.015045936
128	0x3c0e74f9	0.008694881
129	0x3d399724	0.045310155
130	0xbc95c814	-0.018283881
131	0x3b80bcc8	0.0039287545
132	0xbc44fa2e	-0.012022538
133	0x3c05fc29	0.008177795
134	0x3badb5e7	0.0053012255
135	0xbd60cfc0	-0.054885626
136	0xbce2824b	-0.02765002
137	0xbcb423b0	-0.021989673
138	0x3c3106fe	0.01080489
139	0x3ab8de4b	0.0014104334
140	0xbcccec5d	-0.02501505
141	0xbce089f2	-0.027409527
142	0xbd93341a	-0.07187672
143	0xbc792b98	-0.0152081475
144	0xbc6d8458	-0.014496885
145	0xbca43d86	-0.020048868
146	0x3d06d43b	0.032917242
147	0x3c00f8e6	0.007871842
148	0xbd2d1dd1	-0.042264763
149	0xbd6818ee	-0.0566644
150	0x3c29b778	0.010358684
151	0xbba22f7b	-0.004949508
152	0xbd73fc31	-0.05956668
153	0x3d8b6a14	0.06807342
154	0x3d188014	0.03723152
155	0xbc9bb0f3	-0.019005274
156	0x3d763173	0.060105752
157	0x3d516a85	0.051126976
158	0x3d4f7244	0.05064608
159	0x3be7dccc	0.0070758816
160	0xbc5ff30e	-0.013668789
161	0xbc4eefae	-0.012630386
162	0xbcadad37	-0.02120076
163	0xbcfbd7f6	-0.030742627
164	0xbdae5360	-0.08511996
165	0x3c609d9e	0.013709454
166	0xbc73e298	-0.014885567
167	0x3b240f8b	0.0025033678
168	0xbc61b245	-0.013775413
169	0xbc957fd0	-0.018249422
170	0x3d1b20c7	0.037873056
171	0x3c922f02	0.01784468
172	0x3d30ff96	0.043212496
173	0xbb9e1d69	-0.0048252833
174	0xbc4ec9a9	-0.012621322
175	0xbcc9e720	-0.024646342
176	0x3c70f98f	0.014707937
177	0xbc3cddc8	-0.011527486
178	0xbd2c937b	-0.042132836
179	0xbc08feae	-0.008361502
180	0x3b9f9173	0.004869634
181	0xbc70efb3	-0.014705586
182	0x3cc8204c	0.024429463
183	0x3cb315c1	0.021860959
184	0x3cf1dcb9	0.029524194
185	0xbce77ce4	-0.028257795
186	0x3cba3538	0.022730455
187	0xbca5515a	-0.020180393
188	0xbd308306	-0.043093704
189	0xbd55c8c4	-0.05219342
190	0xbd47562b	-0.04866616
191	0xbd1c78f8	-0.038201302
192	0xbd6cc831	-0.057808105
193	0xbd5760dd	-0.05258261
194	0xbd71eb2b	-0.059062164
195	0xbd1fa332	-0.038973995
196	0x3c82c26e	0.015961852
197	0x3d0d3796	0.03447684
198	0xbca46a94	-0.020070352
199	0xbda073e3	-0.07834604
200	0xbbdf9a98	-0.006823849
201	0x3b706fa4	0.0036687637
202	0xbb2a1882	-0.002595455
203	0x3d2006dc	0.03906904
204	0xbd81a6e0	-0.06330657
205	0x3a8f728b	0.0010944171
206	0xbca86466	-0.020555686
207	0x3cb6a19f	0.022293864
208	0xbd1fb968	-0.038995177
209	0xbcc5cb5c	-0.02414482
210	0x3c83d23e	0.016091462
211	0x3c416f76	0.0118063595
212	0x3c85688e	0.016285207
213	0xbd5b9241	-0.053606275
214	0xbd2c94a0	-0.042133927
215	0xbcc773e4	-0.024347253
216	0x3bcd8941	0.0062724655
217	0x3d0b5d0e	0.03402429
218	0xbc1976c4	-0.009366695
219	0x3c822ec2	0.015891436
220	0x3d3aaec6	0.045576833
221	0x3d72a956	0.059243523
222	0x3c2bd298	0.010487221
223	0xbc0dc3d0	-0.008652642
224	0x3c84e1ed	0.016221011
225	0xbd14e177	-0.036347833
226	0x3ccd4954	0.02505938
227	0xbd670590	-0.05640179
228	0x3b3cae3b	0.0028790373
229	0xbd2fe94c	-0.0429471
230	0x3d341272	0.043962903
231	0xbd28b4f2	-0.041188188
232	0x3c6a01a5	0.014282619
233	0x3d4e640e	0.05038839
234	0xbd49cf8b	-0.049270194
235	0xbd42c1ef	-0.04754823
236	0xbdb054f3	-0.08609953
237	0x3c3b16e1	0.011419029
238	0x3d1e0df3	0.03858752
239	0x3d5e4b13	0.054270815
240	0xbc4c09d0	-0.012453511
241	0xbd27df55	-0.04098447
242	0xbd0dc3ac	-0.034610435
243	0x3bd304d6	0.0064397855
244	0xbbef6d0c	-0.0073067006
245	0x3b763e7b	0.0037573862
246	0x3ca43d5f	0.020048795
247	0x3d8c42b5	0.06848661
248	0x3d0ba4fc	0.03409289
249	0x3cea650c	0.028612636
250	0xbcd731c8	-0.026268855
251	0x3c686f00	0.014186621
252	0xbbafd754	-0.0053662453
253	0xbcbacf50	-0.022803932
254	0xbb7f6a6b	-0.0038973342
255	0x3bd44fcd	0.0064792396

conv5.bias f4 [80]
0	0x3948295f	0.00019088898
1	0xb84255ee	-4.6333233e-05
2	0x38cf499e	9.8842414e-05
3	0x391a63e8	0.00014723802
4	0x3859558d	5.1816507e-05
5	0x38f4d06d	0.00011673649
6	0xb99f3b05	-0.00030370816
7	0x37550442	1.2696781e-05
8	0x393c60a9	0.00017965086
9	0x37e6e841	2.7526288e-05
10	0x38968ad1	7.178414e-05
11	0x386e0f69	5.6757974e-05
12	0xb90963d4	-0.00013102527
13	0x387efbd4	6.0792852e-05
14	0x394b08aa	0.00019362816
15	0xb8b6a9e3	-8.71008e-05
16	0xb848a9ce	-4.784186e-05
17	0x3848ff79	4.7921643e-05
18	0x38bd07c5	9.0136695e-05
19	0x38890fee	6.535636e-05
20	0x3941c0fa	0.00018477804
21	0xb9081837	-0.00012978991
22	0xb82a5e92	-4.0619234e-05
23	0x37492df8	1.19912365e-05
24	0xb81b118b	-3.6971218e-05
25	0x39feece2	0.00048623147
26	0x39a28b1c	0.00031002692
27	0x39586a72	0.00020639019
28	0x39939c06	0.0002815427
29	0xb8f6505a	-0.00011745161
30	0x37eada51	2.7996635e-05
31	0xb88f7c22	-6.841893e-05
32	0xb8a3d564	-7.812193e-05
33	0xb909b77e	-0.00013133694
34	0x3944ca8f	0.00018767476
35	0x3842ea4c	4.647141e-05
36	0xb73e5d80	-1.1346652e-05
37	0x39707ab8	0.000229339
38	0x394a70ad	0.00019306196
39	0xb8c5595c	-9.4103365e-05
40	0xb91edc22	-0.0001515006
41	0xb9dffd76	-0.00042722718
42	0xb8882040	-6.4909924e-05
43	0xb8ce74f8	-9.8446326e-05
44	0xb75b11c1	-1.3057551e-05
45	0xb807c5eb	-3.2370834e-05
46	0xb8a2f7e3	-7.7709345e-05
47	0x396f3a2e	0.0002281449
48	0x391c62b6	0.00014914092
49	0xb8c702b2	-9.4895615e-05
50	0xb7941418	-1.7652332e-05
51	0x3982efb6	0.0002497413
52	0xb92e00d0	-0.00016594236
53	0x39d40fa9	0.0004044746
54	0xb847b0e5	-4.7610043e-05
55	0x397b7584	0.00023981003
56	0xba098864	-0.0005246459
57	0x3867065d	5.5080618e-05
58	0xb99ef460	-0.00030318182
59	0x38c66f1f	9.462074e-05
60	0x3810d8ae	3.4534074e-05
61	0x398aabf3	0.00026449523
62	0xb90cbcfa	-0.0001342184
63	0xb83a385e	-4.439835e-05
64	0x38906802	6.885828e-05
65	0xb9d21a57	-0.00040073946
66	0xb9943135	-0.00028265422
67	0xb8f952ed	-0.000118886914
68	0xb9d2fbdd	-0.00040241974
69	0x381e60c9	3.7760274e-05
70	0x39d2daf7	0.00040217463
71	0x378ed1af	1.702536e-05
72	0xb8684526	-5.537751e-05
73	0x396892a7	0.00022179876
74	0x368605af	3.994173e-06
75	0x38e319ee	0.00010829033
76	0xb9f80d23	-0.00047312034
77	0x37866ba3	1.6024167e-05
78	0xb9b6e82b	-0.00034886724
79	0x380a4d08	3.2973505e-05

bn1a.weight f4 [16]
0	0x3f7ac1c8	0.97951937
1	0x3f884759	1.0646774
2	0x3f7d88c0	0.9903679
3	0x3f7f1c3a	0.99652445
4	0x3f8c823c	1.0977244
5	0x3f7f3298	0.99686575
6	0x3f82932e	1.0201166
7	0x3f75fb6b	0.9608676
8	0x3f86b281	1.0523225
9	0x3f745083	0.9543535
10	0x3f858737	1.0431889
11	0x3f84dc68	1.0379763
12	0x3f842f56	1.0326946
13	0x3f6d475b	0.92687005
14	0x3f66e878	0.9019847
15	0x3f6a576b	0.9153964

bn1a.bias f4 [16]
0	0x3ca2f9a0	0.019894421
1	0x3d80d59c	0.06290743
2	0xbd4be63b	-0.04978011
3	0xbc868b2c	-0.016423784
4	0xbd797118	-0.06089887
5	0x3c7dd781	0.015493275
6	0x3de80fc7	0.11331134
7	0xbd078f01	-0.033095364
8	0x3da89bbc	0.08232829
9	0xbd88a037	-0.066711836
10	0xbcbd860f	-0.023135213
11	0x3d35fd80	0.04443121
12	0xbc90936d	-0.017648423
13	0x3d86ae8d	0.06576262
14	0x3c74b30d	0.014935267
15	0xbd56d26f	-0.05244678

bn1a.running_mean f4 [16]
0	0x3fcbc1f6	1.5918567
1	0xc06dff05	-3.7186902
2	0xc109b19f	-8.605865
3	0xc09cef80	-4.904236
4	0xc035273d	-2.83052
5	0x40105ba1	2.2555926
6	0x3f76c9fb	0.9640195
7	0xc0a6a350	-5.2074356
8	0xbfe757d8	-1.8073683
9	0x4046e488	3.1076984
10	0xc0e1d7d6	-7.057597
11	0xc0f11436	-7.533717
12	0xc0884174	-4.25799
13	0x4112e7f4	9.181629
14	0xc0cedbab	-6.464315
15	0x3f4f880a	0.81066954

bn1a.running_var f4 [16]
0	0x44e071b9	1795.5538
1	0x43eb9c7a	471.22247
2	0x44613de3	900.967
3	0x44aa0ca5	1360.3951
4	0x44477280	797.78906
5	0x43c460e2	392.7569
6	0x4491cd8a	1166.4231
7	0x4533a739	2874.4514
8	0x4377b842	247.71976
9	0x446deb44	951.676
10	0x445b756b	877.83466
11	0x44378dab	734.21356
12	0x44183e60	608.9746
13	0x45182940	2434.5781
14	0x44aad6b3	1366.7094
15	0x442ddb2d	695.4246

bn1b.weight f4 [16]
0	0x3f6e65ab	0.93123883
1	0x3f838c58	1.0277205
2	0x3f8deadf	1.1087302
3	0x3f7ae613	0.98007315
4	0x3f71a277	0.94388527
5	0x3f83cb3f	1.0296401
6	0x3f835d21	1.0262796
7	0x3f673a84	0.9032366
8	0x3f76013c	0.96095634
9	0x3f891051	1.0708104
10	0x3f7ed3f4	0.99542165
11	0x3f91bc12	1.138552
12	0x3f839b53	1.0281776
13	0x3f75f381	0.9607468
14	0x3f853b07	1.0408639
15	0x3f82e248	1.0225306
