pc端哭声检测/GLAM-main/GLAM-main/lyh/liuyanhao/data/model_CNN_Area_mfcc.pth (torch, 619297 bytes, 38 tensors)

conv1a.weight f4 [16, 1, 10, 2]
0	0xbe02a806	-0.12759408
1	0x3cbd9762	0.023143474
2	0xbb801d19	-0.0039097187
3	0xbdcc3918	-0.09971827
4	0x3e4c739a	0.19965973
5	0x3e07d5bb	0.13265125
6	0xbe4e9ba4	-0.2017656
7	0xbe20533c	-0.15656751
8	0x3df4d2ff	0.11954307
9	0xbdec2b4c	-0.11531696
10	0xbe3a68ea	-0.18204084
11	0x3df84e8e	0.12124358
12	0xbe87d5ce	-0.26530308
13	0xbe90bc6e	-0.2826876
14	0xbe2fec8d	-0.1718008
15	0x3e23798e	0.15964338
16	0x3d638795	0.055549223
17	0x3dbd1ce1	0.09234024
18	0xbd1f6863	-0.03891791
19	0x3c176220	0.009239703
20	0xbe2cb8e0	-0.16867399
21	0x3de495d8	0.11161393
22	0x3c5d1aee	0.01349519
23	0xbd79f7d4	-0.061027363
24	0x3d6cfbb6	0.057857238
25	0x3d4bb091	0.049728934
26	0x3e3a48f7	0.18191896
27	0xbcc2d5aa	-0.023783524
28	0xbcc03906	-0.02346469
29	0xbdcc3fd4	-0.09973112
30	0xbea77da5	-0.32713047
31	0xbea741c8	-0.32667375
32	0x3c634d16	0.013873359
33	0x3e66980c	0.22518939
34	0x3ca517d9	0.020152973
35	0x3e1873d8	0.14887941
36	0xbdc3e1c5	-0.095645465
37	0xbe81ad1b	-0.25327381
38	0xbe43b41c	-0.19111675
39	0xbe286970	-0.16446471
40	0x3dcc8b63	0.099875234
41	0x3de0db7e	0.10979365
42	0x3dc9f3b2	0.09860934
43	0x3d9f37a0	0.077742815
44	0x3daa8407	0.083259635
45	0x3d2f8477	0.042850938
46	0x3bb6f343	0.0055831983
47	0xbe4845ab	-0.19557826
48	0x3d52a49b	0.05142651
49	0x3d9e5605	0.07731251
50	0xbd74cb25	-0.059764046
51	0x3e23a01c	0.15979046
52	0x3decaac2	0.11556007
53	0xbe87b956	-0.26508588
54	0x3c87e524	0.016588755
55	0x3da11cca	0.07866819
56	0xbc8a8778	-0.0169103
57	0x3d2e0093	0.042481016
58	0xbdcc4cfa	-0.099756196
59	0xbda2eb4b	-0.07955035
60	0xbc42ccf0	-0.011889681
61	0xbe1c1574	-0.15242559
62	0xbd1a0c25	-0.03760924
63	0x3e7ea1e9	0.24866451
64	0xbe01bb75	-0.12669165
65	0x3c80623c	0.015671842
66	0x3e00ade4	0.12566334
67	0x3e7d437c	0.24732774
68	0xbe6123b0	-0.2198627
69	0x3e2eb9b5	0.17063029
70	0xbe1f2cea	-0.15544477
71	0xbe41b4e8	-0.18916667
72	0xbcce3a2f	-0.025174228
73	0xbdbdd0d5	-0.09268347
74	0x3dc67d44	0.09691861
75	0xbe39e149	-0.18152346
76	0xbe03880d	-0.12844868
77	0x3deb618b	0.11493214
78	0x3de48717	0.11158579
79	0x3e32ef9c	0.17474216
80	0xbe191326	-0.14948711
81	0x3e18bc38	0.1491555
82	0xbd862f87	-0.06552034
83	0x3e5dd64c	0.21663779
84	0x3e319462	0.1734176
85	0x3d807d69	0.0627392
86	0xbd13c525	-0.036076684
87	0x3ca16132	0.019699667
88	0x3d02bf7b	0.03192089
89	0xbe334d7b	-0.17510025
90	0x3e30933b	0.17243664
91	0xbda2c5f9	-0.079479165
92	0x3d22574e	0.03963404
93	0x3da692bd	0.08133457
94	0x3e7266cf	0.23672031
95	0x3dbc19be	0.091845974
96	0xbe403d31	-0.18773343
97	0xbd8e23b0	-0.069404006
98	0x3e59a122	0.21252874
99	0x3e4a79eb	0.1977307
100	0x3d904bee	0.070457324
101	0xbe0f517f	-0.13995932
102	0x3e0c6e46	0.13713941
103	0xbe17df21	-0.1483121
104	0x3e3e3591	0.18575121
105	0xbdfeb5cb	-0.12437018
106	0xbe38d363	-0.18049388
107	0xbc488618	-0.012239002
108	0xbd961347	-0.073278956
109	0xbda9dc27	-0.08293944
110	0x3e7d7533	0.24751739
111	0xbd00c92f	-0.031441864
112	0xbd8c9ad3	-0.06865468
113	0xbd460815	-0.04834755
114	0xbe2983c6	-0.16554174
115	0x3de140c3	0.109986804
116	0x3e2d583a	0.16928187
117	0xbd793215	-0.060838778
118	0xbe6caaa6	-0.23111972
119	0xbe9c47e7	-0.30523607
120	0xbe154082	-0.14575389
121	0x3b6d897b	0.0036245275
122	0xbe09a8eb	-0.13443343
123	0x3b0c106c	0.0021372093
124	0xbe56861b	-0.20949595
125	0x3d105ce8	0.035244852
126	0xbe07e2ec	-0.13270158
127	0x3c08c9ad	0.0083488645
128	0x3e3bfd7f	0.1835842
129	0x3e17c671	0.14821793
130	0xbe5d774c	-0.2162754
131	0xbe91280b	-0.28350863
132	0x3e819762	0.25310808
133	0xbdab9b9e	-0.08379291
134	0x3ddd8495	0.10816304
135	0x3e487b4c	0.19578284
136	0x3d956474	0.072945505
137	0xbe26b2fb	-0.16279213
138	0x3cefa299	0.029252337
139	0xbe3daaa9	-0.18522133
140	0xbe4394e1	-0.19099762
141	0xbde88eed	-0.11355386
142	0xbe27c7e7	-0.1638485
143	0xbd3c8384	-0.04602386
144	0x3e12eb8a	0.14347664
145	0x3d1dab71	0.038493577
146	0xbd993247	-0.07480293
147	0x3def9db5	0.11700002
148	0x3e5ff004	0.21868902
149	0x3e8181d0	0.25294352
150	0x3d6542d1	0.055971924
151	0xbe995373	-0.2994648
152	0xbd9effe9	-0.07763655
153	0x3dcf2988	0.10115343
154	0xbe135043	-0.14386086
155	0xbe6bf2d1	-0.23041846
156	0xbd1b0355	-0.037844975
157	0x3cb23be3	0.021757072
158	0xbe74150b	-0.23836152
159	0xbe5e395a	-0.21701565
160	0xbe229963	-0.15878825
161	0x3ddda97c	0.10823342
162	0x3c186eb3	0.0093037365
163	0x3e25929d	0.1616921
164	0x3e026f38	0.12737739
165	0xbe192630	-0.14955974
166	0x3d44a412	0.048008032
167	0xbe14a760	-0.14516973
168	0x3c869e7d	0.016432995
169	0xbd600fb4	-0.054702476
170	0x3e1ccba3	0.15312056
171	0x3e39cf96	0.18145594
172	0xbe982cb8	-0.29721618
173	0xbda46a80	-0.08028126
174	0x3e7a4958	0.24442041
175	0x3e6c5e90	0.23082948
176	0xbe1d8220	-0.1538167
177	0xbc8c95e0	-0.01716131
178	0x3dfddf56	0.123961136
179	0xbdede00d	-0.11615
180	0x3d92d4eb	0.07169517
181	0xbd8cdf67	-0.06878548
182	0xbe1e2186	-0.15442476
183	0xbe23c7d6	-0.159942
184	0xbdcfcee2	-0.10146882
185	0xbdc9b96a	-0.09849818
186	0x3e41bba0	0.1891923
187	0xbdcfa879	-0.101395555
188	0xbcfd5d25	-0.030928204
189	0x3e28269b	0.16420977
190	0xbe330ee6	-0.17486152
191	0xbe9001cd	-0.28126374
192	0xbd8db2f6	-0.069189
193	0x3e01501c	0.12628216
194	0x3e779c6f	0.24180768
195	0x3de02490	0.10944474
196	0x3db8818b	0.09009083
197	0xbd413957	-0.047173824
198	0xbe90c02c	-0.28271616
199	0xbd5f5178	-0.054521054
200	0x3e11217b	0.14172928
201	0x3e7e1060	0.24810934
202	0xbe5af813	-0.21383695
203	0x3e47a36d	0.19495936
204	0xbe2bebb5	-0.16789134
205	0x3e486599	0.19570006
206	0x3e0729fe	0.13199612
207	0x3e2f5fd4	0.171264
208	0xbd9ce30d	-0.07660494
209	0xbd670d3e	-0.056409113
210	0x3da32429	0.079658814
211	0x3db68fb1	0.08914126
212	0x3e025b29	0.12730087
213	0x3df59646	0.11991553
214	0xbe4be742	-0.19912437
215	0xbca2fd70	-0.019896239
216	0xbdafa430	-0.08576238
217	0x3d717e74	0.058958486
218	0x3e45a070	0.19299483
219	0x3e4d8daa	0.20073572
220	0xbda63261	-0.08115078
221	0x3d1db1e0	0.038499713
222	0xbd186746	-0.037207864
223	0x3db972f0	0.09055126
224	0x3e301b91	0.17198016
225	0x3e053852	0.13009766
226	0x3e53d76c	0.20687646
227	0xbdc09dcf	-0.094050996
228	0x3c858f4f	0.016303686
229	0x3d43b602	0.047780998
230	0x3da38a42	0.07985355
231	0xbe09c92f	-0.13455652
232	0x3e77ad5c	0.24187225
233	0x3db5bfd8	0.08874482
234	0x3e4c5cdd	0.199573
235	0xbd0f454f	-0.034978207
236	0xbb396dc5	-0.0028294188
237	0xbd885a74	-0.066578776
238	0xbe71fa1e	-0.23630568
239	0x3cbf791d	0.023373181
240	0x3e24ae51	0.16082121
241	0x3cb3cac0	0.021947265
242	0xbdaa1ec1	-0.08306647
243	0x3cbc24e7	0.022966815
244	0xbe52d2cf	-0.2058823
245	0x3ddf9239	0.10916562
246	0x3e43ae68	0.191095
247	0xbe2f88b2	-0.17141989
248	0x3d6d8325	0.057986397
249	0x3e70ba65	0.23508604
250	0x3e411f8d	0.18859692
251	0x3b93478e	0.004494614
252	0x3e09a8c2	0.13443282
253	0xbd0c1ecc	-0.034209058
254	0xbe08a24d	-0.13343163
255	0x3d81c43b	0.06336256

conv1a.bias f4 [16]
0	0xb68a4d5f	-4.1217277e-06
1	0x386d2cf3	5.6547065e-05
2	0x371277ef	8.730202e-06
3	0xb688da99	-4.078564e-06
4	0xb901bbe6	-0.00012372396
5	0x3793506a	1.7561211e-05
6	0x37ec5e87	2.817741e-05
7	0x391ac1a6	0.00014758724
8	0x383461e2	4.3006505e-05
9	0xb7a25758	-1.9352578e-05
10	0xb75d3898	-1.3185803e-05
11	0xb9154d3f	-0.00014238524
12	0x39cd3a7e	0.00039144227
13	0xb9482508	-0.00019087282
14	0xb76a5f44	-1.3969668e-05
15	0xb7d266a8	-2.5081754e-05

conv1b.weight f4 [16, 1, 2, 8]
0	0x3db6547e	0.08902834
1	0xbdef17e1	-0.116744764
2	0xbc558c66	-0.013033962
3	0xbe21b108	-0.15790188
4	0x3b8eb379	0.004354891
5	0x3cc849cd	0.024449253
6	0xbcf1e48e	-0.029527929
7	0x3d262df8	0.040571183
8	0xbe832a4a	-0.25618201
9	0xbe1bb738	-0.15206611
10	0xbe886fc3	-0.26647767
11	0xbe91adf7	-0.28453037
12	0xbe410705	-0.18850334
13	0x3dbea141	0.093081005
14	0xbe8e1459	-0.277499
15	0x3d8bd903	0.06828501
16	0x3d50b1a5	0.050950665
17	0x3c17a7da	0.0092563275
18	0xbc956366	-0.018235873
19	0x3dd4a803	0.10383608
20	0xbe8e315c	-0.27772033
21	0x3df117b4	0.11772099
22	0xbc709a3d	-0.014685211
23	0x3e34b228	0.17646086
24	0x3e7bb4d3	0.24580698
25	0xbc352436	-0.011055997
26	0x3e0d0759	0.13772334
27	0x3dc6f137	0.09713977
28	0x3dd6ff19	0.10497875
29	0x3e12e96a	0.14346853
30	0x3d65f8c1	0.056145433
31	0xbd128025	-0.03576674
32	0xbb326ec8	-0.0027226675
33	0xbe487df3	-0.19579296
34	0x3e0810b7	0.13287626
35	0x3e594d42	0.21220878
36	0xbe0fc895	-0.1404136
37	0x3e1a7f44	0.1508761
38	0xbe2d0e21	-0.16899921
39	0x3d821e6c	0.06353459
40	0xbe8ac8bf	-0.27106282
41	0xbe805715	-0.25066438
42	0xbd4c6aa7	-0.0499064
43	0xbe705db3	-0.23473243
44	0x3de3bf94	0.11120525
45	0xbcac9dc0	-0.021071315
46	0xbdaca5f8	-0.084300935
47	0xbe83173c	-0.25603664
48	0xbd9ebc6c	-0.07750782
49	0xbd693d71	-0.05694336
50	0xbe356990	-0.1771605
51	0x3e75f000	0.24017334
52	0x3d18bbcd	0.037288476
53	0x3e3d5bb5	0.18492015
54	0xbd167be7	-0.036739256
55	0xbd6f1594	-0.058370188
56	0xbe22f64f	-0.15914272
57	0xbdf2cc32	-0.118553534
58	0xbe27ca1f	-0.16385697
59	0xbd6bcc7d	-0.057568062
60	0xbe819488	-0.25308633
61	0xbeab491d	-0.33454219
62	0x3e0b7a61	0.13620903
63	0xbe770b44	-0.24125391
64	0xbe56ddc8	-0.2098304
65	0xbd87f7f2	-0.06639089
66	0xbe46778d	-0.19381543
67	0x3c1ddf86	0.009635812
68	0x3dcdca80	0.100483894
69	0xbe56f6ff	-0.20992659
70	0x3bf8cac3	0.0075925305
71	0x3e25ce2b	0.16191928
72	0xbe83f771	-0.2577472
73	0x3e4162ef	0.18885396
74	0xbca390b3	-0.019966459
75	0xbe0bd280	-0.13654518
76	0xbe662016	-0.22473177
77	0xbcbd03dd	-0.023073131
78	0xbe7dfe84	-0.24804121
79	0xbe559a06	-0.20859537
80	0xbc54864f	-0.012971475
81	0x3e31bd17	0.17357288
82	0x3e698895	0.22806008
83	0x3de50a15	0.111835636
84	0x3ccd6528	0.02507265
85	0xbe2e809c	-0.17041248
86	0xbe5c8a8e	-0.2153723
87	0xbe54da9a	-0.20786515
88	0x3db157dd	0.08659337
89	0x3e7f1cd9	0.24913348
90	0x3e0bb676	0.13643822
91	0xbda50468	-0.08057481
92	0x3e1d41ca	0.15357128
93	0xbe592fb5	-0.21209605
94	0xbdf733cc	-0.12070426
95	0x3c278bdd	0.010226217
96	0x3d634ed6	0.055495106
97	0x3dd70871	0.10499657
98	0x3e347c9f	0.17625664
99	0xbe6c1f1c	-0.23058742
100	0x3e1153e9	0.14192165
101	0x3d191093	0.037369322
102	0xbe4269a4	-0.18985611
103	0xbd2935bf	-0.041311022
104	0x3e593a35	0.2121361
105	0xbe2f42c9	-0.1711532
106	0x3e278c48	0.16362107
107	0x3e209b3c	0.15684217
108	0xbe1454e0	-0.14485502
109	0x3d924e02	0.07143785
110	0x3de3bc83	0.1111994
111	0x3d9c6463	0.07636335
112	0xbc978132	-0.018494222
113	0xbe7087a6	-0.23489246
114	0xbe21d308	-0.15803158
115	0x3db3fff8	0.087890565
116	0xbdc56448	-0.09638268
117	0x3e683d8f	0.22679733
118	0xbe4db0f9	-0.20087041
119	0xbdfe8e5a	-0.12429495
120	0x3dd7ba99	0.105336376
121	0x3e833f64	0.256343
122	0x3e328f4f	0.1743748
123	0x3e0525c9	0.13002695
124	0x3dbc0d69	0.09182245
125	0x3d86e730	0.06587064
126	0x3c86e32c	0.016465746
127	0xbe085873	-0.1331499
128	0x3e1c2bfc	0.15251154
129	0x3c86d789	0.016460197
130	0x3db0d19a	0.08633728
131	0xbe2534de	-0.16133448
132	0xbd0e8e10	-0.03480345
133	0xbe4b4093	-0.19848852
134	0xbe867c65	-0.2626678
135	0x3da7e0cb	0.08197173
136	0xbe806071	-0.2507358
137	0xbe529f34	-0.20568544
138	0x3d9d7f16	0.07690255
139	0x3e578692	0.21047428
140	0x3ce79898	0.028271005
141	0xbc4eb1cc	-0.012615632
142	0x3e2c2b95	0.168135
143	0xbe81cb41	-0.25350383
144	0x3e2074dd	0.1566958
145	0x3e2e6ac8	0.17032921
146	0xbe5211b4	-0.20514566
147	0x3d32ee92	0.04368455
148	0xbc514b78	-0.012774341
149	0x3da32c50	0.07967436
150	0xbd736f8a	-0.059432544
151	0xbe292a0d	-0.16519947
152	0xbcff8710	-0.031192333
153	0x3e42da75	0.19028647
154	0xbc7273b8	-0.014798097
155	0xbd7108d7	-0.05884632
156	0xbe12a390	-0.14320207
157	0xbdb10cea	-0.08645041
158	0x3e46cf3d	0.19414993
159	0xbe0d7bf6	-0.13816819
160	0x3e5c1366	0.21491775
161	0x3e39d9e2	0.18149522
162	0xbe699ed6	-0.22814497
163	0xbe36253b	-0.1778764
164	0xbe5a98e0	-0.2134738
165	0x3e5072db	0.20356314
166	0x3e3b7818	0.18307531
167	0xbdeabd3e	-0.11461876
168	0x3e5a002a	0.21289125
169	0x3dab93e9	0.08377821
170	0x3dfd8c74	0.12380305
171	0x3e341a8c	0.17588252
172	0xbd40a893	-0.047035765
173	0xbcdafa1d	-0.026730591
174	0x3daed3a8	0.08536464
175	0xbe6e725c	-0.23285812
176	0x3e0ac69c	0.13552326
177	0xbdfed30d	-0.124425985
178	0x3cec9c79	0.028883206
179	0xbe10f7b4	-0.14156991
180	0xbd8d079b	-0.06886216
181	0x3d9857ad	0.07438598
182	0x3e2f0010	0.17089868
183	0x3dcd15f8	0.10013956
184	0xbdd3e729	-0.10346825
185	0xbe833706	-0.25627917
186	0x3c956d8d	0.018240714
187	0xbe73f568	-0.23824084
188	0xbd3af37c	-0.04564236
189	0xbde36d2a	-0.11104806
190	0xbda726ae	-0.081616744
191	0xbe432d08	-0.19060147
192	0x3e0b389d	0.13595815
193	0xbdd37652	-0.10325302
194	0x3e0eed2c	0.13957661
195	0x3e16220d	0.14661427
196	0x3ce1424a	0.02749743
197	0x3e394d55	0.18095906
198	0xbda75041	-0.08169604
199	0x3e11577e	0.14193532
200	0xbe251f08	-0.16125119
201	0xbe483e2a	-0.19554964
202	0x3dc9b895	0.09849659
203	0x3e886922	0.2664271
204	0x3e90dff1	0.28295854
205	0x3d29bb01	0.041438106
206	0xbd934b63	-0.07192113
207	0x3e89799b	0.2685059
208	0x3d915c5f	0.070976965
209	0xbc395151	-0.011310891
210	0xbe03b04b	-0.12860219
211	0xbd38e39f	-0.04513895
212	0xbced1448	-0.028940335
213	0xbe451801	-0.19247438
214	0x3e21ba92	0.15793827
215	0xbe545bc0	-0.20738125
216	0xbdc7d448	-0.09757286
217	0xbe4a155e	-0.19734713
218	0xbe6e8cee	-0.23295948
219	0x3e370e4e	0.1787655
220	0x3d92aa18	0.07161349
221	0xbe0911e4	-0.13385731
222	0xbd92772a	-0.07151635
223	0x3e2fe9f9	0.17179097
224	0x3e6b8eb3	0.23003654
225	0x3e312e0d	0.17302723
226	0x3e054900	0.13016129
227	0xbe77c3df	-0.24195813
228	0xbe797923	-0.24362616
229	0xbe1bb228	-0.1520468
230	0xbcc36ba9	-0.023855047
231	0x3e41d6be	0.18929574
232	0xbd9e7396	-0.0773689
233	0xbb1a22dd	-0.0023519315
234	0xbc54a80b	-0.012979518
235	0xbdd4735d	-0.10373566
236	0x3e9094bb	0.28238472
237	0x3d8f3b1e	0.069936976
238	0x3e78d3c8	0.24299538
239	0x3d324fca	0.043533124
240	0x3d6bd369	0.057574663
241	0xbd84c41d	-0.06482718
242	0x3dfe8d88	0.12429339
243	0x3df99529	0.12186653
244	0xbe1c5093	-0.15265112
245	0xbe5711c4	-0.21002871
246	0x3e3900e9	0.18066753
247	0xbe4d3c05	-0.20042427
248	0x3caf6aa2	0.021413151
249	0xbe8887eb	-0.26666197
250	0xbe62c3a2	-0.2214494
251	0x3c91f893	0.017818725
252	0xbdaaf95b	-0.08348342
253	0x3e5fff75	0.21874793
254	0xbd5eb907	-0.054375675
255	0x3e13cb76	0.14433083

conv1b.bias f4 [16]
0	0xb82b710f	-4.087487e-05
1	0x3a11b3a2	0.00055580784
2	0x3688b90f	4.0746595e-06
3	0x3a13d3a6	0.0005639143
4	0xb7e6d20a	-2.7515944e-05
5	0x3ac9016f	0.001533551
6	0xb8190841	-3.648573e-05
7	0x3a8777fd	0.0010335442
8	0x379d38a4	1.8742234e-05
9	0xb996fd24	-0.00028798834
10	0x38334d7c	4.274909e-05
11	0x3a7b758a	0.0009592405
12	0x379d7da9	1.8774374e-05
13	0x38d08869	9.943621e-05
14	0xba63bdc6	-0.0008687641
15	0x3795fefe	1.7880924e-05

conv2.weight f4 [32, 16, 3, 3]
0	0x3a22b12b	0.00062062097
1	0xbc4f0a98	-0.012636803
2	0x3d1fb445	0.038990278
3	0xbb5ace79	-0.0033387227
4	0xbc4b7dc8	-0.012420125
5	0xbcd85722	-0.026408736
6	0x3d88a916	0.066728756
7	0x3dc060fc	0.09393498
8	0xbcade90a	-0.021229286
9	0xbd8c8b6d	-0.06862531
10	0x3ce228ca	0.02760734
11	0x3da7cbf2	0.08193196
12	0xbc3803ad	-0.011231345
13	0x3d07fb6f	0.03319877
14	0x3d8dd660	0.069256544
15	0xbca369d6	-0.019947927
16	0x3b1a00b0	0.0023498945
17	0xbdbe69a4	-0.09297493
18	0x3d467e90	0.048460543
19	0xbd17f839	-0.037101958
20	0x3d9e1471	0.07718743
21	0xbcf742cd	-0.03018322
22	0xbd0b2a7c	-0.033976063
23	0xbca7d13e	-0.020485517
24	0x3cd2a481	0.025713207
25	0x3dca9e0e	0.09893428
26	0x3da14c9f	0.078759424
27	0x3b446bfa	0.0029971586
28	0x3c2db6d5	0.010602673
29	0xbccbcd65	-0.024878213
30	0x3cd474ea	0.025934655
31	0xbda027a2	-0.07820059
32	0xbc31f037	-0.010860494
33	0x3d0b53ee	0.03401559
34	0x3d3fa344	0.04678656
35	0xbd231763	-0.039817225
36	0x3e03d32f	0.12873529
37	0xbc8b06af	-0.01697096
38	0xbc721ab4	-0.014776874
39	0x3b6a7c2b	0.0035779576
40	0xbd6a4123	-0.057191025
41	0x3c5d4cc2	0.01350707
42	0x3d9f687b	0.077836
43	0x3dd72704	0.105054885
44	0x3cfafbde	0.030637678
45	0x3b7236a0	0.0036958829
46	0x3d8dc51d	0.06922362
47	0xbcbd41a0	-0.023102582
48	0x3daa6f0d	0.083219625
49	0x3da7a0eb	0.081849895
50	0x3d8bcab1	0.0682577
51	0xbda295d4	-0.07938734
52	0xbce2da30	-0.02769193
53	0xbdca47c2	-0.09876968
54	0xbdb68814	-0.089126736
55	0xbd7c50ed	-0.061600614
56	0x3bfb712b	0.007673403
57	0x3be34b59	0.0069364724
58	0xbd4353bd	-0.04768728
59	0xbd88df53	-0.06683221
60	0xbd07b2ce	-0.033129506
61	0xbcb1e573	-0.021715855
62	0x3d1ea7ad	0.038734127
63	0x3c9a2665	0.018817136
64	0x3b674a6c	0.0035292162
65	0x3db1c771	0.086806186
66	0x3d534395	0.051578123
67	0xbcd9b79c	-0.02657681
68	0x3c5760f2	0.013145672
69	0xbd35f5a1	-0.044423703
70	0xb89137da	-6.924542e-05
71	0x3c91f5b0	0.017817348
72	0x3c4900ff	0.012268304
73	0xba97c822	-0.001158003
74	0x3cfacc52	0.030615006
75	0xbd71133b	-0.05885623
76	0x3d4cd90c	0.05001168
77	0xbdb5cb32	-0.08876647
78	0x3d7b3412	0.061328955
79	0xbd8f5cef	-0.070001476
80	0x3d972432	0.073799506
81	0x3d4d855f	0.05017602
82	0x3b026b61	0.0019900429
83	0x3c60e995	0.013727565
84	0x39ca0cd3	0.00038537997
85	0x3d294e49	0.041334424
86	0xbd560ae0	-0.052256465
87	0xbcf7f27e	-0.030266996
88	0xbca148e4	-0.019688077
89	0xbc64cb64	-0.013964508
90	0x3d838d57	0.06423443
91	0x3c8832b2	0.016625736
92	0xbca5da13	-0.020245587
93	0x3d1edaa3	0.038782727
94	0xbc3e47ee	-0.011613829
95	0x3cb53e8e	0.022124555
96	0x3d8b8eea	0.06814368
97	0xbd2af6e3	-0.041739356
98	0x3d057288	0.03257993
99	0xbd8468ab	-0.06465276
100	0xbd9abc1a	-0.07555409
101	0xbd0cb3fa	-0.034351327
102	0x3cc81db1	0.02442822
103	0xbd45daa9	-0.048304234
104	0x3d6a3a0a	0.057184257
105	0x3d688e7e	0.056776516
106	0x3c950d1d	0.01819473
107	0x3df1dac2	0.11809303
108	0x3d6f7626	0.058462285
109	0xbc78643f	-0.015160619
110	0x3c84f36b	0.016229352
111	0xbcdd9732	-0.027049635
112	0x3c4f88dd	0.012666908
113	0xbc57d12d	-0.01317243
114	0xbc9c03ef	-0.019044844
115	0x3c5c1277	0.013432137
116	0x3daaed90	0.08346093
117	0x3d860ff0	0.065460086
118	0x3db8661b	0.0900385
119	0x3dc0e13a	0.094179586
120	0xbc8a9548	-0.016916886
121	0xbd428e85	-0.0474992
122	0x3d38bcba	0.04510186
123	0xbcedf916	-0.029049437
124	0xbd0bf9b5	-0.034173686
125	0xbda14ba6	-0.07875757
126	0x3b22ecd4	0.00248604
127	0x3ba971db	0.0051710433
128	0x3babf0a5	0.005247193
129	0xbac135da	-0.001474078
130	0x3c5e239e	0.0135582965
131	0x3dbbf077	0.091767244
132	0x3cb4c494	0.022066392
133	0xbdc7f378	-0.09763235
134	0xbcadf177	-0.021233303
135	0xbd1874e7	-0.03722086
136	0xbba656dd	-0.005076273
137	0x3c9a4977	0.018833859
138	0x3d15a9a8	0.03653875
139	0xbdb849e8	-0.089984715
140	0xbc6ca871	-0.014444456
141	0xbc0c1963	-0.008550975
142	0xbc89d445	-0.01682485
143	0xbdbba044	-0.091614276
144	0xbdc33772	-0.0953206
145	0x3b4a37a7	0.0030855925
146	0xbdcd92de	-0.10037778
147	0x3de4ddf9	0.111751504
148	0xbb41b371	-0.0029556418
149	0x3d6dbd22	0.0580417
150	0xbaab241f	-0.001305703
151	0x3c10234e	0.00879748
152	0xbd860b38	-0.065451086
153	0xbcd205b5	-0.025637487
154	0xbd784532	-0.060612865
155	0x3d610095	0.054932196
156	0xbdbf3c58	-0.093376815
157	0xbd9a4797	-0.07533186
158	0xbdc0ea89	-0.09419734
159	0xbb88a910	-0.0041705444
160	0x3cd80400	0.026369095
161	0x3d9015b7	0.07035392
162	0xbd0a1cc0	-0.033718824
163	0x3c76a8a8	0.015054859
164	0xbd9e55da	-0.07731219
165	0xbbd87ebd	-0.0066069053
166	0xbd476d78	-0.048688382
167	0xbd1cb121	-0.03825486
168	0x3d3755be	0.044759504
169	0xbdc41da5	-0.09575967
170	0x3d353a38	0.044244975
171	0xbca69ef5	-0.020339468
172	0x3c85bf24	0.016326495
173	0xbcd343ca	-0.02578916
174	0x3cdcf7bd	0.0269736
175	0x3da6238f	0.08112251
176	0x3db535ef	0.08848178
177	0xbdc20e4f	-0.094753854
178	0x3be5f319	0.007017505
179	0xbd451d7c	-0.04812382
180	0xbd6cd52e	-0.05782049
181	0xba506940	-0.0007950254
182	0x3b645f28	0.0034846757
183	0x3d01db56	0.031703316
184	0x3cd27ade	0.025693353
185	0x3dc0c916	0.09413354
186	0xbd990643	-0.074718975
187	0xbd98f37c	-0.07468316
188	0xbd4543ce	-0.048160367
189	0x3d3202a6	0.043459557
190	0x3d3851c2	0.044999845
191	0x3d839442	0.06424762
192	0x3c12f1a0	0.008968741
193	0x3cd8126b	0.02637597
194	0xbc76a3c5	-0.015053694
195	0x3c685b82	0.014181973
196	0x3d7fc6de	0.062445514
197	0x3d9e445a	0.07727881
198	0x3d9cffbf	0.07665967
199	0x3ccad536	0.02475987
200	0x3d158bf3	0.03651042
201	0xbd8044ce	-0.062631235
202	0x3c814249	0.015778678
203	0xbbc14280	-0.00589782
204	0x3d163243	0.036669027
205	0xbd77c71d	-0.060492624
206	0x3d813a34	0.063099295
207	0xbd39d033	-0.04536457
208	0xbd73c3c0	-0.059512854
209	0xbdab39e4	-0.08360651
210	0xbd8008ad	-0.06251655
211	0xbd60cdf2	-0.054883905
212	0xbd88f16a	-0.06686671
213	0xbc9ceee8	-0.019156888
214	0x3adec8c8	0.0016997093
215	0x3a207ae6	0.0006121829
216	0x3c1b4443	0.009476724
217	0x3c913656	0.017726105
218	0xbcbebab9	-0.023282396
219	0x3da2a9bb	0.0794253
220	0xbd0e10e7	-0.034684088
221	0x3da1e59e	0.07905124
222	0x3ccdbbf9	0.025114046
223	0x3ca3d01c	0.019996695
224	0x3d97d5fc	0.07413861
225	0xbc83d670	-0.016093463
226	0xbda647c0	-0.08119154
227	0x3c4361ea	0.0119252
228	0xbd53e53d	-0.05173229
229	0xbccaaf6b	-0.024741849
230	0x3d5f8edd	0.054579604
231	0x3ba9b403	0.00517893
232	0x3aa295e4	0.001240429
233	0x3db603bd	0.08887432
234	0xbd0c35d9	-0.03423104
235	0x3dab1686	0.083539054
236	0xbc91781f	-0.017757474
237	0xbd9aa031	-0.07550085
238	0x3ca72e16	0.020407718
239	0x3d906e02	0.07052232
240	0xbc5444b3	-0.012955832
241	0x3cedc56c	0.029024802
242	0x3daea0bb	0.08526751
243	0x3c95bcbb	0.01827847
244	0xbdd07d9f	-0.1018021
245	0xb8fbbc8e	-0.00012003734
246	0x3d30f52f	0.043202575
247	0x3cb6ad15	0.022299329
248	0x3d8bc89c	0.068253726
249	0xbd1bc1f3	-0.03802676
250	0x3d4a7cd1	0.04943544
251	0x3d602542	0.05472303
252	0x3d9d0cf7	0.076684885
253	0xbcbc1389	-0.022958534
254	0x3d3ee268	0.046602637
255	0xbb3ad9ba	-0.0028511123

conv2.bias f4 [32]
0	0x3aaf2915	0.0013363684
1	0xb9d593cd	-0.00040736646
2	0xbafd411b	-0.0019321771
3	0x3a774259	0.0009432189
4	0x3a485589	0.000764214
5	0xbb1b17ab	-0.002366523
6	0xbad4d58c	-0.0016237958
7	0xb96c09cc	-0.00022510363
8	0xba6f87be	-0.00091373536
9	0x3a835102	0.0010018649
10	0x395515a1	0.0002032132
11	0xbaa7d024	-0.001280312
12	0xbb316372	-0.002706733
13	0xb9d8cd1e	-0.00041351555
14	0x3ade10fe	0.001694232
15	0xbaac626e	-0.0013151893
16	0xba832cac	-0.001000782
17	0xbaf08033	-0.0018348753
18	0x3a779b39	0.0009445432
19	0xb999320d	-0.00029219725
20	0x3923b4a0	0.0001561218
21	0xba88fe3d	-0.0010451745
22	0x3a397853	0.00070751196
23	0xbb13484f	-0.002247352
24	0x3a5bcd2c	0.000838476
25	0xbb33012f	-0.0027313938
26	0xba1489d4	-0.000566629
27	0xba95ece4	-0.0011438397
28	0xba63263c	-0.000866506
29	0x38730d69	5.7948204e-05
30	0xba1c14b2	-0.00059540116
31	0xb9aa4aa2	-0.00032480533

conv3.weight f4 [48, 32, 3, 3]
0	0xbd09c133	-0.033631515
1	0xbd5601d1	-0.052247826
2	0xbd698435	-0.057010848
3	0x3ad22f01	0.0016035737
4	0x3ce137b8	0.02749239
5	0xbcb13f82	-0.021636728
6	0xbcaeb7de	-0.02132791
7	0xbd7998d6	-0.06093677
8	0xbda9ba8b	-0.082875334
9	0x3d6fe30b	0.058566134
10	0x3d84dbfd	0.06487272
11	0x3d99b3c4	0.07504991
12	0xbd392b4b	-0.045207303
13	0xbbb117fc	-0.0054044705
14	0xbc5159ea	-0.012777785
15	0xbc79a183	-0.015236261
16	0xbc972ea0	-0.01845485
17	0xbca99add	-0.020703727
18	0x3d0acea2	0.033888467
19	0x3d1fb889	0.038994346
20	0x3d768500	0.060185432
21	0xbd1bff9a	-0.038085558
22	0x3ca09478	0.019602045
23	0xbca64f86	-0.020301592
24	0xbd708e93	-0.05872972
25	0xbd231a0b	-0.03981976
26	0x3bbb0d1c	0.00570835
27	0xbd2f3c33	-0.04278202
28	0xbd664069	-0.05621377
29	0xbb5bf77a	-0.0033564256
30	0x3cda3a2a	0.026639063
31	0xbcb3ea91	-0.021962436
32	0x3d88593a	0.066576436
33	0xbd0e99ae	-0.03481453
34	0xbc2a1ee5	-0.010383342
35	0xbc6af448	-0.014340468
36	0x3cda9870	0.026684016
37	0xbccade37	-0.024764163
38	0xbd69ac84	-0.05704929
39	0xbcf07ae8	-0.029355481
40	0xbc168a49	-0.009188243
41	0x3cc0b033	0.023521518
42	0xbb668d3d	-0.00351794
43	0xbd2be335	-0.04196473
44	0xbd80cc5c	-0.062889785
45	0xbd4b28ce	-0.04959946
46	0xba54fd8b	-0.0008124939
47	0x3d4658e3	0.048424613
48	0xbd04ba9b	-0.032404523
49	0x3883e187	6.2885745e-05
50	0xbc8fb4e4	-0.01754231
51	0xbd52c764	-0.051459685
52	0x3d005268	0.03132859
53	0xbd2ac517	-0.041691866
54	0x3d1da6db	0.038489204
55	0x3d0b12e6	0.03395357
56	0xbb25aa66	-0.0025278567
57	0x3d2f2be1	0.042766456
58	0x3cfa2471	0.030534955
59	0xbc1f2327	-0.009712971
60	0x3d639d88	0.055570155
61	0xbb36eec7	-0.0027913318
62	0x3c8a2284	0.016862161
63	0x3c8e47ba	0.017368186
64	0x3d8a5d26	0.06756048
65	0x3d6f8cf4	0.058484033
66	0x3ce7e1c1	0.02830589
67	0x3d479303	0.048724186
68	0xbcf113e8	-0.029428437
69	0x3c6b071a	0.014344955
70	0x3c603546	0.013684576
71	0x3ca6c2fd	0.02035665
72	0xbc68f0bb	-0.014217551
73	0xbd1468bd	-0.0362327
74	0xbd8401eb	-0.06445678
75	0x3ceffcdb	0.029295376
76	0x3c2a6bd9	0.010401689
77	0x3d3a9a7f	0.045557495
78	0x3bd04968	0.006356407
79	0xbd498db5	-0.049207408
80	0xbd2fe62f	-0.04294413
81	0x3c945e67	0.01811142
82	0x3d07b050	0.03312713
83	0x3d0407f9	0.032234166
84	0x3b6680ab	0.0035171907
85	0x3d0aa2be	0.03384661
86	0xbcc22821	-0.023700776
87	0x3c787eaf	0.0151669225
88	0xbc71af1d	-0.014751223
89	0x3d4088f1	0.047005598
90	0x3c7f48b4	0.015581299
91	0xbd1e6f7b	-0.038680535
92	0xbd03b1c5	-0.032151956
93	0x3c9b3108	0.018944278
94	0xbd868cde	-0.06569837
95	0xbd1ae92e	-0.037820034
96	0xbc327987	-0.010893232
97	0xbca48ae5	-0.020085761
98	0x3cd53aaa	0.02602895
99	0x3d9201fb	0.07129284
100	0x3d6c5457	0.05769762
101	0x3d364eae	0.04450863
102	0x3d2e6915	0.042580683
103	0xbcd25f76	-0.025680285
104	0xbd30e8e9	-0.04319087
105	0x3d0746a1	0.03302634
106	0x3c0ba46a	0.008523086
107	0x3bbe7c0e	0.0058131283
108	0xbcaaf9c7	-0.020871056
109	0x3d4aa7af	0.04947632
110	0x3cda2a93	0.02663163
111	0xbd3f7c64	-0.046749488
112	0x3d564e13	0.05232055
113	0xbd28cb5a	-0.041209556
114	0xbc976729	-0.018481808
115	0x3d9676f3	0.073469065
116	0x3aa1276c	0.0012295074
117	0x3c121a24	0.008917365
118	0x3d3da53c	0.046300158
119	0x3d3a437f	0.045474526
120	0xbc0558fd	-0.008138892
121	0x3d6d7739	0.057975028
122	0x3d244b94	0.04011114
123	0xbca7943e	-0.02045643
124	0x3d87859a	0.06617279
125	0x3c4b6c4a	0.012415955
126	0xbd7a9e0b	-0.061185878
127	0xbd5a1a16	-0.053247534
128	0x3c0afae1	0.008482666
129	0xbc8e1cac	-0.017347656
130	0xbbeb6638	-0.0071838163
131	0x3d8a3468	0.06748277
132	0x3d5cb74a	0.053885736
133	0x3d22a183	0.03970481
134	0x3d44e647	0.048071172
135	0xbcacecad	-0.02110895
136	0xbd40e6ee	-0.04709523
137	0xbd19698c	-0.037454173
138	0x3d8d52bc	0.06900546
139	0xbc03f426	-0.008053815
140	0xbcfc906e	-0.030830588
141	0xbb1090b5	-0.0022058908
142	0xbd2409ff	-0.040048596
143	0xbce40da7	-0.027838541
144	0x3b96efde	0.004606231
145	0x3d6f9401	0.058490757
146	0xbc9dc0fc	-0.019257061
147	0xbd5d456c	-0.054021284
148	0x3c0e66bd	0.008691487
149	0xbd8374d9	-0.06418771
150	0xbafb5d62	-0.001917761
151	0x3da287cd	0.07936058
152	0x3da488ff	0.080339424
153	0xbd3ab0b0	-0.04557866
154	0x3d1f2aa8	0.03885904
155	0x3cf2a32d	0.029618824
156	0x3c934a25	0.01797969
157	0x3cb9078d	0.022586608
158	0xbb7a459b	-0.003818846
159	0x3d7800da	0.060547687
160	0x3d4b2ab4	0.04960127
161	0x3cd49563	0.02595014
162	0x3d1dd7b9	0.038535807
163	0x3db42364	0.08795813
164	0x3d931325	0.07181386
165	0x3b8eecd6	0.004361729
166	0xbce9779b	-0.028499415
167	0xbc7f227a	-0.015572185
168	0x3d85c95d	0.065325476
169	0x3cbbbd24	0.022917338
170	0x3c0f6090	0.00875105
171	0x3cbd246c	0.023088656
172	0x3b08bf4e	0.002086598
173	0x3aec0a2c	0.0018008403
174	0xbc5691dc	-0.013096299
175	0x3b1ee6c5	0.0024246436
176	0xbd0e8851	-0.03479797
177	0xbd10c29c	-0.035341844
178	0xbceb49fb	-0.0287218
179	0x3c486a62	0.012232395
180	0xbc344d34	-0.011004735
181	0x3b772e98	0.003771698
182	0x3b36fff6	0.002792356
183	0xbac5d948	-0.0015094662
184	0xbd064752	-0.03278286
185	0x3d9f2673	0.077710055
186	0xbb8bece2	-0.004270182
187	0xbd162a70	-0.036661565
188	0x3d215c4d	0.039394666
189	0x3aef087b	0.001823678
190	0xbd9e19a4	-0.07719734
191	0xbd296c0e	-0.041362815
192	0xbc49e617	-0.012322924
193	0xbd111de8	-0.03542891
194	0xbc922522	-0.017839972
195	0x3bd5e9eb	0.0065281293
196	0x3c869681	0.016429188
197	0xbcd11bb5	-0.025525907
198	0x3c86c23f	0.016450046
199	0x3b812278	0.0039408766
200	0xbd1afcfd	-0.037838925
201	0x3d5d104a	0.053970613
202	0xbc092bd1	-0.008372263
203	0x3d05ad51	0.03263599
204	0x3cc20f97	0.023689074
205	0x3d5963e7	0.05307379
206	0x3d2c4c5a	0.042065002
207	0x3d4cb3ef	0.049976286
208	0xbbd970dc	-0.0066357683
209	0x3b84bdc5	0.0040509426
210	0xbb2e6a81	-0.0026613774
211	0x3d4d0a51	0.050058667
212	0xbbb00b90	-0.005372472
213	0xbd110609	-0.035406146
214	0x3bfa7e99	0.007644486
215	0xbd42b20c	-0.04753308
216	0x3d1a1886	0.037621044
217	0xbd5a942e	-0.05336397
218	0x3cb403f0	0.021974534
219	0xbdc38068	-0.09545976
220	0xbb36e1e1	-0.002790563
221	0xbd21be96	-0.039488398
222	0x3c71c3f6	0.014756193
223	0x3c010a9d	0.007876066
224	0x3d00efe1	0.031478766
225	0x3d204cea	0.03913585
226	0x3cf3289a	0.029682446
227	0x3d75ab27	0.059977677
228	0x3c9d13a4	0.019174404
229	0x3d3d2206	0.046175025
230	0xbcacbd58	-0.02108638
231	0x3d58e51f	0.052952882
232	0xbc2084ba	-0.0097972695
233	0x3cba4e2e	0.022742357
234	0x3ceb6f2d	0.028739536
235	0xbd7ca98a	-0.061685123
236	0x3c4b62f2	0.012413727
237	0x3cdaa459	0.026689695
238	0xbc678b5f	-0.01413235
239	0xbd7649e4	-0.06012906
240	0x3b7111c4	0.003678427
241	0x3c4a690f	0.0123541495
242	0x3c92822d	0.017884338
243	0xbd77f8e0	-0.06054008
244	0xbd32488b	-0.043526214
245	0xbda9e1a1	-0.082949884
246	0x3d2bb0aa	0.041916527
247	0x3cbf7f6a	0.023376185
248	0x3b2883d5	0.0025713344
249	0x3c38e37d	0.011284706
250	0xbd7aee73	-0.06126256
251	0xbd323861	-0.0435108
252	0xbd1bc310	-0.038027823
253	0xbcdd6a6a	-0.027028281
254	0xbb2426ef	-0.002504762
255	0xbc36194f	-0.0111144325

conv3.bias f4 [48]
0	0x3a034872	0.00050080486
1	0xb92bba91	-0.00016377332
2	0xba21f9fc	-0.0006178913
3	0x3984b33c	0.00025310542
4	0x39073ac0	0.0001289649
5	0xba253785	-0.00063025235
6	0xba8a0232	-0.0010529219
7	0x39211a53	0.00015363963
8	0x3902bbd0	0.00012467732
9	0x3985726d	0.0002545299
10	0xba04d80f	-0.00050675956
11	0xb94cadae	-0.00019519657
12	0x399edfb0	0.0003030277
13	0xb9b1885a	-0.0003386166
14	0x3886019f	6.38992e-05
15	0x384d2c60	4.8917136e-05
16	0x39841705	0.00025194153
17	0x3b05ec9a	0.0020435215
18	0xba7dc64c	-0.00096807326
19	0x39cce86f	0.0003908309
20	0x397c9c99	0.0002409093
21	0x39a3af2e	0.00031220302
22	0xb93d9cb2	-0.00018082818
23	0xba5e55be	-0.00084814045
24	0xba5bf73f	-0.00083910296
25	0x38df1b71	0.0001063858
26	0xba15c81b	-0.0005713717
27	0x39c4de00	0.00037549436
28	0xba02986b	-0.00049818185
29	0x38be8c86	9.0860805e-05
30	0x3a9e6759	0.0012085243
31	0xb9f672f5	-0.00047006426
32	0x39ed90d8	0.0004531208
33	0x3a81b90e	0.000989707
34	0xba3c0d2b	-0.0007173593
35	0xb751de57	-1.2509138e-05
36	0xb9b0a913	-0.00033695306
37	0xb98a49c9	-0.00026376385
38	0xb816a851	-3.5919544e-05
39	0x39692fbc	0.00022238394
40	0xb9fef685	-0.00048630327
41	0xba237771	-0.00062357547
42	0x39cb2bf1	0.00038751916
43	0xba34137b	-0.0006869358
44	0x3901dbee	0.00012384329
45	0x3a1da536	0.0006013693
46	0xba49e8a8	-0.000770221
47	0x3ab128fe	0.0013516245

conv4.weight f4 [64, 48, 3, 3]
0	0x3d344878	0.044014424
1	0xbd176801	-0.03696442
2	0x3aaa6caf	0.0013002361
3	0x3c995fac	0.018722378
4	0x3c734db6	0.014850071
5	0x3d577e12	0.052610464
6	0xbd20d36e	-0.039264135
7	0xba97bd9d	-0.0011576895
8	0xbd533668	-0.051565558
9	0x3bbade9c	0.0057028066
10	0xbcf289d3	-0.029606735
11	0xbb93aa3e	-0.0045063784
12	0x3c33d01f	0.010974913
13	0x3d045573	0.032308053
14	0xbd26ef01	-0.040755276
15	0x3d818e13	0.06325927
16	0x3cf56c6b	0.029958924
17	0x3d527082	0.051376827
18	0xbc015ff0	-0.007896408
19	0x3af73dc3	0.0018863011
20	0xbc25b081	-0.010112883
21	0x3d5781eb	0.052614134
22	0x3d6ced0e	0.05784326
23	0x3d46efb4	0.048568442
24	0xb9fc5756	-0.00048130256
25	0x3c70cdce	0.014697505
26	0x3a8225eb	0.0009929513
27	0x3c867f05	0.01641799
28	0xbd343c4b	-0.044002812
29	0x3d1baaa3	0.03800453
30	0x3a8ae081	0.0010595472
31	0x3c19718d	0.0093654515
32	0xbcfbc340	-0.03073275
33	0xbd07315c	-0.033006057
34	0x3d0b91ec	0.03407471
35	0x3b91ad01	0.0044456725
36	0x3c803ebb	0.015654912
37	0xbb00ee76	-0.0019673384
38	0xbd3f4653	-0.046697926
39	0x3b38aaa1	0.0028177875
40	0xbc314a84	-0.010820989
41	0x3c66a96b	0.014078478
42	0x3d13fd9b	0.03613053
43	0x3c9eacd5	0.019369522
44	0x3c889f79	0.016677605
45	0xbd24eff1	-0.04026789
46	0xbca09821	-0.01960379
47	0xbcbc7b33	-0.023007965
48	0x3ca411fe	0.02002811
49	0x3d103129	0.035203133
50	0xba7da0c0	-0.00096751377
51	0x3ce532d2	0.027978335
52	0x3c368ecf	0.011142447
53	0xbd53c495	-0.051701147
54	0xbccd9292	-0.025094304
55	0x3cb50ff4	0.022102334
56	0xbbad8e4b	-0.0052965037
57	0x3cca8b2d	0.024724567
58	0xbc8a9a8c	-0.016919397
59	0x3cabfcf9	0.02099465
60	0x3ce20d48	0.027594224
61	0x3aeb066f	0.0017930995
62	0xbc1aeb66	-0.009455537
63	0xbcbb4f0d	-0.022864843
64	0x3cf68176	0.030091029
65	0xbd0afc3e	-0.033931963
66	0xbd00d48a	-0.031452693
67	0xbd328394	-0.043582514
68	0x3c447ec5	0.011993115
69	0xbc8e798e	-0.017391946
70	0x3cc2ca2e	0.023778047
71	0x3cf0177c	0.029308073
72	0x3d1abe64	0.037779227
73	0x3cb7a810	0.022419006
74	0x3d26057f	0.040532585
75	0xbc907cfc	-0.017637722
76	0x3c66f940	0.014097512
77	0x3d1635b5	0.036672313
78	0x3c042e98	0.008067749
79	0x3c9ae080	0.018905878
80	0x3ccfb0d8	0.02535288
81	0xbbadb1df	-0.005300745
82	0xbc347d1c	-0.0110161565
83	0xbd2a236c	-0.041537687
84	0x3d1eb3cd	0.03874569
85	0xbcae0ce4	-0.021246381
86	0xbcb26866	-0.021778297
87	0x3d3f2d3b	0.046673995
88	0x3cf0f796	0.029414933
89	0x3c894cfe	0.016760346
90	0x3bc0e46e	0.005886606
91	0x3cc815ef	0.024424521
92	0xb97e55f1	-0.00024255343
93	0x3cce556b	0.025187215
94	0x3cef4d32	0.029211614
95	0x3d55200c	0.052032515
96	0x3d9c6ebd	0.07638309
97	0x3d775913	0.060387682
98	0x3d8aeac6	0.06783061
99	0xbc758dab	-0.01498739
100	0x3b95f014	0.0045757387
101	0x3d0a7c8e	0.03381019
102	0x3d8460d5	0.06463782
103	0x3cec31a2	0.02883226
104	0x3ca424bb	0.020037046
105	0xbcd036f6	-0.025416832
106	0x3cd04285	0.025422344
107	0xbb8af0ad	-0.0042401166
108	0x3c43d684	0.011953
109	0x3cc1ef6a	0.023673732
110	0xbc870182	-0.016480211
111	0xbc80e9c9	-0.015736477
112	0x3c0e31a5	0.008678828
113	0x3cae98f8	0.021313176
114	0xbccbec11	-0.024892839
115	0xbbd478ef	-0.006484143
116	0xbcf077cf	-0.029354004
117	0x3cbd8eec	0.02313944
118	0xbd3a4068	-0.04547158
119	0x3cb94ffc	0.022621147
120	0xbc9d4c8d	-0.019201541
121	0x3c10bc69	0.008833983
122	0x3bbc9d81	0.0057560806
123	0xbd3a8325	-0.045535225
124	0x3ce0687d	0.027393574
125	0xbcba3c01	-0.02273369
126	0x3d341c41	0.043972258
127	0x3cad0557	0.02112071
128	0xbd2f6e1e	-0.042829625
129	0xbca7afd5	-0.020469585
130	0x3bd5acbe	0.0065208366
131	0xbcdf1118	-0.02722983
132	0xbba0cf23	-0.004907505
133	0x3d5b159e	0.053487413
134	0xbc371325	-0.011173998
135	0xbc4d3030	-0.012523696
136	0xbb248a85	-0.0025106978
137	0xbc04b6ea	-0.008100251
138	0xbba0bebe	-0.0049055507
139	0x3ca846bf	0.020541547
140	0xbb08e19b	-0.0020886424
141	0x3cf346e0	0.029696882
142	0xbab63921	-0.0013902524
143	0x3c2aae43	0.010417524
144	0xbcf88bbd	-0.03034007
145	0xbc1d8755	-0.009614785
146	0x3be85fec	0.007091513
147	0xbc8aa144	-0.0169226
148	0x3d1b2ca6	0.037884377
149	0x3d7f0035	0.062256057
150	0xbcec8024	-0.028869696
151	0xbd19d06a	-0.037552275
152	0xbd6647cf	-0.056220826
153	0xbd14a6a4	-0.036291733
154	0x3ce3da51	0.027814062
155	0x3cf63d1e	0.03005844
156	0xbd49bff1	-0.049255315
157	0xbc94297c	-0.018086188
158	0xbcadb7ea	-0.021205861
159	0x3cef9dbc	0.029250018
160	0x3cbd4fbc	0.02310931
161	0x3c9f817a	0.019470919
162	0x3d05cf49	0.032668386
163	0x3cc4a662	0.024005119
164	0xbd07da20	-0.033167005
165	0x3cafb4fb	0.021448603
166	0xbba7bf9c	-0.005119277
167	0xbd005e99	-0.031340215
168	0x3c72c095	0.014816423
169	0x3d1eef2f	0.038802322
170	0xbb963c68	-0.0045848377
171	0x3d03e7be	0.03220343
172	0xbce3b729	-0.027797299
173	0xbd25c294	-0.040468767
174	0xbaf12988	-0.0018399218
175	0x3d2abb3c	0.041682467
176	0x3d05d397	0.03267249
177	0xbc9b0e55	-0.018927732
178	0x3ce8b068	0.02840443
179	0x3d006986	0.031350635
180	0xbd111536	-0.03542062
181	0xbb058563	-0.0020373694
182	0xb9dd63e3	-0.00042226826
183	0x3d43e314	0.04782398
184	0xbc86febf	-0.016478894
185	0x3d3b1ad0	0.045679867
186	0xbbac7b8a	-0.0052637504
187	0x3d073d8b	0.033017676
188	0x3d10d4db	0.035359245
189	0x3c99cfac	0.018775783
190	0x3cec9b83	0.028882748
191	0x3b17a917	0.0023141557
192	0x3c012228	0.007881679
193	0xbca5d08c	-0.020241044
194	0xbce3df34	-0.027816392
195	0xbcb6ae5a	-0.022299934
196	0xbc34a876	-0.011026492
197	0x3c8a5db5	0.016890386
198	0x3d0b6c0e	0.034038596
199	0x3c8d7059	0.017265486
200	0x3cde3ab7	0.027127607
201	0x3ce26e0f	0.02764037
202	0x3d0c9aef	0.034327444
203	0x3cda2c39	0.026632415
204	0x3d0231bb	0.031785708
205	0xbd1ee60e	-0.038793616
206	0x3cc765bb	0.024340501
207	0xbd0d7501	-0.03453541
208	0xbc44c4b1	-0.0120097855
209	0x3d2b7a24	0.04186453
210	0x3ce88c11	0.028387101
211	0x3d26deb8	0.040739745
212	0xbb425e44	-0.0029658237
213	0x3c47a5b0	0.012185499
214	0x3a8226a1	0.0009929725
215	0xbcacadd7	-0.021078987
216	0x3cb667c1	0.02226627
217	0xbcf4ea8b	-0.029896995
218	0x3cc50ba4	0.024053402
219	0x3d0246a9	0.031805668
220	0x3d23b86d	0.039970804
221	0x3d8240e2	0.06360032
222	0xbc6b92ae	-0.014378233
223	0xbc979802	-0.0185051
224	0xbd425074	-0.047440007
225	0xbcf7f25c	-0.030266933
226	0xbcf011de	-0.029305395
227	0xb9871c91	-0.0002577049
228	0xbc16f192	-0.009212868
229	0x3d189d05	0.03725912
230	0xbd42a153	-0.047517132
231	0xbc2c7902	-0.010526897
232	0x3b06afd2	0.0020551574
233	0x3cffd5db	0.031229904
234	0x3a189758	0.0005820892
235	0xbd368759	-0.04456267
236	0xbc2bf450	-0.01049526
237	0x3d65a2ee	0.056063585
238	0x3d558de5	0.052137274
239	0xbcc36a6f	-0.023854462
240	0x3c8beca6	0.017080616
241	0xbbee3ffa	-0.00727081
242	0x3cffbe16	0.03121857
243	0x3ca18955	0.019718805
244	0x3cf23e94	0.029570855
245	0xbc524d23	-0.012835774
246	0x3c903d57	0.017607374
247	0xbcb52932	-0.02211437
248	0xbcd1aa0e	-0.025593784
249	0x3ca242e4	0.019807287
250	0xbb277892	-0.0025554043
251	0x3c08e744	0.008355919
252	0xbd17817f	-0.03698873
253	0xbd3fd80b	-0.046836894
254	0x3c5e91cb	0.013584564
255	0x38f8b3c1	0.00011859043

conv4.bias f4 [64]
0	0x380b82d0	3.326201e-05
1	0xb7898e1d	-1.639785e-05
2	0xba222425	-0.00061851955
3	0xb6a49888	-4.905338e-06
4	0x38c947f3	9.5978285e-05
5	0xb60d4abd	-2.105414e-06
6	0x3957c6a5	0.00020577999
7	0x391fb0ac	0.00015229237
8	0xb84c7de4	-4.8754635e-05
9	0x3936ad29	0.0001742138
10	0x38384c83	4.3940276e-05
11	0x39e69c3b	0.0004398542
12	0x382459ee	3.91844e-05
13	0x3988479e	0.000259933
14	0x39429ab0	0.00018558907
15	0xb9f78e29	-0.0004721743
16	0x38eda626	0.00011331988
17	0x36cf8249	6.184248e-06
18	0x3865a9e6	5.4756085e-05
19	0x392bf744	0.00016399944
20	0x392f9aab	0.00016746919
21	0xb98d2eeb	-0.00026928572
22	0xb93653ee	-0.00017388139
23	0xb8ace7e1	-8.24479e-05
24	0x37c80547	2.3844315e-05
25	0x398fe217	0.00027443536
26	0xb9bd2cbe	-0.00036082225
27	0x34b93443	3.449696e-07
28	0xb98dfab2	-0.00027080398
29	0xb94f9679	-0.00019797114
30	0x382a812c	4.065146e-05
31	0x38469d91	4.7353624e-05
32	0x39307a74	0.00016830285
33	0x398893f0	0.00026050163
34	0x39157b52	0.00014255688
35	0x38fee5c5	0.00012154462
36	0x35c85f13	1.4928831e-06
37	0xb91a0d13	-0.00014691455
38	0xb9054085	-0.00012707904
39	0x3a440e4f	0.0007478939
40	0xb7e82414	-2.7673355e-05
41	0xb8745009	-5.8248672e-05
42	0x3866fdf2	5.507278e-05
43	0xb887174a	-6.4416396e-05
44	0x3a042bb6	0.0005041914
45	0xb7ee56f4	-2.8412302e-05
46	0x38cfe36b	9.912889e-05
47	0xb81c3ec9	-3.725177e-05
48	0xb91920ab	-0.00014603387
49	0xb641a1b8	-2.8853374e-06
50	0xb5a28817	-1.2109548e-06
51	0xb9ec7c1d	-0.000451059
52	0x3975ab79	0.000234289
53	0xb9341f57	-0.00017177813
54	0xb947f6c2	-0.00019070043
55	0x39cc3cef	0.0003895531
56	0xb9adee4d	-0.0003317468
57	0xb90c914f	-0.00013405572
58	0xba024d2e	-0.0004970607
59	0xba257f23	-0.00063131953
60	0x38cba879	9.711175e-05
61	0xb8028a2a	-3.112309e-05
62	0xb95f6db0	-0.00021307799
63	0xb9a3ed39	-0.00031266527

conv5.weight f4 [80, 64, 3, 3]
0	0xbd836911	-0.06416524
1	0xbd8aaf8d	-0.06771765
2	0xbd077ad2	-0.033076115
3	0xbc0958e3	-0.008383009
4	0xbcd6a234	-0.026200391
5	0x3c294acf	0.010332777
6	0xbd16e434	-0.036838725
7	0x3abb5cbf	0.0014294608
8	0x3b2bc9d9	0.002621284
9	0x3c8a8120	0.016907275
10	0xbb01eb49	-0.0019824079
11	0xbd0c06e0	-0.034186244
12	0xbd1aca97	-0.03779086
13	0xbcd6e97c	-0.02623438
14	0xbc3f04e4	-0.011658881
15	0x3d02f651	0.031973187
16	0xbce81805	-0.028331766
17	0xbce34b27	-0.027745796
18	0xbcac3285	-0.021020183
19	0x3c959c8b	0.018263122
20	0x3ac4f1d9	0.001502569
21	0xbc87647a	-0.016527403
22	0x3d0478b2	0.032341667
23	0x3cb1f18e	0.021721628
24	0xbd019154	-0.031632736
25	0x3ba77369	0.0051101935
26	0xbd1105ff	-0.03540611
27	0xbd86e5cd	-0.065868
28	0xbd455c39	-0.048183654
29	0xbd2c0266	-0.041994475
30	0xbc1137d4	-0.008863408
31	0xbbfa4668	-0.0076377876
32	0x3cad2b6a	0.021138866
33	0x3cd0ba3a	0.025479425
34	0x3c2ddfef	0.010612472
35	0x3cd9ffda	0.026611257
36	0x3adbba76	0.0016763944
37	0x3cbf19b6	0.02332769
38	0xbcfc3698	-0.030787751
39	0x3ca6a081	0.020340206
40	0xbbe45062	-0.00696759
41	0x3c3e8053	0.011627275
42	0x3a0e3747	0.0005425107
43	0x3d174662	0.036932357
44	0x3d26d389	0.04072908
45	0x3d170505	0.03687002
46	0x3a7451e4	0.0009320064
47	0x3d065852	0.032799073
48	0x3d12c49d	0.035832036
49	0x3c0b8907	0.008516557
50	0x3d0ed120	0.034867406
51	0x3c8b675d	0.01701706
52	0xbc6967b9	-0.014245921
53	0x3bf2ae95	0.0074060657
54	0xbb830e12	-0.00399948
55	0xbc327cd1	-0.010894016
56	0x3d1a0935	0.037606437
57	0xbca63d31	-0.02029285
58	0xbc8f7c41	-0.017515304
59	0xbd48f598	-0.04906234
60	0x3cb3d7cb	0.021953484
61	0xb9280344	-0.00016022945
62	0x3d0c5c24	0.03426756
63	0x3cc95e98	0.024581239
64	0xbd1c1fff	-0.03811645
65	0xbd2ca746	-0.042151712
66	0xbd067385	-0.03282501
67	0x3bc3ee55	0.005979339
68	0xbcafb231	-0.021447273
69	0xbd1b7e6e	-0.03796237
70	0xbd31bc87	-0.043392684
71	0xbcd77680	-0.026301622
72	0xbd2563f0	-0.04037851
73	0xbd44cd88	-0.048047572
74	0xbd18b6b2	-0.037283607
75	0xba0ece3c	-0.00054476014
76	0xbc9c537a	-0.019082773
77	0x3cf3771f	0.029719887
78	0xbc02ac16	-0.007975599
79	0xbc591572	-0.013249742
80	0xbd037967	-0.0320982
81	0xbc82008b	-0.0158694
82	0xbd372881	-0.044716362
83	0xbd8566cd	-0.06513748
84	0x3ab5f81e	0.0013883149
85	0xbc075870	-0.008260831
86	0x3cc4ad71	0.024008485
87	0xbcc4116b	-0.023934087
88	0xbd04fecb	-0.032469552
89	0x3d1aae8f	0.03776413
90	0xbc096ced	-0.008387786
91	0x3b80be0a	0.0039289044
92	0x3a1e3d63	0.0006036369
93	0xbd3ba10e	-0.04580789
94	0x3b9fa80e	0.0048723286
95	0xbd34af57	-0.04411253
96	0xbba238d8	-0.004950624
97	0xbd159c4c	-0.03652601
98	0xba39a5ff	-0.0007081925
99	0x3b513a21	0.0031925517
100	0xbd2557d2	-0.040366955
101	0x3c87f161	0.01659459
102	0x3d01e338	0.031710833
103	0xbc84877f	-0.01617789
104	0x3d2d6fbb	0.042342883
105	0xbc6e8f14	-0.01456048
106	0x3c03c19b	0.008041765
107	0xbd7f1008	-0.062271148
108	0xbd3bd6ae	-0.04585903
109	0x3cc617bf	0.024181245
110	0x3cb18737	0.02167092
111	0xbd3252f5	-0.043536145
112	0xbc9e5bc7	-0.019330872
113	0xbcf23804	-0.029567726
114	0xbd1a9866	-0.037742995
115	0xbd1264c8	-0.035740644
116	0xbbfbeadd	-0.00768791
117	0xbca0dc75	-0.019636372
118	0x3d241c69	0.040066157
119	0xbcbfeeeb	-0.023429355
120	0x3c309ecd	0.010780049
121	0xbd3e1533	-0.046406936
122	0x3c65902f	0.014011427
123	0x3cb76c41	0.022390487
124	0xbcd71460	-0.026254833
125	0xbcfa626c	-0.03056451
126	0x3ceae789	0.028674858
127	0x3ca16ceb	0.019705256
128	0xbc59e772	-0.01329981
129	0x3c0cf542	0.008603396
130	0xbd2a58b1	-0.04158849
131	0xbbfcaba0	-0.007710889
132	0xbcfe3928	-0.031033114
133	0xbc7bb14b	-0.015362094
134	0xbd00694a	-0.03135041
135	0xbd3595fe	-0.044332497
136	0xb903c668	-0.00012567046
137	0x3ca37de4	0.01995749
138	0x3d135778	0.03597209
139	0x3c95a100	0.018265247
140	0xbbbf5a71	-0.005839639
141	0x3abc3b19	0.0014360874
142	0xbd224ddf	-0.039625045
143	0x3cb7ef02	0.022452835
144	0xbce7176f	-0.028209416
145	0xbcd33ade	-0.025784906
146	0x3caae02e	0.02085885
147	0x3c8a16c3	0.016856557
148	0xbcce7567	-0.025202466
149	0xbcf5a964	-0.029987998
150	0x3cb49f3a	0.022048581
151	0x3ca2362a	0.019801218
152	0xbd1d118c	-0.038346812
153	0x3d1d96dc	0.03847395
154	0x3cf353bd	0.029703015
155	0xbcb8cdf6	-0.022559147
156	0xbc2541f6	-0.010086527
157	0x3c1464e9	0.009057262
158	0x3c4bf201	0.012447835
159	0x3c0f3434	0.008740474
160	0xbbf4216b	-0.007450273
161	0xbc0515af	-0.008122846
162	0xbbadabff	-0.0053000445
163	0x3c4cf821	0.01251033
164	0xbd1662e3	-0.0367154
165	0x3aaa1fcd	0.0012979448
166	0xbc8afd4e	-0.016966488
167	0xbba4b75b	-0.0050267405
168	0xbd1ae96f	-0.037820276
169	0xbd5da50a	-0.05411247
170	0xbc934ccf	-0.017980961
171	0x3cea0d29	0.028570728
172	0x3caafd97	0.020872874
173	0xbd471663	-0.048605334
174	0xbbf317ed	-0.0074186237
175	0xbc6bc67e	-0.014390586
176	0xbc00d06f	-0.007862194
177	0x3babbcfb	0.005241034
178	0xbca7f919	-0.020504521
179	0x3ca239e1	0.01980299
180	0xbc0df146	-0.008663481
181	0xbd06979e	-0.032859437
182	0xbc6cb5c8	-0.014447637
183	0x3b7ebe1b	0.0038870636
184	0x3b31f657	0.0027154887
185	0xbc149d7d	-0.009070751
186	0x3cd0c526	0.025484633
187	0x3b3c71bf	0.0028754321
188	0xbd18634d	-0.037204076
189	0xba627364	-0.00086384104
190	0xbc23ab2f	-0.009989544
191	0xbc8a7863	-0.016903108
192	0x3bfa57c4	0.007639857
193	0x3c900785	0.01758171
194	0xbce6c9e0	-0.028172433
195	0xbd5d5c14	-0.05404289
196	0xbc384125	-0.011246
197	0xbbe7b9d0	-0.007071711
198	0xba2f5a00	-0.0006689131
199	0xbd4dc3f5	-0.050235707
200	0x3cd44120	0.02590996
201	0xbbcb52ee	-0.0062049543
202	0xbc9acf68	-0.018897727
203	0x3c9d25b8	0.019183025
204	0xbd412cff	-0.047162052
205	0x3d07f8b4	0.033196166
206	0xba25d424	-0.0006325862
207	0xbbea70b0	-0.0071545467
208	0xbd7380da	-0.059449054
209	0xbd7ef3d4	-0.06224425
210	0xba8eb24a	-0.0010886875
211	0xbc70cefe	-0.014697788
212	0xbb23a25a	-0.0024968595
213	0xbd3ec4c0	-0.046574354
214	0xbc80b306	-0.015710365
215	0x3c2147f5	0.009843816
216	0xbc01383c	-0.0078869425
217	0x3af5303d	0.0018706393
218	0xbd56e0bb	-0.052460413
219	0xbc5e4b49	-0.013567754
220	0x3d065172	0.032792516
221	0x3cc0dde5	0.023543308
222	0x3c9afb2e	0.0189186
223	0x3bf7fd85	0.0075680637
224	0xbaaf404f	-0.0013370606
225	0xbcb4e3a8	-0.022081211
226	0x3ce862c6	0.028367411
227	0xbcfb7579	-0.030695664
228	0x3cb5b7b4	0.022182323
229	0xbd324388	-0.043521434
230	0xbc07ddf5	-0.008292665
231	0xbd395045	-0.045242567
232	0xbd2d6c44	-0.04233958
233	0x3c8434c8	0.01613845
234	0xbc5b0f84	-0.013370398
235	0x3a244cb1	0.00062675314
236	0xbd2e6f49	-0.0425866
237	0xbc51159b	-0.012761499
238	0x3cf25355	0.029580751
239	0x3ccf742a	0.025323946
240	0x3b928778	0.0044717155
241	0xbd0652fe	-0.03279399
242	0xbc9b0e35	-0.018927673
243	0xbcd00093	-0.025390899
244	0xbce12d89	-0.027487533
245	0xbc3660fd	-0.011131522
246	0xbd5a5c5f	-0.05331075
247	0x3c840190	0.016114026
248	0xbb97dd15	-0.0046345093
249	0x383743e7	4.369384e-05
250	0xbd7c30f5	-0.061570127
251	0xbc3db3bf	-0.011578499
252	0xbcb280ee	-0.021789994
253	0xbc9c6b88	-0.019094244
254	0x3be95c4a	0.0071215974
255	0xbc547224	-0.012966666

conv5.bias f4 [80]
0	0xba01603b	-0.0004935299
1	0xb99e709f	-0.00030220018
2	0xb9cbb72d	-0.00038855654
3	0x396746d5	0.00022056264
4	0x39c0849c	0.00036719895
5	0x39543dbd	0.00020240895
6	0x398a91d3	0.0002643006
7	0x38885fd3	6.502834e-05
8	0x39b0d4bd	0.00033727838
9	0x3a8325e7	0.0010005803
10	0xb97bb514	-0.00024004682
11	0x39c252f0	0.00037064357
12	0x39ce42a3	0.0003934103
13	0xb8a5a42b	-7.898392e-05
14	0x36f271ff	7.225433e-06
15	0xb98c8e27	-0.00026808793
16	0x3782ece1	1.5607513e-05
17	0x39adbe5b	0.00033138957
18	0x35d524ae	1.5880412e-06
19	0xb99df3ff	-0.00030127165
20	0xb70d4223	-8.419654e-06
21	0xba27ab83	-0.00063961017
22	0x38b0b912	8.426806e-05
23	0x3a2c0545	0.00065620645
24	0x39b9c0d0	0.00035429606
25	0x39eca642	0.000451373
26	0x38c7cffc	9.5277996e-05
27	0x37b33feb	2.1368227e-05
28	0xb9c9db77	-0.00038501222
29	0x3a41f26d	0.000739849
30	0x39a77a4e	0.00031943846
31	0xb8d6d669	-0.00010244252
32	0x3935d578	0.00017341028
33	0xb9bf6732	-0.00036507245
34	0x38d1efc9	0.0001001056
35	0xb92f3348	-0.00016708404
36	0x39f73d86	0.0004715735
37	0x39182b35	0.00014511945
38	0x3a25aaa4	0.0006319678
39	0x3a18d615	0.00058302406
40	0xb9a65d22	-0.00031731377
41	0xb9a6d027	-0.00031817073
42	0x3a0860b2	0.0005202397
43	0xb7f87010	-2.9616087e-05
44	0x38dfc8c6	0.000106708656
45	0xb9f9c136	-0.00047636934
46	0xb9eef1e3	-0.00045575117
47	0xb9188a2d	-0.00014547324
48	0x38feb453	0.00012145252
49	0x39c2d5cb	0.00037161852
50	0x3937226a	0.0001746506
51	0x39622a6f	0.00021568847
52	0x39699382	0.00022275563
53	0xba46ab7c	-0.0007578654
54	0xb7d6b80f	-2.5596497e-05
55	0xb8ce9720	-9.850995e-05
56	0x38a916c7	8.0627906e-05
57	0xba476f66	-0.0007607847
58	0x38a9bf0a	8.094132e-05
59	0x393131f0	0.00016898639
60	0xb9474eef	-0.00019007524
61	0x392b360f	0.00016327969
62	0x398b764a	0.00026600278
63	0xb9158384	-0.0001425874
64	0x380991b6	3.279905e-05
65	0x38593f70	5.1795912e-05
66	0x39bf655a	0.00036505872
67	0xba166dac	-0.0005738388
68	0x36ccde16	6.105528e-06
69	0x39742a2c	0.00023285364
70	0x3a186d31	0.00058146106
71	0xb8352ec9	-4.3197335e-05
72	0xb8e93506	-0.00011120182
73	0xba3c5c8a	-0.000718542
74	0x3a9a4f19	0.001177284
75	0xb7052912	-7.93698e-06
76	0xb9da58b3	-0.00041646286
77	0x38d2d9e8	0.000100541685
78	0xb97e047e	-0.00024225001
79	0xb88eaea7	-6.803619e-05

bn1a.weight f4 [16]
0	0x3f79505a	0.9738823
1	0x3f847770	1.034895
2	0x3f749e82	0.95554364
3	0x3f78a66d	0.97128946
4	0x3f81867c	1.0119166
5	0x3f7ec381	0.99517065
6	0x3f810b8a	1.0081646
7	0x3f777b24	0.9667227
8	0x3f835455	1.0260111
9	0x3f74b08d	0.95581895
10	0x3f836b79	1.0267173
11	0x3f7b3a60	0.9813595
12	0x3f7f4f9d	0.99730855
13	0x3f7b2179	0.9809795
14	0x3f814db7	1.0101842
15	0x3f76f9da	0.96474993

bn1a.bias f4 [16]
0	0x3c01b721	0.0079171965
1	0x3cf49be0	0.029859483
2	0xbd0c02ef	-0.034182485
3	0xbc31203e	-0.01081091
4	0x3c09b51c	0.008404996
5	0xbafa296b	-0.001908583
6	0x3d51311f	0.051072236
7	0xbcaffbdc	-0.0214824
8	0x3cbbe80e	0.0229378
9	0xbcbe3f49	-0.023223536
10	0x3d16d10c	0.036820456
11	0xbb011d5c	-0.0019701337
12	0x3b6a5075	0.0035753523
13	0xbd0a831c	-0.033816442
14	0x3cc7b0c8	0.024376288
15	0xbc8f5615	-0.017497102

bn1a.running_mean f4 [16]
0	0x406175e4	3.5228205
1	0x3ecf7b3c	0.40523708
2	0xc082de16	-4.08961
3	0xbfef8a65	-1.871411
4	0xc043dbc9	-3.0602896
5	0x407bd929	3.9351294
6	0x4011398f	2.269138
7	0xbf42317a	-0.75856745
8	0x3ee8f1b2	0.454969
9	0x403aa29a	2.9161744
10	0xc0ca3e22	-6.3200846
11	0xc0b0de1a	-5.527112
12	0xc08625ec	-4.192129
13	0x410cb206	8.793463
14	0xc0a12e71	-5.036919
15	0x3ee12069	0.4397004

bn1a.running_var f4 [16]
0	0x44879c2c	1084.8804
1	0x43980629	304.04813
2	0x43f09b34	481.21252
3	0x44739a4b	974.4108
4	0x43c9ee49	403.8616
5	0x439b608f	310.75436
6	0x446f12cf	956.2939
7	0x44c75af1	1594.8419
8	0x43909808	289.18774
9	0x442fdd7b	703.46063
10	0x447adf7a	1003.4918
11	0x43dabf80	437.4961
12	0x43f2d419	485.657
13	0x44b734d3	1465.6508
14	0x4442e973	779.64764
15	0x43cb0420	406.03223
