pc端哭声检测/GLAM-main/GLAM-main/lyh/liuyanhao/data/model_MHCNN_mfcc.pth (torch, 645145 bytes, 62 tensors)

conv1a.weight f4 [8, 1, 10, 2]
0	0xbd861e25	-0.06548718
1	0x3d6fafed	0.058517385
2	0x3cb57254	0.022149242
3	0xbd8872b5	-0.06662504
4	0x3e853885	0.26019683
5	0x3e5d1cd0	0.21593022
6	0xbdfc431d	-0.12317488
7	0xbdab27bd	-0.08357189
8	0x3cd64c90	0.026159555
9	0xbe4cfca1	-0.20018245
10	0xbea32bef	-0.31869456
11	0xbbc75e20	-0.0060842186
12	0xbeac8ee3	-0.33702764
13	0xbeb6e7c2	-0.35723692
14	0xbeb9196a	-0.36152202
15	0xbc8eee07	-0.017447485
16	0x3e075423	0.1321569
17	0x3e4ba1a0	0.19885874
18	0xbc9064d2	-0.0176262
19	0x3ce46af8	0.027883038
20	0xbe3a7faa	-0.18212762
21	0x3df97783	0.12180998
22	0x3d8b685b	0.068070136
23	0xbcc1814b	-0.023621222
24	0x3d7b8d79	0.061414216
25	0x3d92937a	0.07157035
26	0x3e66c2e7	0.22535287
27	0x3d035346	0.032061838
28	0x3c52099c	0.012819674
29	0xbd9b2ee2	-0.075773016
30	0xbe8d4430	-0.27591085
31	0xbe93699c	-0.2879151
32	0x3d0ef5c3	0.034902345
33	0x3e79abca	0.24381939
34	0x3dabd765	0.083906926
35	0x3e450f1f	0.1924405
36	0x3c812bb0	0.015767902
37	0xbe29d35e	-0.16584536
38	0xbe7639b7	-0.24045454
39	0xbe40948e	-0.18806669
40	0x3e370e68	0.1787659
41	0x3e4f40c5	0.20239551
42	0x3dd2a3c4	0.10285142
43	0x3daaf7b6	0.08348028
44	0x3d385156	0.044999443
45	0xbbf07329	-0.007337947
46	0x3d8f28e7	0.069902234
47	0xbe0ac5b8	-0.13551986
48	0xbc1e3dfc	-0.009658333
49	0x3cef158b	0.029185077
50	0xbd9e78c7	-0.0773788
51	0x3e1677ab	0.14694087
52	0x3e07d18e	0.13263533
53	0xbe68b1ea	-0.22724119
54	0xbd3cfeb9	-0.04614136
55	0x3b858c9e	0.0040756008
56	0x3dc9d1b6	0.09854452
57	0x3de4d351	0.11173118
58	0xbe773568	-0.24141467
59	0xbe84243e	-0.258089
60	0x3d239615	0.03993805
61	0xbdf0235f	-0.117254965
62	0xbc90c129	-0.017670231
63	0x3e7bdcb4	0.2459591
64	0xbdd19a46	-0.102345034
65	0x3d59d8ef	0.0531854
66	0x3e1a8229	0.15088715
67	0x3e8e66bd	0.27812758
68	0xbe4bb8d8	-0.19894731
69	0x3e44c752	0.1921666
70	0xbe815ce5	-0.25266185
71	0xbe8731c6	-0.26405162
72	0xbe21bff2	-0.15795878
73	0xbe5c6ce4	-0.21525913
74	0xbdc44855	-0.09584109
75	0xbea78589	-0.32719067
76	0xbe030dc4	-0.1279822
77	0x3e02900f	0.12750266
78	0x3d140b5f	0.036143657
79	0x3de1564d	0.11002789
80	0xbdfdcd01	-0.12392617
81	0x3e366694	0.17812568
82	0xbdbb0752	-0.091322556
83	0x3e35a9d3	0.17740564
84	0x3e2eb49d	0.17061086
85	0x3d681523	0.056660783
86	0x3b564c01	0.003269911
87	0x3d6a8283	0.057253372
88	0x3d9e3526	0.07724981
89	0xbe0ee800	-0.13955688
90	0x3d89b013	0.067230366
91	0xbe467f3c	-0.19384474
92	0x3dfd09c2	0.12355377
93	0x3e373784	0.17892271
94	0x3e17d4b2	0.1482723
95	0x3c7f9888	0.015600331
96	0xbe792f44	-0.24334437
97	0xbe078443	-0.13234048
98	0x3ea525d5	0.32255426
99	0x3e9cd6d6	0.30632657
100	0x3dcac45a	0.09900732
101	0xbdf832be	-0.12119053
102	0x3e0a6c45	0.13517864
103	0xbe1fa8ca	-0.15591732
104	0x3e6f4df0	0.23369575
105	0xbd90bc4c	-0.07067165
106	0xbe872c18	-0.26400828
107	0xbd8b7988	-0.068102896
108	0xbda8595f	-0.08220171
109	0xbd8f69fd	-0.070026375
110	0x3d4b6691	0.04965836
111	0xbe84c399	-0.2593048
112	0xbda2799d	-0.07933352
113	0xbd925c2a	-0.07146485
114	0xbea3a334	-0.31960452
115	0xbcdf1afa	-0.027234543
116	0x3e3942ea	0.18091932
117	0xbd05c45e	-0.032657973
118	0xbd4791cb	-0.048723023
119	0xbe1052cc	-0.14094085
120	0xbe1b5258	-0.1516813
121	0x3beeb1e0	0.007284388
122	0xbe0fb512	-0.14033917
123	0xbc15f4b4	-0.00915258
124	0xbe62ab34	-0.22135621
125	0x3d0f012f	0.03491324
126	0xbe56e9dc	-0.20987648
127	0xbd4595ac	-0.04823844
128	0x3e2b9f35	0.16759951
129	0x3dfe3035	0.124115385
130	0xbe743dce	-0.23851702
131	0xbe9e1a99	-0.30879667
132	0x3d9f5a32	0.07780875
133	0xbe75bfa8	-0.23998892
134	0x3dc52563	0.096262716
135	0x3e3960d3	0.18103342
136	0x3e30beed	0.17260332
137	0xbd84d8cf	-0.064866655
138	0x3dcb476e	0.099257335
139	0xbe1c4289	-0.15259756
140	0xbe474a8b	-0.1946203
141	0xbde07f7e	-0.10961817
142	0xbe1211c4	-0.1426459
143	0xbcfb4396	-0.030671876
144	0x3e370ead	0.17876692
145	0x3d9b9eb4	0.075986296
146	0xbdbd1f8a	-0.09234531
147	0x3dbe070e	0.09278689
148	0x3e472cd5	0.19450696
149	0x3e66598e	0.224951
150	0x3e2972e7	0.16547738
151	0xbe51f63c	-0.20504087
152	0xbdfd845d	-0.12378762
153	0x3d657cb3	0.056027126
154	0xbe2bb748	-0.16769135
155	0xbe7baa70	-0.24576735
156	0x3d851ea7	0.06499987
157	0x3e075e84	0.13219649
158	0xbeda399b	-0.42622074
159	0xbebaae0b	-0.3646091

conv1a.bias f4 [8]
0	0x3784dc7e	1.58383e-05
1	0x3863c172	5.4301177e-05
2	0xb89ab9aa	-7.377875e-05
3	0xb84384ec	-4.6615416e-05
4	0xb8d03055	-9.9272154e-05
5	0x368035d7	3.820965e-06
6	0x37afe2e0	2.0967273e-05
7	0x38b0530e	8.407804e-05

conv1b.weight f4 [8, 1, 2, 8]
0	0x3d7b3f24	0.061339512
1	0xbd16413a	-0.0366833
2	0x3e2b505c	0.16729873
3	0x3e5ca85f	0.21548603
4	0xbe4938ac	-0.19650525
5	0x3d1c13e2	0.0381049
6	0x3e83d154	0.25745642
7	0x3e89ed10	0.26938677
8	0xbe25a3c2	-0.1617575
9	0xbc2a05bc	-0.010377344
10	0x3d7803cf	0.060550507
11	0xbe5f646e	-0.21815655
12	0x3d1348c9	0.035958085
13	0xbd9f07c4	-0.07765153
14	0xbe41c118	-0.18921316
15	0xbe42c570	-0.19020629
16	0xbe2bf6ca	-0.16793361
17	0xbdde2dd2	-0.10848583
18	0x3e6372d5	0.22211774
19	0xbe153584	-0.14571196
20	0xbe07e015	-0.13269074
21	0x3df60c4b	0.120140634
22	0xbdfe38a2	-0.124131456
23	0xbe5875b8	-0.21138656
24	0xbe134fdd	-0.14385934
25	0x3dfcabd9	0.12337465
26	0x3e57e834	0.21084672
27	0x3d5474bd	0.051869143
28	0x3d1fbded	0.038999487
29	0xbde7ff07	-0.113279395
30	0xbea9e265	-0.33180538
31	0xbddfcf6a	-0.10928233
32	0x3e382523	0.17982917
33	0x3e8ee03b	0.2790545
34	0xbe4baac5	-0.19889362
35	0x3e698830	0.22805858
36	0xbe55dafb	-0.20884316
37	0x3e3a8fc4	0.18218905
38	0x3e23d2e3	0.15998416
39	0x3e92d9c6	0.28681773
40	0xbdb15f07	-0.08660703
41	0xbd5cb2ba	-0.053881384
42	0x3e3694ae	0.17830154
43	0x3e3be736	0.18349919
44	0x3e08cd90	0.13359666
45	0x3e01bea7	0.12670384
46	0xbe3c4863	-0.18386988
47	0x3d253624	0.040334836
48	0xbe183e6e	-0.14867565
49	0x3cb2ee79	0.021842228
50	0x3e7123ab	0.23548763
51	0x3e8cb324	0.27480423
52	0xbbd006cf	-0.006348468
53	0x3def8be2	0.116966024
54	0x3d189c58	0.037258476
55	0x3e6840a8	0.22680914
56	0x3e4115a4	0.18855911
57	0x3ddb1e40	0.10699129
58	0x3e69ed96	0.22844538
59	0xbda78735	-0.081800856
60	0x3d04e741	0.032447103
61	0x3d69e323	0.05710138
62	0x3dea87a5	0.114516534
63	0xbda3cc35	-0.07997934
64	0x3e6e3ad5	0.2326463
65	0x3dac8ab5	0.08424894
66	0x3e473571	0.1945398
67	0xbdc312e4	-0.095250875
68	0xbda6d670	-0.081463695
69	0xbe10f5b2	-0.14156225
70	0xbe71adab	-0.23601405
71	0x3d78786d	0.060661722
72	0x3e5dd259	0.21662273
73	0x3d5f8977	0.054574456
74	0xbdeafcb2	-0.11473979
75	0xbd3ceeaf	-0.046126064
76	0xbe8d483d	-0.27594176
77	0x3db861c5	0.09003023
78	0x3e6d23f5	0.23158248
79	0xbe01dd39	-0.12682046
80	0x3be9fb57	0.0071405577
81	0x3e46c6a5	0.19411714
82	0x3e625716	0.22103533
83	0x3d1c1262	0.03810347
84	0x3e2ea8a0	0.17056513
85	0xbd59961b	-0.053121667
86	0xbdfac512	-0.122446194
87	0x3df1fefc	0.118162125
88	0x3d00977c	0.031394467
89	0x3c934b84	0.017980345
90	0x3d822ea0	0.06356549
91	0xbc615a98	-0.013754509
92	0xbdc33e44	-0.095333606
93	0xbe982c93	-0.29721507
94	0xbe8afecf	-0.2714753
95	0xbe75c3c4	-0.2400046
96	0x3de54e5e	0.11196588
97	0x3e11319d	0.14179082
98	0xbe47ec8e	-0.19523832
99	0xbdd0708f	-0.10177719
100	0xbe274cfa	-0.16337958
101	0xbe424748	-0.18972504
102	0x3e997f47	0.29979917
103	0x3c1d826e	0.009613616
104	0x3d11934f	0.035540875
105	0x3e77a1b2	0.24182776
106	0xbe2bc8c1	-0.167758
107	0x3e5643ee	0.2092435
108	0x3d7b81bc	0.06140302
109	0x3e33f4f4	0.17573911
110	0x3cccffc9	0.025024312
111	0xbd0b6820	-0.03403485
112	0xbb3e86f5	-0.002907214
113	0x3dba7582	0.09104444
114	0x3c6dd21b	0.014515425
115	0xba3f996e	-0.00073089346
116	0xbe24f5dd	-0.16109414
117	0x3c992e5e	0.018698867
118	0xbe666fa6	-0.22503528
119	0xbe3b8dd3	-0.1831582
120	0x3e37dad3	0.17954569
121	0x3e1eb3d0	0.1549828
122	0x3e6653e3	0.22492938
123	0xbd7024b4	-0.058628753
124	0xbdbf6281	-0.0934496
125	0x3e77bfb6	0.24194226
126	0x3e512347	0.20423613
127	0xbd83f469	-0.06443102

conv1b.bias f4 [8]
0	0x3698c160	4.552465e-06
1	0xb4f47bc2	-4.5538587e-07
2	0xb79df2a4	-1.8828847e-05
3	0xb818c5be	-3.6423786e-05
4	0xb7544105	-1.2651323e-05
5	0x3853554e	5.0385766e-05
6	0x38dde2e0	0.0001058036
7	0x37d6bf0d	2.5599753e-05

conv2.weight f4 [32, 16, 3, 3]
0	0xbd7b1e21	-0.06130803
1	0x3da27892	0.07933153
2	0x3d07760a	0.033071555
3	0xbc830580	-0.015993834
4	0x3d40afd5	0.047042686
5	0x3ceb11b0	0.028694957
6	0xbdfdf40e	-0.12400065
7	0xbcc74e39	-0.024329292
8	0xbd72da9e	-0.05929052
9	0xbdd9a31f	-0.10626816
10	0xbdd7a9cc	-0.10530433
11	0xbe2e86da	-0.1704363
12	0xbb97667f	-0.004620373
13	0xbe3c80f4	-0.18408567
14	0xbdc7f23d	-0.09763
15	0x3d589240	0.05287385
16	0x3c65183b	0.013982828
17	0x3d5faddc	0.054609165
18	0x3c9e2c02	0.019308094
19	0xbd226c23	-0.03965391
20	0xbde28e0b	-0.11062249
21	0x3bcebf7b	0.0063094473
22	0x3dca2ef6	0.09872238
23	0x3dcffda9	0.10155804
24	0x3d63e231	0.055635635
25	0x3d1dce1a	0.038526632
26	0x3bca78d7	0.006178956
27	0xbe0c57a2	-0.13705304
28	0xbb08cadf	-0.0020872874
29	0xbe2a5170	-0.16632628
30	0x3cf413a3	0.02979452
31	0xbd7e16e7	-0.06203356
32	0x3d507dfb	0.050901394
33	0xbcdeb0bc	-0.027183883
34	0xbce11760	-0.027476966
35	0xbdd2e8d8	-0.10298318
36	0x3d92523c	0.07144591
37	0x3dd2906b	0.10281452
38	0x3d8f9f12	0.07012762
39	0xbd5f8c53	-0.054577183
40	0xbe2a2ef9	-0.16619481
41	0xbe1784f6	-0.14796814
42	0x3d6251bb	0.055253725
43	0x3cf6d74d	0.03013196
44	0x3d9a9873	0.07548609
45	0x3c8c42ad	0.017121637
46	0xbde141cd	-0.10998879
47	0xb946e6d6	-0.00018968745
48	0x3d52dcf3	0.051480245
49	0x3d33158f	0.04372173
50	0x3c8badc9	0.01705064
51	0x3bd48d05	0.0064865374
52	0xbdedc062	-0.1160896
53	0x3b99eb9b	0.004697276
54	0xbdcdd2f0	-0.10049999
55	0xbd25e452	-0.040500946
56	0xbd3277ea	-0.04357139
57	0xbb5a0183	-0.0033265061
58	0x3d474a6d	0.048654962
59	0x3d391c88	0.045193225
60	0x3dc0993a	0.09404226
61	0x3dd3d24e	0.10342847
62	0x3d6a65e6	0.057226084
63	0xbdf04869	-0.11732561
64	0xbde0bef6	-0.10973923
65	0xbe3c2f54	-0.18377429
66	0x3dae7473	0.08518305
67	0x3df4ef55	0.119597115
68	0x3c3ffe24	0.011718307
69	0x3d09ce80	0.0336442
70	0xbd994fc9	-0.07485921
71	0xbb2daf74	-0.0026502283
72	0xbe4b2e75	-0.1984194
73	0xbe02c17e	-0.12769124
74	0xbd85db31	-0.06535948
75	0xbe59b308	-0.21259701
76	0xbdb49bf7	-0.088188104
77	0xbe0f745b	-0.1400923
78	0xbb03e9e3	-0.002012842
79	0xbd84aaa8	-0.064778626
80	0xbd6633d5	-0.056201775
81	0xbcd41a44	-0.02589143
82	0xbd5dfc08	-0.054195434
83	0x3d94357c	0.07236764
84	0x3a3270e9	0.0006806986
85	0x3d18b17f	0.03727865
86	0xbd8de964	-0.06929281
87	0xbd8ed221	-0.06973673
88	0xbdecd0c7	-0.115632586
89	0xbe04c25d	-0.12964769
90	0xbd82fbb6	-0.06395666
91	0xbc5cf5fd	-0.013486383
92	0xbd80e91e	-0.062944636
93	0xbd8371d7	-0.064181976
94	0x3da83b46	0.082144305
95	0xbd2486e1	-0.040167693
96	0xbe036db2	-0.12834814
97	0xbdbd0d1b	-0.09231015
98	0xbe1a60ed	-0.15076037
99	0xbd615d80	-0.05502081
100	0xbc47df3c	-0.012199219
101	0xbddbe4f8	-0.10737032
102	0x3c1cf85f	0.009580701
103	0x3d854d2c	0.0650886
104	0xbd91c214	-0.071170956
105	0x3cfdf349	0.030999796
106	0xbd1f9ec8	-0.038969785
107	0xbd9dcabf	-0.077046864
108	0xbdaaaf9b	-0.08334275
109	0xba030a5c	-0.0004998797
110	0xbdc169af	-0.09443986
111	0xbda4f12d	-0.08053813
112	0xbdeaaad2	-0.11458363
113	0xbd1e776c	-0.03868811
114	0x3e2dfdb4	0.16991311
115	0x3db04a8e	0.0860797
116	0xbc7003cd	-0.014649344
117	0xbe51e415	-0.20497163
118	0xbe1ed3f7	-0.15510546
119	0xbe092209	-0.1339189
120	0xbe08a16d	-0.13342829
121	0xbd7cf0c1	-0.06175304
122	0xbdbcfd82	-0.0922804
123	0x3c263b05	0.010145907
124	0x3d84e3a0	0.064887285
125	0xbdc10b04	-0.09425929
126	0xbdab0861	-0.083512075
127	0xbda83ee2	-0.08215119
128	0xbd07cb2a	-0.033152737
129	0xbc9ebcd5	-0.019377152
130	0xbc96725e	-0.018365081
131	0xbe26e953	-0.16299944
132	0x3d7fb9bc	0.06243299
133	0xbd374b71	-0.04474968
134	0xbe2b9686	-0.16756639
135	0xbcef9d61	-0.029249849
136	0x3d2e14bd	0.042500246
137	0xbdaf6a2f	-0.08565175
138	0xbc9f61d2	-0.019455824
139	0xbd089565	-0.0333456
140	0xbe11a277	-0.14222132
141	0x3cc3c27b	0.023896446
142	0x3bf2db3c	0.0074113887
143	0xbd47b56f	-0.048757013
144	0xbe17a4fc	-0.1480903
145	0xbe65bc75	-0.22435172
146	0xbe4fca0f	-0.20291923
147	0xbc47d38d	-0.012196434
148	0xbdbab93d	-0.09117363
149	0x3c85cddf	0.016333519
150	0xbdd2bbe7	-0.10289746
151	0xbdb13259	-0.08652181
152	0xbd1a33b7	-0.037646975
153	0xbd91d57e	-0.071207985
154	0xbd37140d	-0.044696856
155	0xbcc0527c	-0.023476832
156	0xbc8aa28b	-0.01692321
157	0xbd6faa8a	-0.058512248
158	0xbd9df94b	-0.077135645
159	0xbd9ced7d	-0.07662485
160	0x3d5bed4d	0.053693105
161	0x3d02fbcc	0.031978413
162	0x3c5b3f18	0.013381742
163	0xbdb87645	-0.09006933
164	0xbcc80bd0	-0.024419695
165	0xbdf15c31	-0.11785162
166	0xbe118b71	-0.14213349
167	0xbc01eb5f	-0.007929652
168	0xbe83e991	-0.25764135
169	0xbe864d92	-0.26231056
170	0xbe1cec6c	-0.15324563
171	0x3e018070	0.12646651
172	0x3d9c0176	0.07617466
173	0x3da241c5	0.07922701
174	0x3d2e4821	0.042549256
175	0xbe2862ad	-0.16443892
176	0xbca8558a	-0.0205486
177	0xbd4bfcdb	-0.04980169
178	0xbe47a0e4	-0.19494969
179	0xbdf367ea	-0.118850544
180	0xbd113794	-0.035453394
181	0x3cda37a9	0.026637869
182	0xbbe7e2d4	-0.0070766006
183	0xbe18311d	-0.14862485
184	0xbd17e159	-0.037080143
185	0x3d934aa2	0.071919695
186	0x3cb90a36	0.022587877
187	0x3bf638f6	0.0075141145
188	0x3c98777e	0.018611666
189	0xbd946228	-0.07245284
190	0x3c02b3c4	0.00797743
191	0xbdfbd4b7	-0.122964315
192	0x3d71c384	0.05902435
193	0x3cbf0704	0.023318775
194	0xbe05d70f	-0.1307032
195	0xbdb1bb2e	-0.0867828
196	0xbdfe8c98	-0.1242916
197	0x3bf23793	0.007391879
198	0x3db89392	0.09012522
199	0x3b562a77	0.003267912
200	0x3dc6c634	0.09705773
201	0x3cf18611	0.029482873
202	0x3d78009f	0.060547467
203	0x3da26cbe	0.07930897
204	0xbdaba391	-0.08380807
205	0xbd7bf40f	-0.06151205
206	0xbcad2453	-0.021135485
207	0xbdd4ce11	-0.103908665
208	0x3d52ac87	0.051434066
209	0xbcbfbe7b	-0.023406258
210	0xbd315455	-0.043293316
211	0xbdac7159	-0.08420057
212	0xbd27471c	-0.0408393
213	0x3d1b0f45	0.03785636
214	0x3dae9a7d	0.0852556
215	0x3d2a6709	0.04160217
216	0xbb7d719a	-0.0038672448
217	0xbd68e7b7	-0.056861605
218	0x3bb127aa	0.0054063397
219	0xbdbbc11f	-0.09167694
220	0x3b71eecc	0.0036916016
221	0x3c277118	0.010219835
222	0x3c16f58d	0.009213817
223	0xbbf34b3d	-0.0074247406
224	0x3dd87767	0.10569649
225	0xbd5d8723	-0.054083955
226	0x3d3ef764	0.04662265
227	0x3d598d7a	0.05311344
228	0x3d2366dd	0.03989302
229	0x3d8c38c4	0.06846765
230	0xbcda33fe	-0.02663612
231	0x3b3a62d6	0.0028440258
232	0xbdaf5311	-0.085607655
233	0xbe1769f4	-0.14786512
234	0x3daf74a0	0.08567166
235	0x3e06a13b	0.13147442
236	0x3dfc03cc	0.12305412
237	0xbd0c729a	-0.03428898
238	0xbd748834	-0.059700206
239	0x3db78c96	0.089623615
240	0xbbfd05c6	-0.0077216355
241	0xbd2c9631	-0.04213542
242	0xbd90a546	-0.070627734
243	0x3c3043d9	0.010758364
244	0x3c2138c3	0.009840193
245	0xbd489b6a	-0.04897634
246	0x3ce62b65	0.028096864
247	0xbdb9d4dc	-0.09073803
248	0xbd5de53d	-0.054173697
249	0xbd8bd0ea	-0.068269566
250	0xbdadf86e	-0.0849465
251	0x3d703d19	0.058652017
252	0x3dbc9437	0.09207957
253	0x3d82a658	0.06379384
254	0x3dce4b85	0.10072998
255	0x3de6ebdf	0.112754576

conv2.bias f4 [32]
0	0x39aa5d4a	0.00032494433
1	0xb9ca3e51	-0.00038574872
2	0x3989618e	0.0002620336
3	0x39e660c6	0.0004394112
4	0xb8f9d19e	-0.000119122895
5	0xba06fe33	-0.0005149573
6	0xb7efcd8a	-2.8586732e-05
7	0x3a0eab33	0.0005442381
8	0x3a23d93e	0.0006250328
9	0xbad90dda	-0.0016559914
10	0xbab9148e	-0.0014120506
11	0xba3b0649	-0.00071344204
12	0xba2c07f0	-0.0006562462
13	0xba9b4c64	-0.0011848328
14	0x38d39940	0.00010089809
15	0xb89eafb8	-7.566757e-05
16	0xb9c9c51a	-0.0003848456
17	0xba0b0084	-0.0005302506
18	0xb954b227	-0.00020284262
19	0x39e09688	0.00042836764
20	0xb9978655	-0.0002890105
21	0x3997b5ea	0.000289365
22	0x39b25191	0.00034011577
23	0xba1b1a5a	-0.00059167075
24	0xb885dd7d	-6.3831896e-05
25	0xba5fc032	-0.0008535414
26	0x3a8d7159	0.0010791227
27	0x3a34f23c	0.0006902551
28	0x3a60d1cb	0.00085761835
29	0xb9a5b804	-0.00031608355
30	0x3a05ff84	0.0005111622
31	0xba9744de	-0.001154091

conv3.weight f4 [48, 32, 3, 3]
0	0xbdc1b582	-0.09458448
1	0x3d7b2351	0.061312977
2	0x3ccdff91	0.025146278
3	0xbcb3040b	-0.021852514
4	0xbcb49a08	-0.022046104
5	0x3cf99b6f	0.030469624
6	0x3e183221	0.14862873
7	0x3ce4efaf	0.027946321
8	0x3d923c18	0.07140368
9	0xbb9836f5	-0.0046452233
10	0x3d44fc80	0.048092365
11	0xbda2aea9	-0.0794347
12	0xbca80836	-0.020511728
13	0x3b2a00ed	0.0025940493
14	0xbc9b2670	-0.018939227
15	0xbe2db023	-0.16961722
16	0xbd63580b	-0.055503886
17	0xbdceb122	-0.10092379
18	0x3d8e4e1c	0.06948492
19	0x3cc3edb4	0.023917057
20	0xbd3a1cf9	-0.045437787
21	0x3ccb3769	0.024806695
22	0x3cda8fcc	0.026679896
23	0x3d20883f	0.039192434
24	0x3bdc9676	0.0067318035
25	0xbbd848ec	-0.00660049
26	0x3ced7ef0	0.028991193
27	0xbcf614a5	-0.030039141
28	0xb9567407	-0.00020451854
29	0xbcf98d50	-0.03046289
30	0x3a4a93fd	0.00077277404
31	0xbb2f03b5	-0.002670509
32	0xbc963456	-0.018335503
33	0x3c922f2a	0.017844755
34	0xbd2989c5	-0.041391153
35	0x3ce7b3e1	0.028284015
36	0xbdbecdf8	-0.09316629
37	0xbc3c0409	-0.011475571
38	0xbcfc8fa5	-0.030830214
39	0x39797052	0.00023788333
40	0x3cc82cd1	0.024435433
41	0x3e1b989a	0.15194932
42	0xbd3162a7	-0.043306973
43	0xbd589ec1	-0.052885775
44	0xbe3e8fd1	-0.18609549
45	0xbce473d7	-0.027887268
46	0xbd9df767	-0.07713204
47	0xbd91228b	-0.07086667
48	0x3d8a6b63	0.06758764
49	0x3db0c700	0.08631706
50	0x3debbceb	0.115106426
51	0xbd1832bd	-0.037157763
52	0xbd4fb954	-0.050713852
53	0xbd72f380	-0.05931425
54	0x3d164bf7	0.03669354
55	0x3d4cc467	0.04999199
56	0x3d38c260	0.045107245
57	0x3d343443	0.043995153
58	0x3db3aca3	0.08773162
59	0xbc946965	-0.018116662
60	0xbd27d22c	-0.04097192
61	0xbd98c317	-0.074590854
62	0xba692d75	-0.0008895018
63	0xbcc83a33	-0.024441814
64	0xbc2d108c	-0.010563027
65	0x3cb18f20	0.021674693
66	0xbd932dc6	-0.07186465
67	0xbd646704	-0.055762306
68	0xbe095a84	-0.13413435
69	0xbd1ee3b5	-0.038791377
70	0xbde95dae	-0.11394821
71	0xbd77f2ed	-0.060534406
72	0xbbaedf7a	-0.005336699
73	0x3de5220d	0.11188135
74	0x3de35095	0.11099354
75	0xbe26e254	-0.16297275
76	0xbd2796c3	-0.040915262
77	0x3d0ac92c	0.03388326
78	0x3ddbb50c	0.10727891
79	0xb9921351	-0.00027861682
80	0xbadff2a9	-0.0017085868
81	0x3d21e32b	0.039523285
82	0xbd5a8bb0	-0.053355873
83	0xba1e1dbf	-0.0006031654
84	0xbe0b6a43	-0.13614754
85	0x3972b272	0.00023145395
86	0xbdab048a	-0.08350475
87	0xbd99a2ce	-0.07501756
88	0xbdeb68fa	-0.11494632
89	0xbd87efeb	-0.066375576
90	0xbde03e9d	-0.109494425
91	0xbda0eff2	-0.07858266
92	0xbdc4fd0a	-0.09618576
93	0x3d0164da	0.03159032
94	0x3d822e44	0.06356481
95	0x3d10708e	0.03526359
96	0x3cd43255	0.025902906
97	0xbaad8c70	-0.0013240706
98	0xbd2d1cb0	-0.042263687
99	0xbd37eb1f	-0.044901963
100	0xbc3aba56	-0.011396965
101	0xbd067e4f	-0.0328353
102	0x3d67e81f	0.056617852
103	0x3baf5200	0.0053503513
104	0x3ca306d5	0.019900719
105	0xbdf19ca4	-0.11797455
106	0xbdd491ec	-0.10379395
107	0xbbe031a8	-0.006841857
108	0xbc53f152	-0.012935953
109	0x3d426bc5	0.04746606
110	0xbc88b2fd	-0.01668691
111	0xbd5ef48b	-0.054432433
112	0xbdd2f235	-0.103001036
113	0xbd2bd08a	-0.041946925
114	0x3db577cb	0.08860739
115	0x3dbc21a6	0.091861054
116	0x3dcbd7d7	0.099532776
117	0xbc5759af	-0.013143941
118	0xbc8e4fa9	-0.01737197
119	0x3d0c6eb4	0.034285262
120	0xbd5dc574	-0.054143384
121	0xbc74ae2d	-0.014934105
122	0x3cdba932	0.026814077
123	0x3c4452e5	0.011982654
124	0x3cba714b	0.0227591
125	0x3d9ab583	0.07554152
126	0x3d4a4ff3	0.04939265
127	0x3d7f63ae	0.06235092
128	0xbc5173c8	-0.012783952
129	0x3d312371	0.04324669
130	0x3c51cce3	0.012805196
131	0xbc636deb	-0.013881187
132	0x3cd508a7	0.026005102
133	0xbda2c64e	-0.0794798
134	0xbd4d4286	-0.05011227
135	0x3ba55ef4	0.0050467197
136	0x3b1643e4	0.002292865
137	0x3d5da641	0.05411363
138	0x3cf47a9b	0.02984362
139	0x3d9c3ad7	0.0762841
140	0x3c8d6858	0.017261669
141	0xbe0113ba	-0.12605181
142	0xbdf2a5ab	-0.11848005
143	0xbe1bd35b	-0.15217344
144	0xbd539982	-0.05166007
145	0xbc6d3365	-0.014477585
146	0xbc5d2760	-0.013498157
147	0x3de2b1be	0.11069058
148	0x3c525720	0.012838155
149	0x3c987942	0.018612508
150	0x3ddb7b3f	0.10716867
151	0x3de3d000	0.11123657
152	0x3e3bccbb	0.18339817
153	0xbe312ba0	-0.17301798
154	0xbd679872	-0.056541868
155	0xbd540c2b	-0.051769417
156	0xbd8a73bd	-0.067603566
157	0xbde8b885	-0.11363319
158	0xbc586d49	-0.013209649
159	0x3cfb825c	0.030701809
160	0xbd43b77a	-0.0477824
161	0xbd3a0341	-0.04541326
162	0x3cf41904	0.029797085
163	0x3bb7eea3	0.0056131645
164	0x3d322b88	0.043498546
165	0x391a7674	0.00014730712
166	0x3cea39a3	0.028591936
167	0x3cd34ebb	0.025794378
168	0xbe2a191f	-0.16611145
169	0xbd8754b7	-0.06607955
170	0xbda9dfea	-0.08294661
171	0x3d677f6f	0.056518015
172	0xbd823f70	-0.06359756
173	0x3d2b7a3b	0.041864615
174	0xbd189a05	-0.03725626
175	0x3d8d170f	0.06889164
176	0x3c86a794	0.01643733
177	0x3c6c3de5	0.014419054
178	0x3d80b963	0.0628536
179	0x3cdab3b5	0.02669702
180	0xbc557b3d	-0.013029871
181	0x3d1fe07b	0.03903244
182	0x3d5a294f	0.05326205
183	0xbcd71733	-0.02625618
184	0x3d0dd3e8	0.034625918
185	0xbdb496a1	-0.08817793
186	0x3995abd8	0.00028547528
187	0xbd498fec	-0.04920952
188	0xbdfde78e	-0.12397681
189	0xbd9a85b0	-0.0754503
190	0xbde247e7	-0.110488705
191	0xbe04d95f	-0.12973545
192	0x3c70f6ee	0.01470731
193	0x3c6bb753	0.01438697
194	0x3d876b44	0.06612256
195	0x3b8da44b	0.0043225638
196	0xbd6cfa82	-0.05785609
197	0x3c17e73b	0.009271438
198	0xbca03859	-0.019558119
199	0xbd563f18	-0.052306265
200	0x3caba280	0.02095151
201	0xbd82c993	-0.063861035
202	0xbd72920d	-0.059221316
203	0xbc940207	-0.018067373
204	0xbcadc0b5	-0.021210054
205	0xbd812e1a	-0.06307621
206	0x3cca3ecc	0.024688147
207	0x3d0c996f	0.034326013
208	0xbcdec7e7	-0.02719493
209	0xbbbd9771	-0.0057858755
210	0x3ca87ac7	0.020566357
211	0x3e12e8f4	0.14346677
212	0x3db19472	0.08670892
213	0xbe4023dd	-0.18763681
214	0xbdc45b69	-0.095877476
215	0xbd931adc	-0.071828574
216	0xbd3b39e2	-0.0457095
217	0xbe1315ad	-0.14363737
218	0xbda17e6e	-0.07885443
219	0xbb013273	-0.0019713908
220	0xbdfe1eec	-0.12408242
221	0xbd682d71	-0.05668396
222	0xbd8bfc4c	-0.06835231
223	0x3d5926da	0.053015567
224	0xbd17ba16	-0.0370427
225	0xbcd853f6	-0.026407223
226	0x386d105c	5.652044e-05
227	0xb91b83a4	-0.00014830992
228	0x3d944bbe	0.07241009
229	0x3da02b38	0.07820743
230	0xbc1c874c	-0.009553742
231	0xbcb53f1e	-0.022124823
232	0x3dd657a8	0.10465938
233	0x3df9e40f	0.12201702
234	0x3c89637e	0.016771074
235	0x3dcae398	0.09906691
236	0x3dc2bf51	0.09509147
237	0xbc9c51d5	-0.01908199
238	0x3c4a89fa	0.012361998
239	0xbdaa5990	-0.08317864
240	0xbc237960	-0.0099776685
241	0x3d116179	0.035493348
242	0x3d9985fd	0.07496259
243	0x3d62cf8d	0.055373717
244	0x3c990a73	0.01868174
245	0x3cb987a7	0.022647692
246	0xbd32a1da	-0.043611385
247	0x3d9faa0b	0.07796105
248	0xb9c17a48	-0.00036902935
249	0x3dbe029c	0.092778414
250	0x3d97ae49	0.07406289
251	0x3de978c4	0.11399987
252	0xbc602849	-0.01368148
253	0x3c18deff	0.00933051
254	0xbe4ace42	-0.19805244
255	0x3dade4f0	0.08490932

conv3.bias f4 [48]
0	0x39725f9b	0.00023114534
1	0x39d4e6ea	0.00040607835
2	0xb8b6255f	-8.685397e-05
3	0x3a71352f	0.00092013454
4	0xb96f8327	-0.00022841674
5	0xb966583e	-0.00021967382
6	0xb939e334	-0.00017727615
7	0xba47538b	-0.00076036964
8	0xba4896b0	-0.0007651849
9	0x381fc656	3.809327e-05
10	0x39a24658	0.00030951458
11	0x3a2b6635	0.00065383624
12	0x3915414e	0.00014234075
13	0x3980f116	0.00024593686
14	0x37e94570	2.7808099e-05
15	0x38adfceb	8.2963925e-05
16	0xb8ad6b27	-8.2692415e-05
17	0xb93f0857	-0.00018218286
18	0x398e6427	0.0002715897
19	0xb8b2c446	-8.52426e-05
20	0x37f5ddd9	2.9309582e-05
21	0xb949920b	-0.00019223259
22	0xb8630a21	-5.413045e-05
23	0xb6dce365	-6.582983e-06
24	0xba3091eb	-0.00067356107
25	0x3a417d45	0.00073810323
26	0x3972a34d	0.00023139753
27	0xb986d7f7	-0.00025719378
28	0x38b70e7e	8.7288194e-05
29	0x38a74a05	7.976968e-05
30	0x3904fb98	0.00012682227
31	0xb863cd3b	-5.4312153e-05
32	0xb91d247b	-0.00014986277
33	0xb9f439f9	-0.000465825
34	0x39c8470a	0.000381999
35	0xb7839791	-1.5686996e-05
36	0xb9829284	-0.00024904695
37	0xb9b82320	-0.00035121385
38	0xb908d03b	-0.00013047543
39	0xb951c647	-0.00020005657
40	0xb9376170	-0.00017488538
41	0xb9306d5e	-0.0001682541
42	0x395cbcad	0.00021051122
43	0xb9122666	-0.0001393795
44	0x394b8621	0.00019409556
45	0xb9a21ecd	-0.00030921996
46	0x38a9ed4b	8.102747e-05
47	0xb79297b9	-1.7475208e-05

conv4.weight f4 [64, 48, 3, 3]
0	0x3d6f17a3	0.05837215
1	0xbcb6b273	-0.022301888
2	0xbd81989c	-0.06327936
3	0xbd817ccb	-0.063226305
4	0xbdbf8c98	-0.09352988
5	0xbe08a9e8	-0.13346064
6	0xbd954408	-0.072883666
7	0xbcf29afb	-0.029614916
8	0xbd6a4f4e	-0.057204537
9	0x3d3d315a	0.046189643
10	0x3d3d2d7b	0.04618595
11	0x3de3aa70	0.11116493
12	0x3c34dfce	0.011039687
13	0x3d94f14d	0.07272587
14	0x3d58c281	0.05291987
15	0x3d2b1b75	0.041774232
16	0xbd22fd7e	-0.03979253
17	0xbd8dda9b	-0.06926461
18	0xbd85ca56	-0.06532733
19	0xbd6a1965	-0.057153124
20	0xbdddd67f	-0.108319275
21	0x3d9e0873	0.07716455
22	0x3d2e33ed	0.04252999
23	0xbd0819af	-0.03322762
24	0xbb04fc32	-0.0020291922
25	0x3cea87f4	0.02862928
26	0xbd5920d0	-0.053009808
27	0x3d592940	0.053017855
28	0x3e0f0990	0.13968492
29	0xbc9e0a92	-0.01929215
30	0x3d2f7839	0.042839263
31	0xbc1f40df	-0.009720056
32	0xbc9c66bc	-0.019091956
33	0xbdcc68de	-0.09980939
34	0x3c8de855	0.017322699
35	0xbd471303	-0.048602115
36	0xbe029e16	-0.12755617
37	0xbd9754cb	-0.0738922
38	0xbe00e744	-0.12588221
39	0x3cba5477	0.022745354
40	0xb95ee882	-0.00021258186
41	0x3d1151f0	0.035478532
42	0xbd1ad4f3	-0.03780074
43	0xbd88a9a7	-0.066729836
44	0xbca58100	-0.020203114
45	0xbd5b3057	-0.053512897
46	0xbde0968d	-0.10966215
47	0xbdbdd5b0	-0.09269273
48	0xbe0fa130	-0.14026332
49	0xbd87b488	-0.066262305
50	0xbddf3415	-0.10898606
51	0x3d953c1e	0.07286857
52	0x3d8788ff	0.06617927
53	0x3c258b7c	0.010104056
54	0xbd6bbfa9	-0.05755583
55	0xbda1d4a1	-0.07901884
56	0xbd055ebf	-0.03256106
57	0xbde53c40	-0.111931324
58	0xbd618ab1	-0.055063907
59	0xbd9a0d44	-0.075220615
60	0x3cdddd0d	0.027082944
61	0x3b8436cd	0.004034853
62	0x3d0416fb	0.03224848
63	0xbd74b8a6	-0.059746407
64	0xbce54165	-0.027985284
65	0x3c29e066	0.010368442
66	0x3c8c4590	0.017123014
67	0x3d2233d7	0.03960022
68	0x3c682c76	0.014170757
69	0x3d31f719	0.04344854
70	0x3d50c96b	0.050973337
71	0x3d443bd5	0.047908623
72	0x3cc92f80	0.024558783
73	0x3dfb2482	0.12262823
74	0x3d8ec394	0.06970897
75	0xbded3a49	-0.11583383
76	0xbc2e1e4a	-0.010627339
77	0xbd533d2a	-0.051572002
78	0xbd22b7a8	-0.03972593
79	0x3d1cfa29	0.03832451
80	0x3d6747c2	0.056464918
81	0x3d849347	0.064734034
82	0x3cc7543e	0.024332162
83	0x3d516c9b	0.051128965
84	0xbd997b80	-0.07494259
85	0xbba51d66	-0.005038905
86	0xbc4b576c	-0.01241098
87	0x3c8d4b41	0.017247798
88	0xbb990656	-0.0046699448
89	0x3d521b2b	0.05129544
90	0xbdd21d33	-0.102594756
91	0xbdbb0f65	-0.09133796
92	0xbd33c3b2	-0.0438878
93	0x3c9bdf2f	0.01902732
94	0xbc610cd9	-0.013735973
95	0xbd5ff7c5	-0.05467965
96	0xbc8422f7	-0.016129954
97	0x3d5a2546	0.053258203
98	0xbd624600	-0.05524254
99	0xba2665a6	-0.0006347544
100	0x3df004c7	0.11719661
101	0x3decfe69	0.115719624
102	0xbd8adaed	-0.06780038
103	0xbd860d50	-0.06545508
104	0xbd062817	-0.032753076
105	0x3ce9f77c	0.028560393
106	0x3d2bf2a7	0.04197946
107	0x3b32b6ee	0.002726968
108	0xbe1b9cf8	-0.15196598
109	0xbe21d0ee	-0.15802357
110	0xbe40a0cd	-0.1881134
111	0x3db304f1	0.08741177
112	0x3e352748	0.17690766
113	0x3dbe354f	0.092875116
114	0x3d111245	0.035417814
115	0x3d20c42c	0.039249584
116	0x3d73f090	0.05955559
117	0x3b81d600	0.0039622784
118	0x3c19e83b	0.009393747
119	0x3d7580dd	0.059937347
120	0xbc680c77	-0.014163128
121	0xbd8184f4	-0.06324187
122	0xbd95cdb3	-0.07314625
123	0x3c90c95b	0.017674139
124	0x3ceff2ac	0.02929052
125	0xbd4c0bca	-0.04981593
126	0x3ddc687d	0.10762117
127	0x3db9bac6	0.09068827
128	0x3da9c2d4	0.08289114
129	0xbd40bbe7	-0.047054198
130	0xbdb3ec0e	-0.08785258
131	0xbe21f75c	-0.15817016
132	0x3b04ae6f	0.0020245572
133	0x3d890105	0.066896476
134	0x3e1c619c	0.1527161
135	0xbc518cd8	-0.012789927
136	0xbd8c1711	-0.06840337
137	0xbcbee45a	-0.023302246
138	0xbdd488fd	-0.10377691
139	0xbd235f9f	-0.039886113
140	0xbdcf5e8f	-0.101254575
141	0x3d4bebaa	0.049785294
142	0x3db7b9a2	0.089709535
143	0xbc3314a4	-0.010930214
144	0xbcc9e3f6	-0.024644833
145	0xbd075e61	-0.03304899
146	0xbd55d8a3	-0.052208554
147	0xbc52f902	-0.012876751
148	0x3c7e4ca7	0.015521205
149	0xbd3da3df	-0.046298858
150	0x3cdabe1f	0.026701985
151	0x3c9a7924	0.018856592
152	0xbd36e40a	-0.04465107
153	0x3dc6917e	0.09695719
154	0x3e0847aa	0.13308588
155	0x3e59736c	0.21235436
156	0x3c59739d	0.013272193
157	0x3d14321e	0.036180608
158	0xbd3cfb52	-0.046138115
159	0xbd9229d8	-0.07136887
160	0xbdd228fe	-0.10261725
161	0xbd1bca60	-0.038034797
162	0x3deb9c1a	0.115043834
163	0x3df633f5	0.12021629
164	0x3de1a66a	0.11018069
165	0x3bc6e070	0.0060692355
166	0xbd7b31cf	-0.061326798
167	0xbd8c3623	-0.06846263
168	0xbde41583	-0.111369155
169	0xbdcc676b	-0.09980663
170	0xbceb5eb5	-0.028731683
171	0x3d20f9df	0.039300796
172	0x3dc1de92	0.0946628
173	0x3d8a36ea	0.06748755
174	0x3da524b8	0.08063644
175	0x3da742ca	0.08167036
176	0x3ded7a3f	0.11595582
177	0x3de9d7d0	0.11418116
178	0x3dd8510f	0.10562336
179	0x3d13f426	0.03612151
180	0x3db29061	0.08718944
181	0x3e1beda4	0.15227371
182	0x3d5841d7	0.052797165
183	0xbdb2d456	-0.08731906
184	0xbdb1b385	-0.08676819
185	0xbe07dbaa	-0.13267389
186	0x3de409e3	0.11134698
187	0x3de5a51c	0.11213133
188	0x3e3f3f7b	0.1867656
189	0xbdef3311	-0.11679662
190	0xbde719e0	-0.11284232
191	0xbd8ee3b0	-0.06977022
192	0xbd498ffb	-0.049209576
193	0xbbcd103a	-0.006258038
194	0x3a475416	0.00076037773
195	0x3cafdbad	0.021467054
196	0x3d095aa7	0.03353372
197	0x3d224ac4	0.039622083
198	0x3c3e44e7	0.011613107
199	0xbbc8fe2d	-0.0061338157
200	0x3ce9a2d2	0.028520022
201	0xbd0e18bf	-0.03469157
202	0xbda4d2f7	-0.08048051
203	0x3bd5fffb	0.0065307594
204	0x3d6fd09f	0.058548566
205	0x3d3ec25b	0.04657207
206	0x3dd23fd4	0.102660805
207	0x3ba5502a	0.0050449567
208	0xbd9830be	-0.07431172
209	0xbd783ae3	-0.060603034
210	0x3d816a98	0.06319159
211	0x3d60eda1	0.05491412
212	0x3e062539	0.13100137
213	0x3d7c3468	0.061573416
214	0x3cb67c13	0.02227596
215	0xbd8ac35c	-0.06775543
216	0xbdb019bc	-0.085986584
217	0x3cd7dddb	0.026350906
218	0xbc16ec9c	-0.0092116855
219	0xbc875f2f	-0.01652488
220	0x3ceeab7b	0.029134503
221	0x3c492211	0.0122761885
222	0xbd97d677	-0.07413953
223	0xbde46b06	-0.111532256
224	0xbdbb3b16	-0.09142129
225	0xbe2425c3	-0.1603003
226	0xbe6b3a77	-0.22971521
227	0xbe22b664	-0.15889889
228	0x3dbe5424	0.09293392
229	0x3da682ca	0.08130415
230	0x3d88bb57	0.06676357
231	0x3d5dd549	0.054158483
232	0x3d78a0b6	0.06070014
233	0x3c2cea37	0.010553888
234	0xbd019676	-0.03163763
235	0xbc834562	-0.016024295
236	0xbd48c7fb	-0.04901884
237	0xbe3f13ed	-0.18659945
238	0xbe13e4c3	-0.14442734
239	0xbe1c8415	-0.1528476
240	0x3da9eb19	0.082967944
241	0x3d3d1d6b	0.046170633
242	0x3e075896	0.13217387
243	0xbc413a79	-0.011793726
244	0x3cdae262	0.026719276
245	0xbcb16154	-0.021652855
246	0xbe27214c	-0.16321295
247	0xbd40bbe0	-0.04705417
248	0xbdb4eb27	-0.08833914
249	0xbd07a4e9	-0.033116255
250	0xbd854be0	-0.06508613
251	0x3d73bb7a	0.059504963
252	0x3dae5cf1	0.08513821
253	0x3e05f7fc	0.1308288
254	0x3dfd5ac0	0.12370825
255	0xbd00f000	-0.03147888

conv4.bias f4 [64]
0	0x38a37285	7.7937766e-05
1	0x38476aa7	4.7544625e-05
2	0xb877ffd2	-5.912764e-05
3	0xb87d6122	-6.0410362e-05
4	0xb9022d74	-0.00012414699
5	0xb90520f1	-0.0001269614
6	0x38aa8dce	8.132645e-05
7	0xb908aaf7	-0.0001303366
8	0x39855935	0.000254342
9	0x381da0b7	3.7581394e-05
10	0xb827bfdd	-3.999459e-05
11	0xb91bdb1d	-0.00014863578
12	0x35fab0a1	1.8677857e-06
13	0x39033263	0.00012511904
14	0x3932bf77	0.00017046729
15	0x386d0338	5.65082e-05
16	0xb725cfcb	-9.883147e-06
17	0xb8a7b200	-7.9963356e-05
18	0x393f06ec	0.00018217758
19	0xb92a0d0d	-0.00016217325
20	0xb8134bc2	-3.5118086e-05
21	0xb8de2016	-0.000105917614
22	0x3910a4ac	0.00013794255
23	0x37c4038c	2.3366672e-05
24	0xb8820bdc	-6.201092e-05
25	0xb631f924	-2.6520074e-06
26	0xb7a9c861	-2.0239679e-05
27	0xb91f8eee	-0.00015216667
28	0xb7cf311c	-2.4699191e-05
29	0x3852d09b	5.026218e-05
30	0x3912ead2	0.00014011122
31	0xb90ed01a	-0.00013619699
32	0x38dc4f8a	0.00010505233
33	0x394f73f2	0.00019784251
34	0x39045c28	0.00012622832
35	0x383d2fe5	4.5105717e-05
36	0x3893cdb6	7.047823e-05
37	0x387cde1c	6.0288337e-05
38	0x3872d65f	5.7896945e-05
39	0x3844f2aa	4.695604e-05
40	0xb6bd28aa	-5.637373e-06
41	0x38956b62	7.124875e-05
42	0xb5a09679	-1.1964722e-06
43	0x37104ac2	8.600475e-06
44	0xb9267341	-0.00015873929
45	0x35df797f	1.6650155e-06
46	0xb679af73	-3.7206016e-06
47	0x37d337cd	2.5179144e-05
48	0xb89e45a9	-7.547002e-05
49	0xb87733fb	-5.89378e-05
50	0xb8a2beb4	-7.760283e-05
51	0xb906c943	-0.00012854212
52	0xb805e0df	-3.19191e-05
53	0xb91cba2a	-0.00014946671
54	0x380e48a6	3.3923097e-05
55	0xb8edad96	-0.000113333735
56	0x37a78ce3	1.9973557e-05
57	0xb7b1f7ad	-2.1215377e-05
58	0xb7bbc995	-2.2386006e-05
59	0xb93c55fd	-0.0001796111
60	0x38a63eda	7.927204e-05
61	0x3936feee	0.00017451841
62	0xb852bda2	-5.024451e-05
63	0xb843c157	-4.6671685e-05

conv5.weight f4 [80, 64, 3, 3]
0	0xbd59ec07	-0.05320361
1	0x3d0e0314	0.034670904
2	0x3d930abd	0.071797825
3	0xbd025f8f	-0.031829413
4	0xbd6307eb	-0.055427473
5	0xbb66827d	-0.0035172992
6	0x3d0fdfab	0.035125416
7	0x3defcbcf	0.11708795
8	0x3d80ae29	0.062832184
9	0x39b427f5	0.00034362046
10	0x3d48cdf4	0.049024537
11	0x3d7051c9	0.058671746
12	0xbd827522	-0.063699976
13	0x3d3f7d80	0.046750546
14	0x3cde2a81	0.027119877
15	0x3d6f697c	0.058450207
16	0x3c32a49c	0.010903504
17	0x3d8a3f0c	0.067503065
18	0x3d895852	0.06706299
19	0x3d85765d	0.06516717
20	0x3d41f7b1	0.047355358
21	0x3cd58c2b	0.026067814
22	0x3de8fcf6	0.113763735
23	0x3d438efb	0.04774378
24	0x3e032dac	0.12810391
25	0x3d124be1	0.035716895
26	0x3d5502d2	0.052004643
27	0xbd87eff3	-0.066375636
28	0x3ccd65d1	0.025072964
29	0xbc097da9	-0.008391776
30	0xbca3584c	-0.019939564
31	0xbc9cc85d	-0.01913851
32	0xbd025a50	-0.03182441
33	0x3d47ccc4	0.048779264
34	0x3ca98bd6	0.020696562
35	0x3cd75334	0.026284792
36	0x3d2ce88b	0.042213958
37	0x3e20d275	0.15705283
38	0x3e1f4d5b	0.15556853
39	0x3d04afdf	0.032394286
40	0xbd04ce05	-0.032423038
41	0xbc1812b3	-0.009281802
42	0x3c99e787	0.018787159
43	0x3d9f5514	0.07779899
44	0x3cda38ca	0.026638407
45	0x3d330796	0.043708406
46	0x3d04fce3	0.032467734
47	0x3df46791	0.11933816
48	0xbd8b763f	-0.06809663
49	0xbd02d480	-0.031940937
50	0x3d3f11e0	0.046647906
51	0x3cde0b54	0.027105011
52	0x3bc1b3ef	0.0059113423
53	0xbd3a2f5a	-0.045455314
54	0xbd0572e3	-0.032580268
55	0x3d4bc391	0.049747054
56	0x3c205dfb	0.009788032
57	0x3d562699	0.052282903
58	0x3e248c36	0.16069111
59	0x3e0873f0	0.13325477
60	0xb894896d	-7.0827875e-05
61	0x3be08457	0.0068517136
62	0x3c525ba2	0.01283923
63	0x3c78c9e2	0.015184851
64	0xba3f8745	-0.00073062285
65	0x3c8bb509	0.017054098
66	0x3d5d6695	0.054052908
67	0x3d6a9734	0.057273105
68	0x3c96ef8e	0.018424775
69	0x3da774c3	0.081765674
70	0x3d90c03c	0.07067916
71	0x3a306029	0.0006728196
72	0x3d0d964b	0.03456716
73	0x3dbf268a	0.093335226
74	0x3d9a57e4	0.07536295
75	0xbb0f45bd	-0.0021861636
76	0x3d47de3a	0.048795916
77	0x3dbceb51	0.092245705
78	0xbe02ec12	-0.12785366
79	0xbd22c6d5	-0.039740402
80	0xbd845aba	-0.06462617
81	0xb9ca7098	-0.0003861233
82	0xbcce37ef	-0.025173156
83	0xbc7fea40	-0.015619814
84	0xbd6079d1	-0.054803673
85	0x3c12a949	0.008951494
86	0xbc8d08fd	-0.0172162
87	0xbd0272a3	-0.031847607
88	0x3b1007cd	0.0021977306
89	0x3c97e322	0.018540923
90	0x3dba5835	0.090988554
91	0x3df3e516	0.11908929
92	0x3d775e3d	0.060392607
93	0x3be7a247	0.0070689055
94	0xbc329d1a	-0.010901714
95	0xbda9d4dc	-0.08292553
96	0x3d062606	0.032751106
97	0x3d830259	0.06396932
98	0x3d85aeba	0.06527467
99	0x3d8fbf91	0.0701896
100	0x3e5b0a9b	0.21390764
101	0x3e380b79	0.17973126
102	0x3d2f7440	0.042835474
103	0x3dc2e7a7	0.095168404
104	0x3df5e650	0.12006819
105	0x3d507ca2	0.05090011
106	0x3cfe04fc	0.031008236
107	0x3e019ece	0.12658235
108	0xbcec7f01	-0.028869154
109	0xbd9f5a64	-0.077809125
110	0x3c88a6fe	0.01668119
111	0xbc41d31f	-0.01183012
112	0xbd2fe551	-0.042943303
113	0xbda8975d	-0.08231995
114	0xbdbc1384	-0.0918341
115	0xbd9bea73	-0.07613077
116	0xbd6e21b5	-0.058137614
117	0xbe4646a9	-0.19362892
118	0xbe2f658c	-0.17128581
119	0xbe222132	-0.15832976
120	0xbda9f07e	-0.08297823
121	0xbdd9c5ba	-0.106334165
122	0xbd96683d	-0.073441006
123	0x3d8558fe	0.065111145
124	0x3da30a86	0.079609916
125	0x3d9be635	0.07612268
126	0x3c9c495d	0.019077951
127	0x3d333a33	0.043756675
128	0x3dab7200	0.08371353
129	0x3cb5b16e	0.022179332
130	0x3bf930e8	0.007604707
131	0xbd15a6b2	-0.036535926
132	0x3d4de2de	0.050265186
133	0x3c8ea5ae	0.017412987
134	0x3c33cc71	0.010974036
135	0xbd849581	-0.06473828
136	0xbdc979f0	-0.09837711
137	0xbd64ad8e	-0.055829577
138	0xba4d875d	-0.00078403
139	0x3d36e360	0.044650435
140	0x3bd937af	0.0066289525
141	0xbcbd763d	-0.02312767
142	0x3ca62227	0.020279957
143	0x3d328763	0.043586146
144	0xbdade5d1	-0.084910996
145	0xbda618f4	-0.08110228
146	0xbd12e2ca	-0.035860814
147	0xbc2014e2	-0.009770604
148	0xbd37820f	-0.044801768
149	0xbd7e86b0	-0.062140167
150	0x3d0a2355	0.0337251
151	0x3d932350	0.0718447
152	0x3b4b71a9	0.0031043089
153	0x3dc4fa30	0.09618032
154	0x3e02d97a	0.12778273
155	0x3dfe7d24	0.124262124
156	0xbdc08d73	-0.09401979
157	0x3bc28d38	0.0059372447
158	0xbd36efd4	-0.04466231
159	0x3c8e427b	0.017365685
160	0x3dd75023	0.10513332
161	0x3dc22327	0.09479361
162	0x3c927175	0.017876366
163	0xbc0ba85e	-0.008524029
164	0xbbbaeff4	-0.005704874
165	0xbdf95fde	-0.12176488
166	0xbe2daaba	-0.16959658
167	0xbdfc1b3b	-0.12309881
168	0xbdfb637a	-0.12274833
169	0xbdbfbfbf	-0.093627445
170	0xbe1aa259	-0.15100993
171	0xbd523a4f	-0.05132514
172	0x3c6c5aaf	0.0144259175
173	0xbb881a7e	-0.0041535487
174	0xbdc9ffc9	-0.0986324
175	0xbe130216	-0.14356264
176	0xbdbb0c42	-0.09133197
177	0xbe1378de	-0.14401576
178	0xbdde07cf	-0.10841333
179	0xbe1f755b	-0.15572111
180	0x3db55045	0.08853201
181	0x3e1ce789	0.15322699
182	0x3e25df59	0.16198482
183	0x3ce8c8af	0.028416006
184	0x3d2e9f68	0.04263249
185	0x3cbd482b	0.023105701
186	0xbd81e5b7	-0.06342643
187	0xbd986e5f	-0.074429266
188	0xbc409399	-0.01175394
189	0x3d98dd7c	0.0746412
190	0x3d5c5ce8	0.05379954
191	0x3d51fc35	0.051265914
192	0xbd92d0d2	-0.071687356
193	0xbd762066	-0.06008949
194	0xbd7af9a7	-0.061273243
195	0xbd441a11	-0.04787642
196	0xbceed77d	-0.029155487
197	0xbdce995c	-0.10087845
198	0x3df8e7dc	0.12153599
199	0x3de5f7ca	0.11228903
200	0x3ce7c591	0.02829245
201	0x3bda16c9	0.0066555482
202	0xbd000476	-0.031254254
203	0xbdf8361d	-0.12119696
204	0xbe17510a	-0.14777008
205	0xbe12e556	-0.14345297
206	0xbdfc2882	-0.12312414
207	0x3db32394	0.0874702
208	0x3d891cb2	0.06694926
209	0x3d137e38	0.036009043
210	0x3d815b9a	0.063163
211	0xbb6673da	-0.0035164268
212	0xbd26c36d	-0.040713716
213	0xbdc7f067	-0.0976265
214	0xbd8039ef	-0.0626105
215	0xbd1c90df	-0.038224097
216	0xbd9a23cc	-0.07526359
217	0x3be4d1a1	0.0069829975
218	0xbb911b5f	-0.0044283117
219	0x3aa881dd	0.0012856085
220	0x3d50f775	0.051017243
221	0xb8d3ecf3	-0.00010105399
222	0x3dcd75f1	0.10032261
223	0x3e38d24f	0.18048976
224	0x3de3dd45	0.11126188
225	0xbdf6e90a	-0.120561674
226	0xbd700702	-0.058600433
227	0xbc2f4b07	-0.01069904
228	0x3c2b7241	0.010464252
229	0x3c662dd9	0.014049017
230	0xbbb0c44e	-0.005394495
231	0xbd9848b6	-0.074357435
232	0xbd2540ad	-0.040344883
233	0xbd610ce1	-0.054943923
234	0x3d40a327	0.047030594
235	0xbd3f9548	-0.046773225
236	0xbcc0217f	-0.023453472
237	0x3d432573	0.047643136
238	0x3ce2bd5b	0.027678182
239	0x3c4673a1	0.012112529
240	0xbd66a7e5	-0.05631246
241	0xbd47efd6	-0.04881271
242	0xbbb0d15f	-0.0053960527
243	0x3caa11f3	0.020760512
244	0x3d4d67ac	0.050147697
245	0x3ddd5ea3	0.10809066
246	0xbd4f8ff0	-0.05067438
247	0xbd470c1e	-0.04859554
248	0x3d1a552b	0.03767888
249	0x3d2d658c	0.04233317
250	0x3dc26a9b	0.0949299
251	0x3beeaea9	0.0072840047
252	0xbb88ffcc	-0.004180884
253	0x3c42ce08	0.011889942
254	0x3bc7bae2	0.006095276
255	0xbdbdddd3	-0.09270825

conv5.bias f4 [80]
0	0x37da57f0	2.6028574e-05
1	0x383ba6b4	4.473953e-05
2	0xb7c4b4a3	-2.3449136e-05
3	0xb7892fcc	-1.635393e-05
4	0xb7cc6ced	-2.4369418e-05
5	0x383c8a87	4.4951707e-05
6	0xb7f0e812	-2.8718296e-05
7	0xb79aa76a	-1.8436189e-05
8	0x38039f27	3.1381056e-05
9	0x36d0d50c	6.223685e-06
10	0xb73397dc	-1.0704589e-05
11	0xb843bf9c	-4.6670073e-05
12	0xb865be8b	-5.477531e-05
13	0x37481dd4	1.1927874e-05
14	0xb7245926	-9.795918e-06
15	0x3881348a	6.1609855e-05
16	0x38819714	6.17934e-05
17	0x38a59488	7.895479e-05
18	0x3728d0cc	1.0062195e-05
19	0x33dbad34	1.0229488e-07
20	0x381e24ed	3.7704525e-05
21	0x38a63dd1	7.927011e-05
22	0x38fec89d	0.00012149031
23	0xb8543527	-5.059424e-05
24	0x3835ef7c	4.33768e-05
25	0xb764970a	-1.36250255e-05
26	0x36ff650d	7.611356e-06
27	0xb88d4d39	-6.737788e-05
28	0x3735a57d	1.0826971e-05
29	0xb7a772f5	-1.9961482e-05
30	0x389b2673	7.398138e-05
31	0x3863febf	5.435827e-05
32	0x36bdc512	5.655581e-06
33	0x38686e5e	5.5415898e-05
34	0x38b34306	8.547869e-05
35	0xb7ce3e37	-2.4586085e-05
36	0x3828b3fb	4.022194e-05
37	0x38126b17	3.4908848e-05
38	0xb7d9734f	-2.592211e-05
39	0x360bb2c1	2.0816663e-06
40	0x390a5cef	0.00013195326
41	0xb8620f6c	-5.389696e-05
42	0xb886456c	-6.402549e-05
43	0xb831462a	-4.2265434e-05
44	0xb7762ce9	-1.4673199e-05
45	0xb89463d5	-7.075785e-05
46	0x382535f9	3.938933e-05
47	0x387aebdf	5.9824317e-05
48	0xb7b31a64	-2.1350752e-05
49	0xb91fdbb8	-0.00015245273
50	0x3867cca9	5.5265296e-05
51	0xb7724762	-1.4440944e-05
52	0x38077b25	3.2301195e-05
53	0x36d2259a	6.262865e-06
54	0x38b01855	8.396866e-05
55	0x3769b181	1.3929211e-05
56	0xb80d3490	-3.3665972e-05
57	0xb89b05e9	-7.392077e-05
58	0x37a49e06	1.9623909e-05
59	0xb7c0400e	-2.2918011e-05
60	0xb6955f0e	-4.451612e-06
61	0x37af87c1	2.0924841e-05
62	0xb81492cd	-3.542267e-05
63	0x3502ed9a	4.877453e-07
64	0x36e5396f	6.831418e-06
65	0x38b56127	8.6488486e-05
66	0xb824c5b4	-3.9284772e-05
67	0xb8048ae8	-3.160062e-05
68	0xb871a34e	-5.7610967e-05
69	0x38c3f9b4	9.3448354e-05
70	0xb7c081c8	-2.2948618e-05
71	0x37c72391	2.373921e-05
72	0xb68ff871	-4.2906545e-06
73	0xb8ac74e1	-8.2233695e-05
74	0x37f83517	2.9588626e-05
75	0xb8be713e	-9.080999e-05
76	0xb61b5c59	-2.3150553e-06
77	0xb90fb0b1	-0.00013703365
78	0x38184410	3.6303012e-05
79	0x378a2bab	1.6471216e-05

bn1a.weight f4 [8]
0	0x3f595743	0.84898776
1	0x3f82e8b0	1.022726
2	0x3f8be678	1.0929708
3	0x3f77d41b	0.9680802
4	0x3f8505b4	1.0392365
5	0x3f61c96f	0.8819799
6	0x3f742388	0.95366716
7	0x3f7cf068	0.9880433

bn1a.bias f4 [8]
0	0xbd9a190f	-0.07524311
1	0x3dcc5f78	0.09979147
2	0x3d140eed	0.036147047
3	0xbd90b3c3	-0.07065537
4	0xbd934df9	-0.071926065
5	0xbd1a62c1	-0.037691835
6	0xbe044926	-0.12918529
7	0x3d23e5c8	0.04001406

bn1a.running_mean f4 [8]
0	0x3f8100dd	1.0078388
1	0xc0884f98	-4.259716
2	0xc0d32159	-6.5978208
3	0xc0aa9cd3	-5.3316436
4	0xc0a61415	-5.1899514
5	0x40a3842a	5.1098833
6	0x40b464f8	5.6373253
7	0xbff2c9d6	-1.8967845

bn1a.running_var f4 [8]
0	0x44de28c2	1777.2737
1	0x43e837b9	464.43533
2	0x44464360	793.05273
3	0x44aad0ef	1366.5292
4	0x43a7628d	334.76993
5	0x44543d30	848.95605
6	0x44b6ca30	1462.3184
7	0x44edc02b	1902.0052

bn1b.weight f4 [8]
0	0x3f994a3e	1.1975782
1	0x3f605451	0.87628657
2	0x3f805c5e	1.0028188
3	0x3f7886db	0.97080773
4	0x3f9369a2	1.1516612
5	0x3f920d43	1.1410297
6	0x3f684267	0.9072632
7	0x3f4800ca	0.78126204

bn1b.bias f4 [8]
0	0x3e17eb6c	0.148359
1	0xbc2de754	-0.010614235
2	0x3d9b5d09	0.075861044
3	0xbdccd8b1	-0.10002268
4	0x3d63523c	0.055498347
5	0x3c914816	0.017734569
6	0x3d0c943a	0.034321047
7	0x3d483f7e	0.048888676

bn1b.running_mean f4 [8]
0	0xc1134ab1	-9.205735
1	0x40d476c3	6.6394973
2	0xc12f10db	-10.941615
3	0xc116b428	-9.418983
4	0xbdac8e83	-0.084256195
5	0xc0db173e	-6.846587
6	0x3f92b75f	1.146221
7	0x40a7bfe8	5.242176

bn1b.running_var f4 [8]
0	0x455c7143	3527.0789
1	0x4490b4a7	1157.6454
2	0x45453b1e	3155.6948
3	0x450748a0	2164.539
4	0x43009fa9	128.62367
5	0x451203fa	2336.2485
6	0x438d7fcb	282.99838
7	0x44c79807	1596.7509

bn2.weight f4 [32]
0	0x3f77b55e	0.9676112
1	0x3f861971	1.0476514
2	0x3f69f779	0.9139324
3	0x3f697998	0.9120116
4	0x3f882480	1.0636139
5	0x3f84b58a	1.0367901
6	0x3f669258	0.9006705
7	0x3f88b318	1.0679655
8	0x3f8ce351	1.1006871
9	0x3f7acfbe	0.9797324
10	0x3f7a6dee	0.9782399
11	0x3f89cbba	1.0765297
12	0x3f85724d	1.0425507
13	0x3f695d29	0.91157776
14	0x3f7677e8	0.9627671
15	0x3f755a54	0.95840955
16	0x3f807a2d	1.0037285
17	0x3f8660ee	1.049833
18	0x3f769dc2	0.9633447
19	0x3f75dc4d	0.9603928
20	0x3f89e654	1.0773416
21	0x3f60a485	0.87751037
22	0x3f7e0ffb	0.99243134
23	0x3f899404	1.0748296
24	0x3f859718	1.0436735
25	0x3f7d693c	0.989887
26	0x3f800a5d	1.0003163
27	0x3f8366cb	1.0265745
28	0x3f79b66e	0.9754399
29	0x3f6c75eb	0.9236743
30	0x3f7c4d9e	0.98555934
31	0x3f7bb6e6	0.98325956

bn2.bias f4 [32]
0	0xbe372a30	-0.17887187
1	0xbe051574	-0.12996465
2	0xbe45773b	-0.19283764
3	0xbe07c4a5	-0.13258608
4	0xbe419d34	-0.18907624
5	0xbc68e6be	-0.0142151695
6	0xbe19a07d	-0.15002628
7	0xbd04c0c4	-0.032410398
8	0xbded5317	-0.11588114
9	0xbe384428	-0.1799475
10	0xbe47447a	-0.19459715
11	0xbcc3e637	-0.023913486
12	0xbcaa46c3	-0.020785695
13	0xbe2302fb	-0.15919106
14	0xbd440c20	-0.047863126
15	0xbcfceae7	-0.030873729
16	0xbd2d9d56	-0.042386375
17	0xbdd73c03	-0.10509493
18	0xbd63d88e	-0.055626445
19	0xbe25081e	-0.16116378
20	0xbc029756	-0.007970652
21	0xbe4c5070	-0.1995256
22	0xbe2e0242	-0.16993049
23	0x3ca8bdc2	0.020598296
24	0xbe107609	-0.14107527
25	0x3e2141db	0.15747778
26	0xbcda2be3	-0.026632255
27	0xbd9b7705	-0.075910605
28	0xbe281c69	-0.16417088
29	0xbe332172	-0.17493227
30	0xbb528ef3	-0.0032128661
31	0xbdf8f4e0	-0.12156081

bn2.running_mean f4 [32]
0	0xbfa586b3	-1.2931732
1	0xbf4432f7	-0.76640266
2	0xbea94c94	-0.33066237
3	0xbf583281	-0.8445206
4	0xbf753cae	-0.95795715
5	0xbec77a46	-0.38960475
6	0xbf0f6272	-0.5600959
7	0xbf431975	-0.7621072
8	0xbf864e7a	-1.0492699
9	0xbf958db5	-1.168387
10	0xbf047ab2	-0.5174972
11	0xbf964085	-1.173844
12	0xbee2676c	-0.4421953
13	0xbf365b0c	-0.71232677
14	0x3bf79b6f	0.007556371
15	0xbead4f0e	-0.33849376
16	0xbf557b79	-0.8339153
17	0xbf315326	-0.692675
18	0xbeb657dd	-0.3561391
19	0xbe14c406	-0.14527902
20	0xbf03aaec	-0.5143268
21	0xbf649fe9	-0.89306504
22	0xbf509cf9	-0.8148952
23	0xbe8e365b	-0.27775845
24	0xbf1d41af	-0.6142835
25	0xbe3dcd0f	-0.18535255
26	0xbf2169d7	-0.63052124
27	0xbead3e33	-0.33836517
28	0xbe9f1464	-0.31070244
29	0xbf084998	-0.53237295
30	0xbe224edc	-0.15850395
31	0xbe26927f	-0.16266821

bn2.running_var f4 [32]
0	0x3f32741a	0.69708407
1	0x3f0d86b8	0.5528369
2	0x3f0c640d	0.54840165
3	0x3fb37b55	1.4022013
4	0x3f2a7bc2	0.6659509
5	0x3f23c437	0.63971275
6	0x3fd7baac	1.6853843
7	0x3fa1e6f2	1.2648604
8	0x3f072e8e	0.5280541
9	0x3f1241c7	0.5713162
10	0x3ed60911	0.41803792
11	0x3f506c5f	0.8141536
12	0x3f4923cc	0.78570247
13	0x3f10629e	0.5640048
14	0x3f1847da	0.59484637
15	0x3f3dfcb0	0.74213696
16	0x3fa57a17	1.2927884
17	0x3f064355	0.5244649
18	0x3f1c1ec3	0.6098444
19	0x3f1499d4	0.58047223
20	0x3f152fff	0.5827636
21	0x3f923d5d	1.1424977
22	0x3f6c942d	0.924136
23	0x3efa0070	0.4882846
24	0x3f022347	0.5083508
25	0x3f8a383e	1.0798414
26	0x3ebcd120	0.368783
27	0x3f09da54	0.5384877
28	0x3e999e49	0.30003574
29	0x3ed312fd	0.41225424
30	0x3f670f68	0.90257883
31	0x3ed25d46	0.41086787

bn3.weight f4 [48]
0	0x3f622129	0.8833185
1	0x3f764aea	0.9620806
2	0x3f61fc80	0.8827591
3	0x3f764462	0.96198094
4	0x3f78e295	0.97220737
5	0x3f6ad5a1	0.9173222
6	0x3f738725	0.9512809
7	0x3f8b0d13	1.0863365
8	0x3f751e64	0.957495
9	0x3f6f4d6d	0.9347752
10	0x3f750798	0.9571471
11	0x3f8285dc	1.0197101
12	0x3f80027d	1.0000759
13	0x3f816710	1.0109577
14	0x3f8a7f3c	1.0820079
15	0x3f80098c	1.0002913
16	0x3f790053	0.9726612
17	0x3f8387bc	1.0275798
18	0x3f8477f2	1.0349104
19	0x3f82dc02	1.0223391
20	0x3f731a8e	0.94962394
21	0x3f7a5c2f	0.9779691
22	0x3f73987c	0.9515455
23	0x3f7c4b92	0.9855281
24	0x3f81d5d8	1.0143385
25	0x3f7b7014	0.9821789
26	0x3f6c93e9	0.92413193
27	0x3f8391e5	1.0278898
28	0x3f85aaa9	1.0442706
29	0x3f823219	1.0171539
30	0x3f8214ed	1.0162636
31	0x3f817da3	1.0116466
32	0x3f7ebdd6	0.99508417
33	0x3f778820	0.96692085
34	0x3f7ba014	0.98291135
35	0x3f81cea0	1.0141182
36	0x3f79414b	0.97365254
37	0x3f85a573	1.0441116
38	0x3f7c6121	0.98585707
39	0x3f86df9c	1.053699
40	0x3f7bc5c6	0.98348653
41	0x3f7a24b0	0.9771223
42	0x3f898e2a	1.074651
43	0x3f7149ce	0.9425324
44	0x3f6a54fe	0.9153594
45	0x3f8422b4	1.032309
46	0x3f7ccf24	0.9875357
47	0x3f802086	1.0009925

bn3.bias f4 [48]
0	0xbe8f3074	-0.27966654
1	0xbc976383	-0.018480068
2	0xbe9df330	-0.308496
3	0xbe1f174f	-0.15536235
4	0xbe41446a	-0.18873754
5	0xbe3c56c9	-0.18392481
6	0xbd8491fe	-0.06473158
7	0xbd656a69	-0.056009684
8	0xbe833ffd	-0.25634757
9	0xbe0a6fff	-0.13519286
10	0xbe8ab7f3	-0.27093467
11	0xbd9cf792	-0.07664408
12	0xbe50b316	-0.20380816
13	0xbe1cfb18	-0.1533016
14	0xbe2a88a9	-0.16653694
15	0xbde5eb1a	-0.11226483
16	0xbe4e0f94	-0.2012313
17	0xbcd4f7be	-0.025997039
18	0xbe22bf8f	-0.15893386
19	0xba848a10	-0.0010111947
20	0xbdf9b8bb	-0.12193438
21	0xbe060cbd	-0.13090797
22	0xbe0017fd	-0.12509151
23	0xbe07bb8f	-0.13255142
24	0xbe55b3d4	-0.2086938
25	0xbe46679c	-0.19375461
26	0xbe527f80	-0.2055645
27	0xbe335b21	-0.17515232
28	0xbe1fbb7a	-0.1559886
29	0xbdd10f13	-0.10207953
30	0xbe0fae09	-0.14031233
31	0xbd64d417	-0.055866327
32	0xbe6ba4c4	-0.23012072
33	0xbdad3e89	-0.08459193
34	0xbdc642a8	-0.096806824
35	0xbe703b07	-0.23460017
36	0xbe58816a	-0.21143118
37	0x3ab2a0d2	0.001362825
38	0xbdf454ff	-0.11930274
39	0xbe0cf675	-0.13765891
40	0xbe58bacc	-0.21165007
41	0xbe055eba	-0.13024417
42	0xbd00fd9b	-0.031491857
43	0xbe83ba2b	-0.25727972
44	0xbe261efc	-0.16222757
45	0xbda0d83d	-0.07853744
46	0xbdecc427	-0.115608506
47	0xbe2e78bc	-0.17038244

bn3.running_mean f4 [48]
0	0xbeb6f223	-0.3573161
1	0xbe7c1378	-0.24616802
2	0x3f08196b	0.53163785
3	0x3f4f84f5	0.8106225
4	0xbf9b0c2e	-1.2113092
5	0xc00c6b7a	-2.1940598
6	0xbfc7e1fd	-1.5615841
7	0xbef920a6	-0.4865772
8	0xbe135066	-0.14386138
9	0x3ef08c60	0.46982098
10	0xbe562a00	-0.20914459
11	0xbfa38b23	-1.2776836
12	0xbf3eb566	-0.7449554
13	0xc01000fc	-2.25006
14	0xbf864fcc	-1.0493102
15	0xbeae3c35	-0.3403031
16	0xc02552a0	-2.583168
17	0xbf62e69f	-0.8863315
18	0xbfaaa82a	-1.333257
19	0xbecb7a62	-0.39741808
20	0xbe9a9fd9	-0.3020008
21	0xbf9364f5	-1.1515185
22	0xbf781f48	-0.9692273
23	0xbf57a177	-0.8423075
24	0xbf45775f	-0.7713527
25	0xbffca41e	-1.9737585
26	0xbe93c01d	-0.28857508
27	0x3ebad69a	0.36491853
28	0xbfb51947	-1.4148339
29	0xbe9fa3d4	-0.31179678
30	0xc0238755	-2.555135
31	0xbf76262a	-0.96151984
32	0xbf6309d4	-0.8868687
33	0xbf7c28cf	-0.9849977
34	0xbfe2f5ff	-1.7731322
35	0xc033064b	-2.797259
36	0x3f197e2a	0.59958136
37	0x3f21618b	0.63039464
38	0x3ec48364	0.38381493
39	0xc023ab1f	-2.5573194
40	0xbff9ba53	-1.9509987
41	0xbf0365b7	-0.5132708
42	0xbf65986c	-0.896857
43	0x3e8f925e	0.28041357
44	0xbf3c8f74	-0.7365639
45	0x3ee43c9d	0.44577494
46	0xbfc2ee21	-1.5228921
47	0xbf802342	-1.001076
